results/MyEnv/MyEnv/mappo/check/run4/models/actor.pt (torch, 44853 bytes, 16 tensors)

base.feature_norm.weight f4 [14]
00000000: b82c 7e3f d1ca 813f f235 7f3f 47ca 7b3f
00000010: cc00 853f e91a 803f f88b 803f 6e66 783f
00000020: 9c55 803f 8ea0 813f 3622 7c3f 4157 7a3f
00000030: feae 7c3f 8f51 7d3f
0.99286985 1.014002 0.9969169 0.98355526 1.0390868 1.0008212 1.0042715 0.97031295
1.0026126 1.0127122 0.984897 0.9778939 0.98704517 0.98952574

base.feature_norm.bias f4 [14]
00000000: 1823 46bc 4bef a03c 0c88 93bb 2f8b e5bb
00000010: 4634 cbb9 60ba 04bc 73bc c63c 1235 0bbd
00000020: 3548 033c 1df9 a33b 0105 83bb b3c0 d43c
00000030: c731 0e3d 6f07 5a3b
-0.012093328 0.019645354 -0.004502302 -0.0070051174 -0.00038758124 -0.008101076 0.024259781 -0.03398616
0.008012821 0.005004062 -0.0039983992 0.025970792 0.03471544 0.003326859

base.mlp.fc1.0.weight f4 [64, 14]
00000000: 688e 2e3e c170 21bd 9262 3c3d 2134 61bd
00000010: 18bc 86bc e5e1 92be 6809 54be 3516 4b3e
00000020: c5d2 40be c0bc f7bc 2b85 59bc 0225 c03d
00000030: a9b9 b53e 18f7 9c3e e9c4 293e b9e2 063d
00000040: b7fe 133e 1634 fbbd 247b b6bd 6418 863e
00000050: 4801 a33d 650f 563d 21f8 3fbe 3cfd 613e
00000060: fddc 093e 385b 993d 9a28 d83e 9c9d 44be
00000070: 6a60 c03d 7f37 9e3e 9d3e 9dbd b87f 89bd
00000080: dda2 75be 0d62 8bbd 50ca 9a3d 2dd9 96bd
00000090: 5e8d 42be 5bc1 5dbd 7b18 14bd 93e8 86bd
000000a0: 1768 603e dc85 393b fb39 d93d e1dd 063f
000000b0: 3992 683d 62c2 6cbb 44bc f9bd 9b84 cf3d
000000c0: c79b c5bc 6d33 95bb 9d18 9ebe 322d ae3e
000000d0: 56ce a23e 863f 61be d5cc 0fbd 9c8d 893d
000000e0: 5988 12be 7a27 843b 1148 87bd 14db a83e
000000f0: 1a34 90bd 71e5 c23c 7a2c 353e 70f4 3c3e
00000100: fbde 3b3e b454 edbd e07f 893d 070b 37be
00000110: 66fd 4d3d 63c6 55bd c0c3 7d3d 6752 1bbe
00000120: aa64 3ebe 49fb 3dbe 8def 89be 8f3a 0a3e
00000130: 44ff d13c 1ead 04be 1169 883e 03bd 133d
00000140: a1a3 b4bd 4487 c9be 104b 49bd 9cd6 8d3e
00000150: 02f8 a03e 409f a8be 120b 123d e97c 7fbe
00000160: 017e c03c c2e9 fa3c a045 4fbc 05ec 6b3e
00000170: 335d bebd 1593 8bbd 5dd3 98be 3232 9a3c
00000180: fc56 223e f0d8 50be 5a31 94bd d132 683e
00000190: 49a2 893e 4d22 45be 4f09 1b3e 0b7f 1d3e
000001a0: 0347 1cbc 01dd 3c3c d4e9 b0bb 5f78 283e
000001b0: 0722 a2bd 670a 5e3d b081 b53d a911 d3bd
000001c0: 329b d23d fc80 e9bd 2c32 ad3d 144d b43c
000001d0: 6368 413e 1dc4 cbbe b529 ab3d 4477 653e
000001e0: a016 17be 1351 f1bd 6ecc ed3d b902 03be
000001f0: 037f 67be 90e2 86bd 4d28 a23d 9e8b ab3d
00000200: 812e 0c3e fb2f 93be 59c5 26be bf06 9bbe
00000210: 5ace 7dbc 3889 56bd 8799 6a3e 9dec 40be
00000220: 9c4b 0f3e 1c2c d43d e849 c43d b863 bd3d
00000230: 9e28 c0bd 9475 90bd c39e 5a3e feb0 773d
00000240: aad4 e43d e08f 86be f182 a3be 51af b43e
00000250: ede1 ad3d e3dc 643e 0922 dabc 64b9 a8bd
00000260: 07b8 51bd 2a4c cbbd 242a 09bd 70c5 8fbc
00000270: bd38 c33e 3fd8 f23d bd12 783d f6f7 cabd
00000280: e682 d83d 62b0 34be cbfe 1c3d 1b5f f43d
00000290: 1a74 513e c04b bc3d 1cf5 1f3e 785f 19be
000002a0: 1ca7 853e 159b 8dbe dbd7 9ebe 441f 80be
000002b0: 5f49 14bd f632 00bd 5968 ac3d 54a3 fa3d
000002c0: cf4b b3be 1d79 c5bd 1354 233e e4d7 c2bd
000002d0: ab26 f8bd 37cb a83e 1dbd e23e e5c7 0dbe
000002e0: 6080 0dbe f306 0e3e 56a2 b23d cb36 8d3e
000002f0: 75cc d7bd 782a 9f3e de01 e53e 0401 a0bd
00000300: deb1 023e 557d 863d 3233 143e 0cbd 93bc
00000310: 1c80 4fbe 3288 fd3d 78a0 b23d b21b b3bd
00000320: b222 df3d 3a73 15be 027d 23bd a1ae e23d
00000330: 1484 c23e 5d28 f23c e701 193e e8dc bbbd
00000340: 4eb0 a8bd 4142 243e 6c24 21be b50d 7c3b
00000350: 03a8 913e 17fd 583e b0cd 2dbd d942 95bc
00000360: 5e96 09be 0231 c2bc 4cc2 d1bb b823 5e3c
00000370: 13a1 1f3d eac6 92bc 8a93 64be 7f63 22bd
00000380: 2b66 76be ec1c 80bd 0dd0 a3be 3689 283e
00000390: 72a6 413d 34be 15bd eb0b 71be b099 d2bd
000003a0: 8fc6 103d c610 e63e 017a 6dbe 4d1e 93bd
000003b0: 5b1f 33be 6baa d9bc 6bcf 823e 4ac0 84be
000003c0: b63b 523e b49c d43e ee8f b53d 91ee 7cbd
000003d0: 801a 703d 8f70 c93c 07c2 9ebc 984c 0dbd
000003e0: 0700 ac3e 98bd 8e3d fef4 8fbe a633 00bd
000003f0: bda0 253e 1234 30bc cf92 dabd 9b26 72be
0.17046511 -0.03941417 0.04599244 -0.054981355 -0.016447112 -0.2868797 -0.20706713 0.1983269
-0.18830402 -0.03024137 -0.013276379 0.09382059 0.3549321 0.30657268 0.16579022 0.032931063
0.14452635 -0.12265794 -0.08910206 0.26190484 0.07959229 0.052260775 -0.18746997 0.22069257
0.13463207 0.07488102 0.42218477 -0.19200748 0.093933895 0.30901715 -0.07677958 -0.067138135
-0.23987909 -0.06805811 0.07558119 -0.07365642 -0.1899924 -0.054139476 -0.03615616 -0.06587329
0.21914707 0.0028308546 0.10606762 0.5268231 0.056780074 -0.0036126603 -0.12194112 0.10132714
-0.024122132 -0.0045532496 -0.30878153 0.34018856 0.31798047 -0.21996889 -0.035107452 0.06716463
-0.14309825 0.0040330263 -0.066055425 0.32979643 -0.070411876 0.023791047 0.17692748 0.1845262
0.18346779 -0.115884215 0.06713843 -0.178753 0.050290488 -0.05219115 0.06195426 -0.15168153
-0.18593088 -0.18552889 -0.26940575 0.13498901 0.025634415 -0.12956664 0.2664266 0.036068927
-0.08820272 -0.39361012 -0.04914385 0.27702796 0.31439215 -0.32933998 0.03565509 -0.24949993
0.023497583 0.030629043 -0.012650877 0.23039253 -0.0929512 -0.06815163 -0.29848757 0.018822763
0.15853494 -0.20395255 -0.072359756 0.22675635 0.26881626 -0.19251366 0.1514027 0.15380494
-0.009538415 0.011527301 -0.0053989682 0.16452168 -0.079166465 0.05420914 0.088626266 -0.10306103
0.102835074 -0.11401555 0.08456835 0.02200941 0.18887477 -0.3979806 0.08357564 0.22408777
-0.14754725 -0.11783042 0.116112575 -0.12794007 -0.22607045 -0.06586182 0.07917843 0.08376239
0.13689615 -0.28747544 -0.1628622 -0.30278584 -0.015491093 -0.052376956 0.22910129 -0.18840261
0.13993686 0.10359976 0.09584409 0.092475355 -0.09382747 -0.07053676 0.21349625 0.060471527
0.11173375 -0.26281643 -0.31935838 0.35290006 0.084903575 0.22349887 -0.026627557 -0.082384855
-0.051200893 -0.099266365 -0.033487454 -0.0175502 0.38129225 0.11857652 0.060564745 -0.09910576
0.10571842 -0.1764541 0.038328927 0.119322024 0.20454445 0.09194136 0.15620846 -0.14977825
0.26104057 -0.2765738 -0.3102406 -0.25023854 -0.036202785 -0.0312986 0.0841834 0.122381836
-0.35018775 -0.09642241 0.1595004 -0.09513834 -0.1211675 0.3296754 0.44284907 -0.13845785
-0.13818502 0.13869838 0.087223694 0.27580866 -0.10537044 0.3108709 0.44727987 -0.07812694
0.12763163 0.06566874 0.14472654 -0.01803448 -0.20263714 0.12379493 0.08722013 -0.08745517
0.108952895 -0.14594737 -0.03991414 0.11068464 0.37991393 0.029560262 0.14942132 -0.09172994
-0.082367525 0.16040899 -0.1573655 0.0038460318 0.28448495 0.21190296 -0.042432487 -0.018220352
-0.13436267 -0.02370501 -0.006401336 0.013558321 0.03897197 -0.017917115 -0.22321907 -0.039645668
-0.24062411 -0.062555164 -0.31994668 0.16458592 0.047277875 -0.036558345 -0.23539703 -0.1028322
0.03534561 0.44934672 -0.23191072 -0.07183514 -0.1749243 -0.02657052 0.25548872 -0.25927955
0.2053059 0.41525805 0.08865343 -0.061750952 0.058619022 0.024589805 -0.019379629 -0.034496874
0.3359377 0.06969756 -0.28116602 -0.031299256 0.16174598 -0.010754602 -0.10672533 -0.2364754

base.mlp.fc1.0.bias f4 [64]
00000000: ec13 c73b 5444 b63c 1c76 0e3d d087 883c
00000010: 802b f9bc aa39 a6ba 508c 3d39 afc1 86bc
00000020: efe5 40bc c579 9d3b 93ca eabc c829 4abc
00000030: 5d6a 6bbc 13ab 3ebc e02a f13b cf61 fcbc
00000040: 446e 883b 7817 66bc d131 21bd 5052 47bb
00000050: e2bf 483c b64f 6a3c 5334 bb3c 653f 06bd
00000060: f297 813b 7516 8dbc ff6c 8ebc d9fa e63c
00000070: 4b5a 7b3b 6638 abba 0e14 143d 322a b4bc
00000080: aea6 8eba 83a0 fe3c 0d0b dd3b 1027 f5bb
00000090: 4fb2 aebc c284 923a 9509 c5bc e150 19bd
000000a0: 12b8 813c fc51 ed3b f0b4 df3a 044b 0dbb
000000b0: 0a5c 45bc 00b9 28bc 7f98 0bbc 5aae 0ebd
000000c0: 9d2c 9fbc b24c 833c 79c1 823c 6e63 023c
000000d0: ccf1 ba3c 2e7f dabb 0cde f2bb dc52 a93b
000000e0: 88aa 323c 49a8 21bc 009e b33c 3ee7 03bd
000000f0: be3b 96bc 9edd c83c 47e0 f23b f6ea 9ebc
0.006075373 0.022249378 0.034780607 0.016666323 -0.03041625 -0.001268198 0.00018076715 -0.016449777
-0.01177357 0.004805776 -0.028661048 -0.012339063 -0.014368621 -0.011637467 0.0073598474 -0.030808358
0.0041635353 -0.014043681 -0.03935415 -0.0030414052 0.01225278 0.014301231 0.022852099 -0.0327753
0.003954881 -0.017222622 -0.017385958 0.028195785 0.003835338 -0.0013063073 0.03615194 -0.021992777
-0.0010883415 0.031082397 0.006745702 -0.0074814633 -0.021325259 0.0011178481 -0.02405242 -0.037430648
0.015834842 0.0072424393 0.0017067473 -0.0021559605 -0.01204587 -0.010298014 -0.008520245 -0.034834243
-0.019430453 0.016027782 0.015961396 0.007958276 0.022820376 -0.006667993 -0.007411724 0.0051673483
0.010904916 -0.009866782 0.021925926 -0.03220295 -0.018339034 0.024519738 0.00741199 -0.019399147

base.mlp.fc1.2.weight f4 [64]
00000000: 8e50 763f ea7c 7f3f 5634 7f3f 0dcd 813f
00000010: f403 7b3f 55a6 803f 89ea 803f d79a 7d3f
00000020: d90d 7b3f b295 7f3f 128d 803f 3491 7a3f
00000030: 8eee 813f 5ea2 803f b805 803f 7785 7a3f
00000040: 47f0 813f b291 7b3f 5223 773f e100 813f
00000050: 3f8a 823f dd6d 823f c9fe 813f 5944 813f
00000060: eca3 803f 026a 7e3f e480 7c3f 8b90 803f
00000070: 8cf4 7c3f 33cf 7e3f 6494 823f 2b68 803f
00000080: 8fce 7e3f b9e5 843f 9405 7c3f 72e3 7d3f
00000090: 94e4 7c3f 2e27 813f 6b46 7e3f 98ee 7c3f
000000a0: 5e55 833f 81aa 7f3f b4c8 803f 1ccf 7f3f
000000b0: 4ceb 7f3f bc78 793f 4011 7d3f 50dd 813f
000000c0: 7a2e 7b3f ee27 833f 767f 7b3f 8055 843f
000000d0: 307d 7b3f 43a1 7f3f d016 7e3f fb0f 7d3f
000000e0: 2978 803f 4a8a 7f3f 27ef 823f 6bb3 793f
000000f0: a5db 7d3f f73b 823f 2907 813f d063 7c3f
0.96216667 0.9979998 0.99689233 1.0140702 0.98052907 1.005076 1.0071574 0.9906439
0.98068005 0.9983779 1.0043051 0.9787781 1.0150926 1.004955 1.0001745 0.978599
1.0151452 0.9826919 0.9653827 1.0078393 1.0198439 1.0189778 1.0155879 1.0098983
1.0050025 0.99380505 0.9863417 1.0044111 0.9881065 0.9953491 1.0201535 1.003179
0.99533933 1.0382606 0.9844601 0.9917518 0.9878628 1.0090082 0.993262 0.98801565
1.0260427 0.99869543 1.006125 0.999254 0.9996841 0.9744985 0.98854446 1.0145664
0.9811779 1.024656 0.98241365 1.0338593 0.98237896 0.9985544 0.9925356 0.9885251
1.003667 0.9982039 1.0229234 0.97539395 0.99163276 1.017455 1.008031 0.985898

base.mlp.fc1.2.bias f4 [64]
00000000: 45b7 033d a614 6f3c 1089 f93c 98d8 433c
00000010: dde0 093b 6b56 02bc f84d a6bb d29b 293c
00000020: 848e e5bb 4fbd 143c b627 d3bc faf1 b7bb
00000030: bcf8 0cbd a9ac acba 2257 b63c dc75 903c
00000040: fe0f 1dbc 399f 643a d4da b1bc cfce 63bc
00000050: ac45 a9bc ee2b 003d 602d 9d3c ea40 d7bc
00000060: eaa6 033b 0c67 8fbc 634d 023c 9632 393a
00000070: 9181 8ebc 3111 013c 700c 9a3c 91af f7ba
00000080: 5028 043c aec0 873b b7de be3c 59e2 2bbb
00000090: 819f babc 09c9 e53b edb6 9bbc 98f0 00bd
000000a0: ded3 963c f0b7 0cbc 2915 563b a307 a33b
000000b0: 3d51 fa3a d2aa 69bb bb5e 6abc 7bee bcbc
000000c0: 4aca dd3b d623 4e3c 8d5e 163c 0004 f4ba
000000d0: 1381 ad3c f34a 1a3b f492 59bb 007b 72b9
000000e0: 5d2c ab3c cd41 1fbc a949 283c eb83 8dbc
000000f0: 1798 c1bc 242b 933c 131c b0bc 1d79 fabb
0.0321572 0.014592325 0.030460864 0.011953495 0.002103857 -0.007955174 -0.0050752126 0.010352092
-0.0070055146 0.009078338 -0.025775772 -0.0056135627 -0.0344169 -0.0013174015 0.022258345 0.017634325
-0.009586332 0.0008721236 -0.02171079 -0.0139042875 -0.020663105 0.031291895 0.019186676 -0.02627607
0.0020088502 -0.017505191 0.007953021 0.0007064728 -0.017395766 0.007877634 0.018804759 -0.0018896927
0.008066252 0.0041428423 0.023299558 -0.0026227443 -0.022781136 0.0070124906 -0.019008124 -0.031479448
0.018411573 -0.008588776 0.003266642 0.0049752756 0.0019097697 -0.0035654795 -0.014304812 -0.023062935
0.0067684995 0.012581786 0.009177816 -0.0018616915 0.021179711 0.0023543208 -0.0033199163 -0.0002312474
0.020895177 -0.009720278 0.010271468 -0.017274817 -0.023632092 0.017964907 -0.021497762 -0.0076438324

base.mlp.fc_h.0.weight f4 [64, 64]
00000000: 2de0 39be 5942 20be b57f e63b da3e 2d3e
00000010: a27a 00be 7cdd 27be d96b 80be 1f8f b63d
00000020: 97cc 9d3e 89d2 efbd 8b79 893e e0f7 24be
00000030: 26d1 263e 01ed 3cbe eb11 6dbe ffdf 033e
00000040: f79e d3bc 79cc 2ebe 91fc 7d3d 4a1a ea3d
00000050: 05d5 4a3e 240a b73d cff8 3abe a9be 63bd
00000060: 8c09 0e3d d75d b93e 86e6 873d 5dca b53a
00000070: 376b 5fbe 6346 e23d 4ced d83e df83 e4bd
00000080: 6888 1cbe e4d5 803d 190d 81be 649e d73d
00000090: 0d37 733e ed27 1cbe 6096 8ebc 79ae 0b3d
000000a0: e0a9 1c3d 8980 a83d 52b6 01be c657 d4bd
000000b0: d3e8 02be 39b8 9e3c 3513 d93e 1c27 1bbe
000000c0: f58f 10bd a00b fbbd 89cc 60be 992d 51be
000000d0: 79f4 13be 29b9 1cbe d8f6 3a3d c7f5 a7be
000000e0: f310 0abd b716 a4bc 5955 2c3e a1fa 71be
000000f0: 941e ebbd 1549 0abe 7746 833e 9802 81be
00000100: 4a0c 2ebe c5fe b9bd a9e6 603e c42b 15be
00000110: 27cc 483d 30be 80be 845a 3e3c db0b 373c
00000120: 5535 073e d9a6 17be 6205 c2bd ac51 e53c
00000130: 3c29 bf3e 2491 3a3e 1c9e c7bd 3ac7 a4bd
00000140: 1ca2 cbbe 210e af3a c8b3 76bc 6a25 71be
00000150: b083 2bbe 129e 703d db1f 8ebe 4235 0dbd
00000160: b476 af3c a1e1 37be 7f34 82be ef47 423e
00000170: 9d49 34be 6bf8 063d 0388 473d 1623 8e3d
00000180: b3c7 ecbd 5db3 b6bd 5149 123e 3a21 47be
00000190: 243f 083d 12cc a13e 7b82 803e 39d4 54be
000001a0: 54b5 4a3e 37b3 943e 76ec 33be f2c1 92be
000001b0: 2c7b 503d 2b1b eebd 19a4 edbc 4597 32be
000001c0: 1917 2a3e 07a0 483e 96c4 2f3e 7758 34be
000001d0: f8ab 873e 96c9 e2bd f998 ef3c 2a9c a93e
000001e0: b7e3 42be cbcf 083d 229d 393e 7091 393e
000001f0: b560 6bbe b75c 043e 9d9d 173e 38ed c0bd
00000200: be29 0e3e 9593 853e 65f2 a53d 08bf 9f3e
00000210: 89b9 29be 65a3 6a3e 0d10 2cbe 53d0 94bd
00000220: b4dc 91be 7412 a0be 04da 8dbe aef4 5d3d
00000230: c7d0 a7bd 4af4 8a3d a68c 39be 10e1 9e3e
00000240: 9e83 1abd bf3e fc3d 7079 283e e3b0 2abe
00000250: 36d2 d53d a870 ccbe fb3e b5bc a735 8ebe
00000260: 8143 1abe 64a1 5ebd 16ac 0cbc b513 88be
00000270: 1c15 ea3b 0d04 323d cdd5 2f3e 1559 8cbe
00000280: 53a1 1cbd 3473 9ebd b041 153e b26e c7be
00000290: aa3f 683e 2bdb 80bd eb32 9f3e fbd2 93be
000002a0: dd78 cabd 63c5 953d 885b 1b3d 6e21 ffbc
000002b0: c243 833d efeb c9bd 4d52 f2bc 6e70 18be
000002c0: 743f 313e 023e 5bbe 5b1a 333e 5b4e 603e
000002d0: d3b2 55be 3da9 1b3d f650 27bc db87 cfbd
000002e0: 92bd 38bb 2ac7 3c3c 8de4 3abe d12d 57bd
000002f0: 378e 113d 314c f03c 25f5 643e 8f7c 98bd
00000300: 2104 ed3d 17b5 7ebc 806d 893c 1bd0 293e
00000310: e4a7 1dbe 4004 213e ed3b 0d3e 3a24 113e
00000320: 7dfb 7c3d 35e9 1bbe d818 623d 3407 1fbe
00000330: 9143 4e3c 25c7 923e 3af4 f1bd c7cb 42be
00000340: 9e31 2a3e 44e2 31be 0772 63be b617 f6bd
00000350: cb9c 2d3e 9680 033e 8f89 1a3e 6765 473e
00000360: 9819 00be c1ef 35bd 1fdc 29bd 65e0 c9bd
00000370: b42c a13e e488 9abd 7a98 e83e 1ba2 14be
00000380: 9003 62bd d369 843d e544 0a3e ba5f 3fbd
00000390: 3e99 b43d 1d99 293e b106 4fbc 4ea0 353c
000003a0: 7807 823e 1e8d 383e bb5d 3dbe c552 2fbd
000003b0: 1215 e23e 01fb 8236 936b 5fbe f614 843e
000003c0: ae9a a9be 1e22 913e 2408 253e 157e f9bb
000003d0: 5a07 f4bc 916a 7a3e 9098 d7bd 6541 2abe
000003e0: 26c1 2bbd 7722 9abe 3e25 9e3e 8ae4 e3bd
000003f0: 8c94 233e 8dcf 85bd d0e3 08be c91d 28be
-0.18151923 -0.1565031 0.007034267 0.16918507 -0.1254678 -0.16393083 -0.2508228 0.08914017
0.30820152 -0.11710078 0.26850542 -0.16110182 0.16290721 -0.18449785 -0.23151366 0.12878416
-0.025832636 -0.17070188 0.062008444 0.114307955 0.19807823 0.08937481 -0.18258975 -0.05560175
0.034677073 0.36204407 0.06635766 0.0013869513 -0.21818243 0.110485815 0.42368543 -0.11157965
-0.1528641 0.062907964 -0.25205305 0.105282575 0.23751469 -0.15249605 -0.017405689 0.034101937
0.038247943 0.08227641 -0.12667206 -0.10368304 -0.12784128 0.019374954 0.42397466 -0.15151638
-0.035293538 -0.12258077 -0.21953024 -0.2042755 -0.14448728 -0.15305008 0.045645565 -0.328047
-0.03370757 -0.020030363 0.16829433 -0.23630764 -0.11480442 -0.13504441 0.25639698 -0.2519729
-0.16996875 -0.090817966 0.2196299 -0.14567477 0.04902282 -0.25145102 0.01161826 0.01117226
0.13203938 -0.14809741 -0.09473683 0.027993046 0.37336147 0.18219429 -0.09746954 -0.08045812
-0.39772117 0.0013355651 -0.015057512 -0.23549429 -0.16749454 0.058744498 -0.2775868 -0.03447462
0.021418907 -0.17957164 -0.25430676 0.18972753 -0.17606206 0.032951754 0.048713695 0.06940286
-0.11561527 -0.089209296 0.1428578 -0.19446269 0.03326334 0.31601006 0.2509955 -0.20784082
0.19795734 0.2904298 -0.17570671 -0.28663594 0.050898716 -0.11626276 -0.029008912 -0.17440517
0.16610374 0.19592296 0.17164835 -0.17611872 0.2649839 -0.11073606 0.029247748 0.33126956
-0.19032179 0.03340129 0.18126348 0.18121886 -0.2298611 0.12925993 0.14806218 -0.09420246
0.13883111 0.2608916 0.08102874 0.31200433 -0.16574682 0.22913893 -0.16802998 -0.07266297
-0.28488696 -0.3126408 -0.27705395 0.054188423 -0.08194118 0.06784876 -0.1812006 0.31031084
-0.037723176 0.12316655 0.16452575 -0.1666904 0.10440485 -0.399297 -0.022124758 -0.27775308
-0.15064813 -0.054353133 -0.00858595 -0.26577535 0.0071436297 0.043460894 0.17171402 -0.27411714
-0.03823979 -0.07736817 0.14575839 -0.3895164 0.22680536 -0.06291803 0.31093535 -0.28871903
-0.09886334 0.07313039 0.037929088 -0.03114387 0.06409408 -0.09859454 -0.02958026 -0.14886639
0.17309362 -0.21410373 0.17490523 0.2190489 -0.20868997 0.038003195 -0.010212174 -0.10133334
-0.0028189165 0.011522094 -0.18251248 -0.05253393 0.035536017 0.029333206 0.2235914 -0.07445633
0.11573053 -0.015546105 0.016775846 0.16583292 -0.15396076 0.15724277 0.13792391 0.14173976
0.061763275 -0.1522568 0.055199474 -0.15530092 0.012589351 0.2866756 -0.11814161 -0.19023047
0.1662049 -0.1737147 -0.22211467 -0.12016241 0.16954343 0.1284202 0.15091537 0.19472276
-0.12509763 -0.0444181 -0.04146969 -0.09857253 0.31479418 -0.07545641 0.4542883 -0.14514963
-0.05517918 0.06465497 0.13502844 -0.04672215 0.08818291 0.16562314 -0.012635873 0.011085583
0.25396323 0.18022582 -0.18492787 -0.042803545 0.441567 3.9035226e-06 -0.2181838 0.25797242
-0.33125824 0.28346342 0.16116387 -0.007613907 -0.029788662 0.24454714 -0.10527146 -0.16626509
-0.041932248 -0.3010442 0.3088779 -0.11127575 0.15974635 -0.06533728 -0.13368154 -0.16417612

base.mlp.fc_h.0.bias f4 [64]
00000000: 0000 0000 0000 0000 0000 0000 0000 0000
00000010: 0000 0000 0000 0000 0000 0000 0000 0000
00000020: 0000 0000 0000 0000 0000 0000 0000 0000
00000030: 0000 0000 0000 0000 0000 0000 0000 0000
00000040: 0000 0000 0000 0000 0000 0000 0000 0000
00000050: 0000 0000 0000 0000 0000 0000 0000 0000
00000060: 0000 0000 0000 0000 0000 0000 0000 0000
00000070: 0000 0000 0000 0000 0000 0000 0000 0000
00000080: 0000 0000 0000 0000 0000 0000 0000 0000
00000090: 0000 0000 0000 0000 0000 0000 0000 0000
000000a0: 0000 0000 0000 0000 0000 0000 0000 0000
000000b0: 0000 0000 0000 0000 0000 0000 0000 0000
000000c0: 0000 0000 0000 0000 0000 0000 0000 0000
000000d0: 0000 0000 0000 0000 0000 0000 0000 0000
000000e0: 0000 0000 0000 0000 0000 0000 0000 0000
000000f0: 0000 0000 0000 0000 0000 0000 0000 0000
0.0 0.0 0.0 0.0 0.0 0.0 0.0 0.0
0.0 0.0 0.0 0.0 0.0 0.0 0.0 0.0
0.0 0.0 0.0 0.0 0.0 0.0 0.0 0.0
0.0 0.0 0.0 0.0 0.0 0.0 0.0 0.0
0.0 0.0 0.0 0.0 0.0 0.0 0.0 0.0
0.0 0.0 0.0 0.0 0.0 0.0 0.0 0.0
0.0 0.0 0.0 0.0 0.0 0.0 0.0 0.0
0.0 0.0 0.0 0.0 0.0 0.0 0.0 0.0

base.mlp.fc_h.2.weight f4 [64]
00000000: 0000 803f 0000 803f 0000 803f 0000 803f
00000010: 0000 803f 0000 803f 0000 803f 0000 803f
00000020: 0000 803f 0000 803f 0000 803f 0000 803f
00000030: 0000 803f 0000 803f 0000 803f 0000 803f
00000040: 0000 803f 0000 803f 0000 803f 0000 803f
00000050: 0000 803f 0000 803f 0000 803f 0000 803f
00000060: 0000 803f 0000 803f 0000 803f 0000 803f
00000070: 0000 803f 0000 803f 0000 803f 0000 803f
00000080: 0000 803f 0000 803f 0000 803f 0000 803f
00000090: 0000 803f 0000 803f 0000 803f 0000 803f
000000a0: 0000 803f 0000 803f 0000 803f 0000 803f
000000b0: 0000 803f 0000 803f 0000 803f 0000 803f
000000c0: 0000 803f 0000 803f 0000 803f 0000 803f
000000d0: 0000 803f 0000 803f 0000 803f 0000 803f
000000e0: 0000 803f 0000 803f 0000 803f 0000 803f
000000f0: 0000 803f 0000 803f 0000 803f 0000 803f
1.0 1.0 1.0 1.0 1.0 1.0 1.0 1.0
1.0 1.0 1.0 1.0 1.0 1.0 1.0 1.0
1.0 1.0 1.0 1.0 1.0 1.0 1.0 1.0
1.0 1.0 1.0 1.0 1.0 1.0 1.0 1.0
1.0 1.0 1.0 1.0 1.0 1.0 1.0 1.0
1.0 1.0 1.0 1.0 1.0 1.0 1.0 1.0
1.0 1.0 1.0 1.0 1.0 1.0 1.0 1.0
1.0 1.0 1.0 1.0 1.0 1.0 1.0 1.0

base.mlp.fc_h.2.bias f4 [64]
00000000: 0000 0000 0000 0000 0000 0000 0000 0000
00000010: 0000 0000 0000 0000 0000 0000 0000 0000
00000020: 0000 0000 0000 0000 0000 0000 0000 0000
00000030: 0000 0000 0000 0000 0000 0000 0000 0000
00000040: 0000 0000 0000 0000 0000 0000 0000 0000
00000050: 0000 0000 0000 0000 0000 0000 0000 0000
00000060: 0000 0000 0000 0000 0000 0000 0000 0000
00000070: 0000 0000 0000 0000 0000 0000 0000 0000
00000080: 0000 0000 0000 0000 0000 0000 0000 0000
00000090: 0000 0000 0000 0000 0000 0000 0000 0000
000000a0: 0000 0000 0000 0000 0000 0000 0000 0000
000000b0: 0000 0000 0000 0000 0000 0000 0000 0000
000000c0: 0000 0000 0000 0000 0000 0000 0000 0000
000000d0: 0000 0000 0000 0000 0000 0000 0000 0000
000000e0: 0000 0000 0000 0000 0000 0000 0000 0000
000000f0: 0000 0000 0000 0000 0000 0000 0000 0000
0.0 0.0 0.0 0.0 0.0 0.0 0.0 0.0
0.0 0.0 0.0 0.0 0.0 0.0 0.0 0.0
0.0 0.0 0.0 0.0 0.0 0.0 0.0 0.0
0.0 0.0 0.0 0.0 0.0 0.0 0.0 0.0
0.0 0.0 0.0 0.0 0.0 0.0 0.0 0.0
0.0 0.0 0.0 0.0 0.0 0.0 0.0 0.0
0.0 0.0 0.0 0.0 0.0 0.0 0.0 0.0
0.0 0.0 0.0 0.0 0.0 0.0 0.0 0.0

base.mlp.fc2.0.0.weight f4 [64, 64]
00000000: d315 4fbe a956 31be c660 b23c 9435 2d3e
00000010: 8cf6 f8bd 4729 25be e806 89be 1090 a83d
00000020: 4e1d a33e 97d5 16be 2acd 973e 7712 24be
00000030: 3c5f 1c3e 0d5f 32be 824c 59be 4468 ea3d
00000040: 9821 733b adec 33be 56d9 483d b663 d43d
00000050: 8369 613e 519b c73d 0036 5ebe cf9f abbd
00000060: 4fc2 033d a9e2 b73e f7ef 663d 890e 2bbc
00000070: 6daf 39be 14c3 0b3e 8b95 dd3e a029 f3bd
00000080: 0726 15be 39f3 5e3d 5135 64be 4ac0 e13d
00000090: 5f4b 7c3e 7d6b 34be a7c0 22bb 7325 993c
000000a0: 5476 173d 9f08 7d3d 92b3 0bbe 0345 c6bd
000000b0: e28c 25be 5af6 dc3c ade3 d83e 0412 1bbe
000000c0: adff 17bd 94c6 f0bd 8d3c 3cbe 8d22 3dbe
000000d0: 0b7f 17be 30f1 29be ddc6 993c 93e7 9cbe
000000e0: 4f58 21bd edcb 6ebc 6b77 333e 83f8 73be
000000f0: e890 04be 2814 07be bbb8 763e 3a3f 6abe
00000100: 5c8d 06be 9d85 eabd 52c1 683e 89da 0ebe
00000110: 6b81 283d 63c4 8bbe dd35 f3bb 2e5f 08bb
00000120: a3de 1e3e bb70 06be 4963 b4bd 017d 813d
00000130: f1b8 b63e d214 2b3e 5a65 fdbd e261 93bd
00000140: 2ea1 cbbe 26c5 ca3c 2063 fabc 1a57 56be
00000150: af6e 3ebe d008 8a3d ef94 8bbe 4383 2ebd
00000160: 3deb 0fbc 9eed 44be 1ce5 6dbe 997e 223e
00000170: 4c1c 16be 2534 463d 1727 ec3c 6f3b 7e3d
00000180: cbcc d1bd 9a7d c1bd 960d 2a3e ccbe 61be
00000190: ec28 e43c bb19 ac3e e50c 733e 6a19 54be
000001a0: b6fb 3e3e 9bd5 933e 5b88 3ebe 5bdc 9cbe
000001b0: e414 023d 2dbe cabd b899 41bd b146 4dbe
000001c0: b2c0 3b3e 663b 403e 8f08 403e 821e 46be
000001d0: b57b 853e 2f20 0abe 9a71 513c 4137 af3e
000001e0: 29d9 2cbe 0dcd 063d c0c5 463e dd4e 483e
000001f0: a3b6 75be 6276 043e 747d 113e 7d09 94bd
00000200: 2b17 193e 4d8d 8b3e 8d0d b03d 2427 9b3e
00000210: 6a4a 41be 4658 713e 8ae4 17be 279a 93bd
00000220: 5e4a 94be cfba 97be de7f 8fbe a1ac 683d
00000230: 24c9 48bd d3a2 963d 2c3b 46be 37d1 913e
00000240: 52c6 82bd d86b d33d c72c 4d3e 397e 13be
00000250: 3d60 9d3d 65ea c6be 5446 febc dd4c 87be
00000260: e841 0fbe 9f01 29bd 21ef a6bc 5ff6 7dbe
00000270: 7be5 e3bb cba4 463d bebe 533e 6687 90be
00000280: 8e83 5abd 3123 cbbd f132 163e 04cb c7be
00000290: acb0 563e a53e 93bd a747 a63e f4a6 9bbe
000002a0: 5ac2 a9bd 391a 4c3d 0602 ae3c d072 dcbc
000002b0: aeb4 983d 2a71 9ebd 5675 41bd e48c 14be
000002c0: d33f 423e 0847 59be a27a 323e d909 843e
000002d0: 0c4c 77be 9908 393c 3f5a ba3c 1c02 babd
000002e0: 2ee6 9b3a 3152 a73c f175 60be d9ef 01bd
000002f0: 29cc 083d 39e5 3f3d 237b 633e 10a9 c1bd
00000300: 75f9 ac3d 2071 b7bc 32db 4e3b 6b54 3f3e
00000310: fd18 09be 06e1 313e 06c1 073e ea40 0b3e
00000320: 69b1 513d 0766 24be 73aa da3c 9e1d 20be
00000330: 2c1f 29bc 9da4 983e 752a debd 6e2e 31be
00000340: 8499 403e 4438 21be 9efc 7abe 08e1 1fbe
00000350: 3e23 403e 7387 053e 9838 303e 7de8 673e
00000360: b541 d2bd e31a 06bd 3c90 0bbd ea06 a6bd
00000370: a3aa a03e 55a4 97bd 5f11 da3e 8916 31be
00000380: 2b0a d3bc 93f3 793d b12f f23d c878 38bd
00000390: c2b3 b73d affc 493e 989e abbb c0f9 123d
000003a0: 55b4 7d3e e614 303e ac4d 40be aedd e4bc
000003b0: b52f e63e 5475 c1bb 74dd 67be 8621 893e
000003c0: 2b39 a9be 0383 8f3e 8c7c 173e 8708 33bd
000003d0: acca 66bc 2a87 843e 40e8 f6bd e28b 3bbe
000003e0: 6d63 5ebd a23a 95be ffb6 a53e 14e2 ebbd
000003f0: af05 133e a533 91bd cf37 2ebe 01c0 11be
-0.20223169 -0.17318214 0.02177466 0.1691497 -0.121564 -0.16129027 -0.26763082 0.08230603
0.31858295 -0.14729916 0.29648715 -0.16022669 0.15270704 -0.17419071 -0.21220592 0.11445668
0.003709888 -0.17570753 0.049035393 0.10370581 0.22012906 0.09746421 -0.21700287 -0.083800904
0.03216773 0.35915115 0.056381192 -0.010440477 -0.18133326 0.13648635 0.43278155 -0.11873174
-0.14565288 0.054431174 -0.22285964 0.11023004 0.24638127 -0.17619129 -0.0024834068 0.018694615
0.03697808 0.0617758 -0.1364272 -0.09681132 -0.16167024 0.026972938 0.42361203 -0.15143591
-0.037109066 -0.11756626 -0.18382473 -0.18470211 -0.14794557 -0.16595912 0.018771583 -0.30645427
-0.03939086 -0.014574987 0.17526023 -0.23825268 -0.12945902 -0.13191283 0.24093907 -0.22875682
-0.13139862 -0.11451266 0.22729996 -0.13950552 0.041139048 -0.2729827 -0.0074221925 -0.0020808685
0.15514617 -0.13128941 -0.08808 0.06322671 0.35687974 0.16707161 -0.12372847 -0.07196404
-0.39771408 0.02475221 -0.030564845 -0.20931664 -0.1859691 0.06739962 -0.27262065 -0.04260565
-0.0087841125 -0.19231269 -0.2323193 0.15868606 -0.14659232 0.048389573 0.028827233 0.0620684
-0.10244139 -0.09447785 0.16606745 -0.2204544 0.027851544 0.3361338 0.23735388 -0.2071282
0.18650708 0.28873906 -0.18606703 -0.30636868 0.031758204 -0.098995544 -0.04726574 -0.20046498
0.18335226 0.18772659 0.18753265 -0.19347575 0.26070943 -0.1348884 0.012783432 0.34221843
-0.16879715 0.032910395 0.19411373 0.19561334 -0.23995452 0.12935784 0.14208013 -0.07228372
0.14950244 0.2725624 0.085963346 0.303033 -0.18876043 0.2356883 -0.14833274 -0.072071366
-0.28962988 -0.2963471 -0.28027242 0.056805257 -0.049019948 0.07355275 -0.1935851 0.2847993
-0.06385483 0.10323304 0.20036612 -0.14403619 0.076843716 -0.38850704 -0.031039394 -0.2642583
-0.13989985 -0.04126131 -0.020377697 -0.24801014 -0.0069548464 0.048497003 0.20678231 -0.282283
-0.053348117 -0.099188216 0.1466787 -0.39022076 0.20965832 -0.07189683 0.3247654 -0.30400813
-0.08289023 0.049829695 0.0212412 -0.026910216 0.07456337 -0.07736428 -0.04723104 -0.1450687
0.1896966 -0.21218503 0.17429593 0.25788763 -0.24150103 0.011293554 0.02274811 -0.090824336
0.001189416 0.020424934 -0.21919991 -0.031722877 0.033397827 0.046849463 0.22214942 -0.09456074
0.08446018 -0.02239281 0.0031563756 0.18684547 -0.13388439 0.17370996 0.13257226 0.13598981
0.051194582 -0.16054545 0.026692605 -0.15636298 -0.010322373 0.2981309 -0.10847942 -0.17302868
0.18808562 -0.1574412 -0.24510428 -0.15613186 0.18763444 0.13039951 0.17209089 0.22647281
-0.10266439 -0.032740485 -0.0340731 -0.081067875 0.31380185 -0.07404391 0.42591378 -0.17293753
-0.025761684 0.061023306 0.11825503 -0.04503706 0.08969833 0.19725297 -0.0052374117 0.03588271
0.24775822 0.17195472 -0.1877963 -0.027937736 0.44958273 -0.005903879 -0.22643071 0.2678339
-0.33051428 0.28029642 0.14793605 -0.043709304 -0.014086407 0.25884372 -0.12056017 -0.1831508
-0.05429404 -0.29146296 0.32366177 -0.1151773 0.14357637 -0.070899285 -0.17013477 -0.142334

base.mlp.fc2.0.0.bias f4 [64]
00000000: a9d6 b9bc a1ac 503c 1203 5fb9 d609 a33c
00000010: c571 a2bc 6114 b4bc 4184 dcbb 28b7 75bb
00000020: 4bc3 b33b 132a 3a3c a028 10bd 6c0f aa3c
00000030: 946b b03c 1453 c1bb 1256 ec3c 7d3a ac3c
00000040: 1765 b4bb dc4e 2f3c 727f 81bb a0d2 913c
00000050: 10b6 543c c209 b2bc eb46 42bb 5123 f33a
00000060: b798 b7bc e03f f0bc c18a 1ebc 2cad dbbc
00000070: 12ce 933b c8ee 9cbc b067 abbc f242 8c3c
00000080: 7788 8cbc 2b25 53bc 3488 513c 754a ce3a
00000090: 6258 6ebb 30fd c0bc 3d0f 5abb cf27 a43c
000000a0: c20b 0c3c 9168 88bc 37ef b83c 5a03 debb
000000b0: e1b6 5e3c 5642 583c 886c 4b3c ac1b ed3c
000000c0: b7f4 6fbc 24c8 1bbd 9529 693c c1d4 b63c
000000d0: 53ff 12bc bbdd 4d3c 630c c1bb 8f64 393b
000000e0: d073 ddbb 9cf4 8cbb ebb0 afbc 281c 50bc
000000f0: 972f ffbc 777f 0f3c 9013 943c d2c5 86bb
-0.022685366 0.01273647 -0.00021268081 0.019902151 -0.01982964 -0.021982374 -0.006729633 -0.0037493203
0.005485927 0.01136257 -0.035194993 0.020759307 0.021535672 -0.0058997963 0.028849635 0.021023983
-0.005505215 0.010699954 -0.0039519602 0.01780063 0.01298286 -0.021733169 -0.0029644321 0.0018549954
-0.022411687 -0.029327333 -0.009676636 -0.026815973 0.0045106495 -0.019156829 -0.020923465 0.017121766
-0.017154915 -0.0128872795 0.012788821 0.0015738743 -0.0036368598 -0.02355823 -0.0033273243 0.020038513
0.008547725 -0.016651424 0.022575004 -0.006775302 0.013593406 0.0131994095 0.012416013 0.028943859
-0.014645747 -0.038032666 0.014231105 0.022318246 -0.008972007 0.012565072 -0.005891369 0.0028288697
-0.0067581907 -0.0043016206 -0.021446666 -0.0127020255 -0.031150622 0.008758417 0.018075734 -0.0041129375

base.mlp.fc2.0.2.weight f4 [64]
00000000: 45b7 843f 626c 833f 14d0 843f abdf 823f
00000010: 0d9c 813f a314 813f 708c 803f 7663 843f
00000020: a125 833f b523 813f 1bab 7f3f 1e47 833f
00000030: 946a 823f 4420 803f e224 833f d245 833f
00000040: c65e 833f 2097 833f f891 813f 5706 813f
00000050: d9a2 813f d8d0 803f 553e 813f af45 843f
00000060: f627 803f b6ae 813f 06ba 803f f4cf 7e3f
00000070: ad48 833f c600 843f 1fd5 803f ebb3 803f
00000080: ead0 813f ee2c 823f 1d18 813f f358 823f
00000090: 0a7a 833f 1eeb 7c3f 531c 813f fa97 803f
000000a0: 9600 813f 0a51 843f 671b 823f 6bcd 7f3f
000000b0: 830f 7d3f d026 833f 47cb 7f3f 7adc 813f
000000c0: 3e8c 803f 4bfa 823f 4dd3 823f 8323 843f
000000d0: 348a 7e3f ee18 823f d4a2 7f3f 1862 803f
000000e0: 71f4 813f d0a9 803f 33c8 7e3f 9760 803f
000000f0: 1d77 813f 75ea 813f 5108 833f f6fa 803f
1.036843 1.0267451 1.0376 1.0224508 1.0125748 1.0084423 1.0042858 1.0342853
1.0245858 1.0089022 0.9987046 1.0256078 1.0188775 1.0009847 1.0245631 1.0255682
1.0263298 1.0280495 1.0122671 1.008006 1.0127822 1.0063734 1.0097147 1.0333766
1.0012195 1.0131443 1.005677 0.9953606 1.0256554 1.0312736 1.0065039 1.0054907
1.014188 1.0169961 1.0085484 1.0183395 1.0271618 0.9879626 1.0086769 1.004638
1.0078304 1.0337231 1.0164613 0.9992282 0.98851794 1.024622 0.9991955 1.0145409
1.0042799 1.0232633 1.0220734 1.0323337 0.9942963 1.0163858 0.9985783 1.0029936
1.0152723 1.0051823 0.9952423 1.0029477 1.0114475 1.0149676 1.0236913 1.0076587

base.mlp.fc2.0.2.bias f4 [64]
00000000: 753f afbc 7b65 3fbc 4192 dc3b 8ff7 6c3c
00000010: f1d7 26bc 438f 9bbc db0c 83bc c03f febc
00000020: 5a35 aa3c 5f73 0f3b b2b2 68bc bf89 8b3b
00000030: 9ad6 e6bb 6420 133b f821 8b3c 233b 073c
00000040: 34e8 13bc 04ec 593c a82f d53b 9ec7 2cbc
00000050: d50f 603c ae06 9ebc 067e c3bb 8cf7 40bc
00000060: 7b27 17bc 7748 c5bb 336c 9dbc e06b afbc
00000070: 129f edbb 6b14 77bc 184a 943a fe4e 923c
00000080: c91e 59bc 2cca 8dbc 9f3d a33c 1be4 da3b
00000090: 8864 673c 1127 00bc 939f 003b a7fd 33bb
000000a0: 929c 3c3c aa59 8abc 1af4 9ebb 0114 15bc
000000b0: 4ea9 6e3c f0db ab3b 38e9 7a3c 7b24 9d3c
000000c0: 333a cbbc 170e c7bc 718d 783c 8c9a a33c
000000d0: 17ec 79bb 90ca ba3b 9c4d 4e3c 6837 bfbb
000000e0: 78a0 4e3c 2e7b 9fbb 28f4 58bc 4c19 1bbc
000000f0: 9241 5fbc d046 973c dcae 973c bd3b 59bc
-0.021392563 -0.01168191 0.006731302 0.014463319 -0.01018332 -0.018989211 -0.01599734 -0.031036258
0.020777393 0.0021888835 -0.0142027605 0.004258364 -0.0070446255 0.0022449726 0.016983971 0.008253845
-0.0090275295 0.013300899 0.006505925 -0.010545639 0.01367565 -0.019290294 -0.005965951 -0.01177777
-0.0092257215 -0.0060206014 -0.019216632 -0.021413743 -0.0072516287 -0.015080552 0.0011313586 0.017859932
-0.013251969 -0.017308317 0.019926844 0.0066800243 0.01412309 -0.007821814 0.0019626364 -0.002746442
0.011511939 -0.016888458 -0.0048508765 -0.009099008 0.014566733 0.0052447245 0.015314393 0.019182434
-0.024808025 -0.02429871 0.015170441 0.019971155 -0.0038135105 0.005700417 0.012591746 -0.0058354624
0.012611501 -0.004866979 -0.013241805 -0.00946648 -0.013626473 0.018466383 0.018515997 -0.013258872

act.action_out.linear.weight f4 [5, 64]
00000000: eb0a 223d 7b4f a23c 6937 3ebc 340b 9f3c
00000010: 492d c63c ea93 dc3b 9b73 923c 06dd 3cbc
00000020: 0060 d4bb 154f 013c 807c a63b 992f 99bc
00000030: f1c9 d03c 63d1 093a 90a1 47bc f756 05bd
00000040: 5b1a e73b d0c1 b3bc 354b 203b c537 ca3b
00000050: eac5 cbbc 92ad 1039 83f4 49bb 722e 19bc
00000060: 1e11 d63b 4ebb 623c d8d3 633c a00b 593a
00000070: 9a9c fc39 26e8 133c 4934 3abc 70dc 32bc
00000080: 9380 3e3c 41d5 9a3c 5b14 60bc a08d cc3c
00000090: 528d e2bc d3d3 ff3b 6219 84bc f0f1 92bc
000000a0: 5acd be3b 5418 773c 4144 85bc 9a3f 0ebb
000000b0: 9d0e 5dbb e41a e8bc 17de 97bc 16f4 31bb
000000c0: 7407 083b 59a9 fb3c 2a47 07ba 5b74 8cbc
000000d0: f450 a93c 3932 243c 1dc3 4c3c 9ab9 03bc
000000e0: ed96 ccbc a364 c93b 3b49 ce3c e3a9 4e3c
000000f0: 2af0 6f3c 68b2 a7bc be52 dcbc abbd bd3c
00000100: cb01 a33c 25e4 08bd a141 e5bc 1df7 01bc
00000110: 65cf 5cbb 0665 f33b 2fcb 8d3b 15cb b23c
00000120: 543e febc 36d0 9bbc 6fa8 9b3c 7766 7ebc
00000130: 0d36 9abc 0f40 bbbc f2a5 cfbc b2c7 cc3c
00000140: 9f90 bb3c 20e8 d73c 1087 8bbc 54ff 643c
00000150: 830c 893c 8df8 483c 2189 313b eaf8 1f3d
00000160: 49ac 7a3c e69a f6bb c499 153c b6f0 8c3c
00000170: 32cf d83c 13bd 0e3d 14d1 463a 86a9 42bc
00000180: 7c66 d93b 8853 593c a76a 11bc 2baa a5bc
00000190: 0a0f 01bc 582a 83b9 2c50 b93c fd65 c43a
000001a0: 531e d5bb 9cdf 963c e1e8 e03c 42d8 34bc
000001b0: 3643 4cbb 8885 053d e821 90bb 2441 d3bc
000001c0: 58bc 0d3d 2f15 303c 4545 1cbd 3d5e 95bc
000001d0: 70f0 f0bb 863a 3b3c 2d5e 16bc 4e8a f03c
000001e0: 699b a4bc 82e7 fb3a 59ff 39bb 86d3 ca3b
000001f0: 30a4 263c 8229 73bb 731b 2abc 7008 173b
00000200: fe7a f3bc 8dbe a7bc 491c e43b 4ca9 62bc
00000210: 55f4 a2bb 6d0d 9bbc ac40 b43b bba0 963c
00000220: ba4a c0bc 4740 8d3c 09ad 4bbc 8d65 be3c
00000230: ff89 45bc 3363 cc3b e63a 5f3c 955e fbbb
00000240: bde8 9c3b c59c 89bc b7c0 c6bc 29ef 2abc
00000250: 85ac 753c 6618 0dbb 8c36 c6bc e9a8 73bb
00000260: 1c21 27bc ae81 d8bc 4d4c 2fbb 0890 32bc
00000270: f219 913c 3ea0 cabc e81f a9bc 2843 c43c
00000280: 1f61 11bd 3dbd 29bc e788 583b d4d4 063c
00000290: 5234 9cbc dfe5 dcbb 78ef 82bc d909 833c
000002a0: ca57 8b3c 120f d3bc 081d 53bc 671c 42bc
000002b0: a705 683c 2f2c a13c a0ef beba 1221 5d3c
000002c0: df3c 12bc cc0b 423c 5fa4 c63c d6a1 313b
000002d0: 20ca e63a 88c8 a33a 370b 603c 1962 aabb
000002e0: 9498 253c 4f39 473b ecad 11bb 6f55 3f3a
000002f0: 530a a6bc 08af ac3c d5c4 683c 21ee 12bb
00000300: c8ea 243c 9728 d43c ff9b 213d c5b1 d5bc
00000310: 90dd 3cbc a2e4 6f3c b1c9 b0bc 849b dfbb
00000320: f047 123c a8cd 793c 4f0b 20bb 577e 803c
00000330: 740c 36bc ff40 b1ba 9351 0b3d 94b1 26ba
00000340: 73c9 993c 0d6b cb3c da1b 603c 689d cbbc
00000350: 55a8 323c b3df 8f3b 0b7d 8d3c 6a1b 13bd
00000360: 055f 80bc 868b 123c 37c2 693c f004 0fbb
00000370: 25ce febc bf32 dbbc fa45 443c 14b4 273c
00000380: 503d 8a38 75b6 b3bc 95e2 68bc c282 8cbc
00000390: 33d0 b43c f26b ec3b 2a83 1b3c 36b2 5c3c
000003a0: d3c3 88bc bb57 fcbb 751b 1e3b e749 44b9
000003b0: e1cc abbb b820 45b9 2822 acbb acf2 4bba
000003c0: 560b b83c 17b8 4abc 0174 353c 373c 7d3c
000003d0: ee44 9ab9 05cd ecbc 3847 62bc 249c b2bb
000003e0: cef4 193c dfe8 c0bc b174 0a3c b24e 8e3a
000003f0: b3bb 723c 63fd 993c 44e2 a83c 0747 0f3b
0.039561193 0.01981329 -0.0116098905 0.019414522 0.024191516 0.0067315 0.01787739 -0.0115273055
-0.0064811707 0.00789239 0.0050807595 -0.018699454 0.025486918 0.00052573363 -0.012184516 -0.03255364
0.0070527024 -0.021943003 0.002445889 0.006171199 -0.024874646 0.0001379757 -0.0030815906 -0.009349452
0.0065328022 0.013838602 0.013905488 0.00082796253 0.00048181863 0.0090275165 -0.011365005 -0.010916814
0.011627334 0.018900516 -0.013676728 0.024969876 -0.027655277 0.007807234 -0.016125385 -0.01793763
0.0058228197 0.015081484 -0.016267898 -0.002170539 -0.0033730634 -0.028333135 -0.018538518 -0.0027153543
0.0020756396 0.0307204 -0.00051604456 -0.017145326 0.020668484 0.01002174 0.0124976905 -0.008039856
-0.02497431 0.00614603 0.025181403 0.012613746 0.014644662 -0.020470813 -0.026894923 0.02316173
0.019898316 -0.0334207 -0.027985396 -0.007932452 -0.0033692953 0.0074278144 0.0043272 0.021825353
-0.03103558 -0.019020181 0.019001214 -0.015527359 -0.018824602 -0.022857694 -0.025347684 0.024997566
0.02289611 0.026355803 -0.017032176 0.013976891 0.016729599 0.01226629 0.0027089792 0.039055742
0.015299865 -0.0075257896 0.009130899 0.017204624 0.026465986 0.034848284 0.00075842557 -0.011881238
0.0066345315 0.013264544 -0.008875526 -0.020222744 -0.007877121 -0.00025017816 0.022621237 0.0014984008
-0.006503859 0.018417172 0.027454795 -0.011037888 -0.003116799 0.03259805 -0.004398573 -0.025787897
0.034603447 0.010747238 -0.038151998 -0.018233413 -0.007352881 0.011427527 -0.009177727 0.029362824
-0.020093637 0.0019218775 -0.0028380959 0.0061897663 0.010170981 -0.0037103598 -0.010382521 0.00230458
-0.029721733 -0.020476604 0.0069613797 -0.013834309 -0.0049729743 -0.0189273 0.0055008736 0.01838719
-0.023473132 0.017242564 -0.0124313915 0.023241783 -0.012056827 0.0062374114 0.013624882 -0.007671187
0.0047884868 -0.016798386 -0.024261815 -0.010432997 0.014994745 -0.0021529435 -0.024195932 -0.0037179536
-0.010200765 -0.026429024 -0.002674836 -0.010898598 0.017712567 -0.024734613 -0.020645097 0.023957804
-0.035493013 -0.010360059 0.0033040585 0.008229453 -0.019067917 -0.00674127 -0.015983328 0.015995907
0.017009635 -0.025764022 -0.01288534 -0.011847592 0.014161504 0.019674389 -0.0014567263 0.013496654
-0.008925646 0.011843633 0.0242483 0.0027104518 0.0017607845 0.0012495676 0.013674549 -0.0051996824
0.010107178 0.0030399149 -0.002222891 0.00072988024 -0.020268595 0.021079555 0.014207085 -0.0022419768
0.010065742 0.025898261 0.03945541 -0.026085744 -0.011527434 0.014641913 -0.021580549 -0.006823959
0.008928284 0.015246786 -0.0024420803 0.015685244 -0.0111113675 -0.0013523399 0.034013342 -0.00063588587
0.018772816 0.02483132 0.013678515 -0.02485533 0.010904391 0.0043906807 0.01727154 -0.035914816
-0.015670309 0.008944398 0.014267496 -0.0021823011 -0.031104157 -0.026757596 0.011979574 0.010235805
6.591773e-05 -0.021937588 -0.014214178 -0.017152194 0.022071933 0.0072150165 0.009491721 0.013470223
-0.016694939 -0.007700888 0.0024125252 -0.00018719547 -0.0052429293 -0.00018799573 -0.005253095 -0.00077799964
0.022466343 -0.012372992 0.011075021 0.015456251 -0.00029424526 -0.028906355 -0.013810925 -0.0054507423
0.009396745 -0.023548542 0.008450673 0.0010857193 0.014815259 0.018797582 0.020615704 0.0021862404

act.action_out.linear.bias f4 [5]
00000000: 6d35 58bc 6819 5c3a 7f2f a53b 57c3 423b
00000010: d915 323c
-0.013196331 0.000839612 0.0050410624 0.0029718482 0.010869467
