results/MyEnv/MyEnv/mappo/check/run4/models/critic.pt (torch, 47477 bytes, 15 tensors)

base.feature_norm.weight f4 [28]
1.0177063 1.0066316 1.0108402 0.99293596 0.998982 0.9889879 0.99044865 0.9774615
1.0058036 1.0160298 1.0154363 0.99080527 1.0130628 0.98159194 1.014603 0.97892433
0.9812713 0.98012835 1.0194715 1.0253171 0.9773675 1.0105004 0.9852219 0.996229
0.98672724 1.0228566 0.97553825 0.9965145
00000000: 3344 823f 4ed9 803f 3663 813f 0d31 7e3f
00000010: 49bd 7f3f 502e 7d3f 0b8e 7d3f eb3a 7a3f
00000020: 2cbe 803f 440d 823f d1f9 813f 6aa5 7d3f
00000030: 0bac 813f 9c49 7b3f 83de 813f c99a 7a3f
00000040: 9934 7b3f b1e9 7a3f 0b7e 823f 973d 833f
00000050: c234 7a3f 1458 813f 8137 7c3f dd08 7f3f
00000060: 289a 7c3f f7ec 823f e0bc 793f 931b 7f3f

base.feature_norm.bias f4 [28]
0.008756432 0.013109082 -0.009607868 0.019547418 0.011964904 0.008512557 -0.022021322 -0.011974131
-0.018918999 0.004963716 -0.02124452 0.010191192 -0.022055244 -0.009121926 -0.014676618 0.023547856
-0.010330364 0.008965336 0.006709169 0.0042006476 0.020968542 -0.010713403 0.021591144 -0.0034120237
-0.012151538 -0.016031789 -0.01686565 0.019945078
00000000: 2377 0f3c 7ac7 563c 526a 1dbc e821 a03c
00000010: 7208 443c 4078 0b3c 0f66 b4bc 252f 44bc
00000020: 04fc 9abc aba6 a23b fd08 aebc f5f8 263c
00000030: 33ad b4bc 2174 15bc 3376 70bc 6fe7 c03c
00000040: b040 29bc 58e3 123c 97d8 db3b 96a5 893b
00000050: 38c6 ab3c 4587 2fbc e9df b03c 429c 5fbb
00000060: 3f17 47bc 1955 83bc d529 8abc dc63 a33c

base.mlp.fc1.0.weight f4 [64, 28]
0.17780487 0.09133284 0.050233137 -0.05263439 0.17499515 0.16246977 -0.19484223 -0.049629286
0.055274542 0.05336597 -0.07649301 0.34241393 -0.04222059 -0.25975877 0.13075922 0.2353183
-0.0678034 0.3265993 0.05028042 -0.08147568 -0.1899726 -0.04380522 -0.32012227 -0.06433061
0.04025625 0.26576307 -0.14152683 0.14615771 0.15601589 -0.024520883 -0.0041980087 -0.11908429
0.40045506 0.1827552 0.391729 0.37623525 0.01211386 -0.22685677 -0.025490345 -0.08216987
-0.09311519 0.11192269 0.17426191 -0.094942294 -0.19248 -0.21103479 -0.4120097 -0.0778659
-0.3139564 -0.27661988 -0.08241682 0.25607878 0.17695509 -0.09614885 -0.19013378 -0.32197
0.13953651 0.19251172 -0.00042264257 0.0061037797 -0.06050471 -0.03236117 0.0373018 0.05361185
0.092630565 0.09347596 -0.1224493 0.055319186 0.38057372 0.36990687 -0.11290235 0.16880426
0.11244158 -0.07575964 0.19152024 -0.24517734 0.002452921 -0.1652544 -0.1514941 0.15203263
-0.054016266 -0.012214433 0.022112105 -0.0047609205 0.3267911 -0.03412841 -0.08293602 -0.42825666
-0.18543532 -0.056977667 -0.11962823 0.09119717 -0.21797502 -0.23039536 0.06261917 0.060997352
-0.19244143 0.18008079 -0.113305956 0.09035811 0.05837859 -0.068526715 0.22342025 0.22464304
0.13160887 -0.14001341 0.028298747 0.038297348 0.2274175 -0.005284054 0.011510605 0.4190898
-0.062484827 -0.037962098 -0.18629406 -0.08814271 -0.09624953 -0.18254654 0.19428326 -0.48125908
-0.054511726 0.12707062 0.07986095 -0.14316417 -0.3378848 -0.06324527 0.07609939 0.27522874
-0.0019178297 -0.092344075 0.030427106 -0.08633155 -0.2326129 0.0052566314 -0.08015452 -0.2073325
0.16760947 -0.05481813 -0.124061525 0.035573576 0.098454766 -0.08346044 -0.11306343 0.015036632
0.061685797 -0.059451375 0.08596922 -0.106088445 0.178189 -0.29217386 0.19463213 0.06402033
0.035588462 -0.1694737 -0.09480187 0.13920605 -0.023111958 -0.32534593 0.054813072 -0.32740882
0.3935739 -0.07958848 0.10377729 0.16497819 -0.041972402 -0.22814877 0.021101719 -0.056988727
-0.15086953 0.18212482 -0.10340654 0.11141589 0.031108709 -0.02366784 0.022465974 -0.07397945
0.13344797 0.029027281 -0.06335197 -0.15262707 0.07074379 -0.067330405 0.1316828 -0.30950457
0.0618246 -0.08422286 0.026418963 0.08393901 -0.29325065 -0.054007657 -0.080078356 -0.24426503
0.19404933 0.10766107 -0.22501826 0.021711709 0.29487383 -0.09127251 -0.05484105 0.38637066
-0.1077945 -0.15310343 -0.10399546 -0.02241499 0.103332534 -0.27965888 -0.20987314 -0.0047617336
0.23610456 -0.15098277 -0.095025495 0.13321479 -0.13175136 -0.19747685 -0.31187525 0.16091608
0.017049279 0.071547374 0.13934006 -0.17667794 0.12093279 0.51294994 0.0064683515 -0.029331356
-0.17995965 0.33799642 -0.068929076 0.123869926 0.059115082 0.10874309 -0.17904592 0.07586207
-0.41397572 -0.10571336 0.08107369 0.28931767 0.20113453 -0.019792477 0.046784155 -0.18165562
-0.04083692 0.09947828 -0.18418221 0.19768639 0.10201352 -0.2786847 -0.39635125 0.12504314
-0.33515877 0.1677402 -0.008489422 0.05841652 -0.33402652 0.27623796 0.10498793 0.09687601
00000000: 7b12 363e b60c bb3d 43c1 4d3d 2897 57bd
00000010: ee31 333e 7a5e 263e b984 47be 1448 4bbd
00000020: 8f67 623d 4696 5a3d 5ea8 9cbd e150 af3e
00000030: 7fef 2cbd 1aff 84be bfe5 053e 48f7 703e
00000040: 82dc 8abd 0638 a73e d7f2 4d3d b9dc a6bd
00000050: 2d88 42be 1a6d 33bd 11e7 a3be c4bf 83bd
00000060: bde3 243d 1912 883e 69ec 10be 5eaa 153e
00000070: a1c2 1f3e 05e0 c8bc 738f 89bb 77e2 f3bd
00000080: 7208 cd3e 2e24 3b3e b490 c83e e8a1 c03e
00000090: 3679 463c 244d 68be 21d1 d0bc ad48 a8bd
000000a0: 2db3 bebd b937 e53d b771 323e 1b71 c2bd
000000b0: 7a19 45be 8119 58be eff2 d2be 2878 9fbd
000000c0: e5be a0be 1fa1 8dbe 26ca a8bd c21c 833e
000000d0: b733 353e b0e9 c4bd 6eb2 42be 40d9 a4be
000000e0: a9e2 0e3e cb21 453e 2096 ddb9 3702 c83b
000000f0: c9d3 77bd 258d 04bd c6c9 183d 1998 5b3d
00000100: 18b5 bd3d 5370 bf3d b3c6 fabd 5f96 623d
00000110: 8fda c23e 6f64 bd3e 5939 e7bd 06db 2c3e
00000120: c547 e63d df27 9bbd e21d 443e c50f 7bbe
00000130: 2fc1 203b 7338 29be 4521 1bbe 71ae 1b3e
00000140: 2940 5dbd 0c1f 48bc 7224 b53c 7f01 9cbb
00000150: 2a51 a73e 3bca 0bbd 5cda a9bd 7544 dbbe
00000160: c2e2 3dbe 6a61 69bd a5ff f4bd 95c5 ba3d
00000170: d834 5fbe c3ec 6bbe 7b3e 803d 5cd8 793d
00000180: 5e0f 45be 1967 383e f40c e8bd ac0d b93d
00000190: 631e 6f3d bc57 8cbd 47c8 643e d308 663e
000001a0: 7ac4 063e ad5f 0fbe c6d2 e73c aedd 1c3d
000001b0: 22e0 683e dc25 adbb fa96 3c3c f092 d63e
000001c0: 17f0 7fbd 257e 1bbd dfc3 3ebe 2a84 b4bd
000001d0: 791e c5bd 7bed 3abe 31f2 463e 9767 f6be
000001e0: b047 5fbd cd1e 023e 238e a33d a199 12be
000001f0: 3dff acbe bc86 81bd ffd9 9b3d c8ea 8c3e
00000200: b05f fbba e41e bdbd 4442 f93c 98ce b0bd
00000210: 1332 6ebe d23f ac3b 0e28 a4bd f94e 54be
00000220: d1a1 2b3e fa88 60bd f813 febd 99b5 113d
00000230: a7a2 c93d 4fed aabd cd8d e7bd 355c 763c
00000240: 3faa 7c3d 4983 73bd a110 b03d e644 d9bd
00000250: 2d77 363e d097 95be a54d 473e 171d 833d
00000260: 35c5 113d 838a 2dbe 7c27 c2bd 088c 0e3e
00000270: 4a55 bdbc be93 a6be ac83 603d 21a2 a7be
00000280: 8582 c93e 49ff a2bd 3089 d43d 0bf0 283e
00000290: 41eb 2bbd d59f 69be 83dd ac3c 036d 69bd
000002a0: 8b7d 1abe ee7e 3a3e cfc6 d3bd 042e e43d
000002b0: b1d7 fe3c 0fe3 c1bc 900a b83c 8a82 97bd
000002c0: 96a6 083e 9fca ed3c adbe 81bd 454a 1cbe
000002d0: 1fe2 903d 86e4 89bd dbd7 063e 6277 9ebe
000002e0: cb3b 7d3d 097d acbd 956c d83c 37e8 ab3d
000002f0: f324 96be 2237 5dbd 1f00 a4bd 9d20 7abe
00000300: deb4 463e 687d dc3d 306b 66be c1dc b13c
00000310: b4f9 963e 15ed babd 02a1 60bd 60d2 c53e
00000320: 5dc3 dcbd 25c7 1cbe 92fb d4bd a49f b7bc
00000330: 02a0 d33d 732f 8fbe fce8 56be 5108 9cbb
00000340: 65c5 713e 3a9b 1abe ba9c c2bd 7569 083e
00000350: d4e9 06be 5f37 4abe 1dae 9fbe 2fc7 243e
00000360: eeaa 8b3c 6e87 923d 29af 0e3e 10eb 34be
00000370: 9cab f73d b050 033f 77f4 d33b 5048 f0bc
00000380: 5847 38be de0d ad3e b02a 8dbd 84af fd3d
00000390: a822 723d b2b4 de3d d057 37be 935d 9b3d
000003a0: a0f4 d3be 3f80 d8bd f609 a63d 7221 943e
000003b0: 36f6 4d3e d523 a2bc bea0 3f3d ee03 3abe
000003c0: 9d44 27bd 45bb cb3d 439a 3cbe 4d6e 4a3e
000003d0: 77ec d03d c3af 8ebe 8dee cabe 4f0b 003e
000003e0: ee99 abbe 16c4 2b3e 3717 0bbc 2946 6f3d
000003f0: 8605 abbe 106f 8d3e e903 d73d ee66 c63d

base.mlp.fc1.0.bias f4 [64]
-0.024168413 -0.017004268 -0.014177843 0.024907533 -0.014055937 0.02122134 -0.02027255 0.023711853
0.014763426 0.029551651 -0.008406204 -0.016130239 -0.014062223 -0.023573823 -0.017543789 -0.022942524
0.0058110394 0.020320259 0.0156175615 -0.016311785 -0.007464295 0.008161498 0.028450364 0.011097112
-0.012157409 0.011598495 0.015002758 -0.021981215 0.030972514 -0.009702332 -0.011261945 -0.015389386
-0.021722933 0.013119472 -0.01944069 0.02290088 0.011673309 -0.018015198 -0.007970494 0.022803104
0.009240531 0.02436005 0.012082477 0.01903476 -0.004286744 0.017117906 0.026522808 0.008595875
-0.021960216 -0.018631272 0.023116391 0.010067971 -0.015200949 0.0039658993 -0.012350981 0.010722005
0.01651385 -0.02121711 0.011856902 -0.0143966675 -0.023358634 0.009906704 0.01987332 0.017718567
00000000: d6fc c5bc 894c 8bbc 2f4a 68bc e20a cc3c
00000010: df4a 66bc 60d8 ad3c 9e12 a6bc 5c3f c23c
00000020: 4ce2 713c 4e16 f23c 2dba 09bc 9023 84bc
00000030: 3d65 66bc e41d c1bc feb7 8fbc f6f1 bbbc
00000040: 886a be3b ac76 a63c cde0 7f3c 4ba0 85bc
00000050: 0b97 f4bb ceb7 053c bd10 e93c a9d0 353c
00000060: df2f 47bc 9d07 3e3c 21ce 753c f311 b4bc
00000070: 12ba fd3c 88f6 1ebc 0584 38bc c323 7cbc
00000080: 4bf4 b1bc 0ef3 563c 1542 9fbc a09a bb3c
00000090: 6841 3f3c 9c94 93bc ad96 02bc 93cd ba3c
000000a0: 9965 173c ba8e c73c 95f5 453c c9ee 9b3c
000000b0: d177 8cbb da3a 8c3c 5c46 d93c b7d5 0c3c
000000c0: e9e5 b3bc 9ca0 98bc 965e bd3c 22f4 243c
000000d0: 670d 79bc 60f4 813b c55b 4abc 59ab 2f3c
000000e0: 0e48 873c 81cf adbc 7443 423c 00e0 6bbc
000000f0: 9b5a bfbc ba4f 223c 5fcd a23c 8726 913c

base.mlp.fc1.2.weight f4 [64]
1.0082355 0.9881116 1.0262691 1.0238267 0.9793285 1.0075523 1.0137196 1.0097142
0.98343176 1.0189472 0.9918052 1.0181412 1.0232103 1.0042131 1.0219247 1.0068532
0.9843437 1.0148197 1.0196744 1.0115708 1.0203142 0.9918586 1.0118668 1.0031452
0.9940878 0.98406935 0.9734001 1.0248735 1.0228853 1.0102124 1.0183637 0.9984923
0.98664576 0.9975101 1.007213 1.0223956 0.9796885 1.0068284 0.98825395 0.99343467
1.0032959 1.0207115 0.97849387 1.0252302 0.98889774 1.0057497 1.016707 0.99571663
0.9799524 1.005519 1.0165764 0.97671354 0.9736865 1.0213224 0.9821194 0.9772295
0.9765359 0.979515 0.98843277 0.9991123 1.0215851 0.9844836 1.020171 0.97657853
00000000: dc0d 813f e2f4 7c3f c95c 833f c10c 833f
00000010: 46b5 7a3f 79f7 803f 90c1 813f 513e 813f
00000020: 2fc2 7b3f dd6c 823f f2e6 7d3f 7352 823f
00000030: 8ef8 823f 0e8a 803f 6ece 823f 91e0 803f
00000040: f3fd 7b3f 9de5 813f b184 823f 277b 813f
00000050: a899 823f 72ea 7d3f da84 813f 1067 803f
00000060: 8a7c 7e3f f8eb 7b3f c030 793f 0e2f 833f
00000070: e8ed 823f a44e 813f be59 823f 319d 7f3f
00000080: d194 7c3f d25c 7f3f 5bec 803f dcdd 823f
00000090: decc 7a3f c1df 803f 36fe 7c3f bc51 7e3f
000000a0: 006c 803f ada6 823f 937e 7a3f be3a 833f
000000b0: 6728 7d3f 68bc 803f 7423 823f 49e7 7e3f
000000c0: 29de 7a3f d9b4 803f 2d1f 823f e609 7a3f
000000d0: 8543 793f b1ba 823f 2d6c 7b3f b62b 7a3f
000000e0: 42fe 793f 7fc1 7a3f ee09 7d3f d3c5 7f3f
000000f0: 4dc3 823f 1e07 7c3f f794 823f 0d01 7a3f

base.mlp.fc1.2.bias f4 [64]
-0.007850461 -0.013233801 -0.028985051 0.0187988 -0.012765223 0.022936374 -0.019260678 0.024059061
0.017299043 0.026062611 -0.012183997 -0.016716244 -0.016825143 -0.02328977 -0.025125993 -0.02205293
0.009469553 0.014785365 0.014341987 -0.011993453 -0.0064789434 0.009046429 0.014814702 0.0134292655
-0.027236953 0.013579727 0.01495216 -0.024606997 0.027763696 -0.010684041 -0.013584922 -0.028667867
-0.014979477 0.011801526 -0.02594542 0.018648755 0.013256821 -0.01561173 -0.0042164163 0.022599706
0.010390503 0.02322721 0.016164677 -0.01604128 0.030448746 0.014485218 0.0242494 0.012357754
-0.020682799 -0.014807748 0.022376183 0.013746951 -0.017123334 -0.004080661 -0.013785751 0.011842769
0.018300835 -0.02238177 0.013235629 -0.025178583 -0.023175856 0.010887896 0.01094849 0.02407296
00000000: 389f 00bc 96d2 58bc 0f72 edbc f1ff 993c
00000010: 3a25 51bc 10e5 bb3c 92c8 9dbc 8217 c53c
00000020: b9b6 8d3c 4281 d53c 639f 47bc 81f0 88bc
00000030: e2d4 89bc 30ca bebc 07d5 cdbc 59a8 b4bc
00000040: 2f26 1b3c 513e 723c a7fa 6a3c 3080 44bc
00000050: 514d d4bb 7937 143c 5db9 723c 6c06 5c3c
00000060: 0820 dfbc 817d 5e3c e8f9 743c 9d94 c9bc
00000070: b170 e33c 1e0c 2fbc 4b93 5ebc e0d8 eabc
00000080: 7b6c 75bc 305b 413c 7d8b d4bc 46c5 983c
00000090: 2333 593c 57c8 7fbc dd29 8abb 0523 b93c
000000a0: ee3c 2a3c fd46 be3c c96b 843c 0169 83bc
000000b0: a66f f93c 6853 6d3c ada6 c63c 2d78 4a3c
000000c0: f96e a9bc 329c 72bc 424e b73c e43a 613c
000000d0: 3c46 8cbc 11b7 85bb a1dd 61bc 2c08 423c
000000e0: a2eb 953c f959 b7bc 40da 583c 5143 cebc
000000f0: 4bdb bdbc 2563 323c 4c61 333c a834 c53c

base.mlp.fc_h.0.weight f4 [64, 64]
0.032056723 0.007818245 0.06556118 0.41587508 0.06462525 -0.3809 0.11409278 0.08752155
0.05195709 0.07678689 0.1267702 -0.21503633 0.06754926 0.21181217 0.2824872 -0.33112693
-0.21318446 0.020685595 -0.059845857 0.07936739 -0.05149308 0.26217142 -0.078955404 -0.44446224
0.20674476 -0.27749577 0.15363215 -0.22745559 0.36879385 0.027774362 -0.16954546 -0.07769126
-0.10047972 -0.10892051 0.28038436 -0.10709856 0.063971594 0.030587727 0.10235755 0.00416463
-0.07253308 -0.07185889 0.06414732 -0.022786735 -0.11367034 0.19198376 0.032962445 0.06899924
-0.16979009 -0.10708702 0.02577303 0.0036710957 0.1466433 0.28428295 0.24460894 -0.17497443
-0.07466983 0.0015768401 -0.042306438 -0.09422303 0.0075697564 -0.09476517 0.43075436 -0.03928353
-0.1937206 0.074136525 0.27236807 -0.2463323 -0.018836277 -0.30808666 -0.2629623 -0.2459662
0.020959375 0.08737926 0.29568696 -0.11251273 -0.07481491 -0.3160804 0.097387984 0.11984286
0.11777942 0.28806385 0.19152772 -0.004691436 0.33105987 -0.006476661 -0.028302893 -0.10692124
-0.30825883 -0.11914256 0.020900246 0.026285803 0.06348936 -0.008145535 -0.15135781 -0.31352016
0.080141895 0.16486388 0.090905316 0.23723668 -0.19956444 -0.030006846 -0.10200652 0.2275203
-0.059229035 -0.2706256 -0.015147678 -0.026407681 -0.27830726 0.048336323 0.08010857 0.32546356
0.15566906 -0.16374888 0.03366436 -0.051048487 -0.0012758628 -0.12521105 0.31628364 0.120734915
-0.16120166 0.03143004 0.015296806 -0.2071551 -0.32246354 0.10276827 -0.16614273 -0.019898895
-0.03461019 -0.0057861274 -0.03873321 0.11922113 0.10734649 -0.05159732 -0.33078408 -0.219808
0.06537036 0.50633085 -0.016979577 0.031365488 -0.18393913 -0.20852844 -0.093845434 0.21846633
-0.063228264 0.1746061 -0.09752548 -0.28660277 0.065584265 0.14541307 -0.13973111 0.19658639
0.18633275 -0.032614935 0.1359508 -0.23459435 0.16009128 0.2140127 0.11806359 -0.1541011
-0.18271701 -0.26614815 -0.022994764 -0.2830463 0.17670983 0.1527885 -0.02773828 -0.065093964
-0.21996243 0.17556359 0.12382943 0.1824712 0.1660148 -0.1950454 0.005882421 0.01651526
-0.2556637 0.077596955 -0.30156288 -0.21149488 -0.19754772 -0.26396385 -0.1240176 -0.2845134
0.04201986 0.21631493 0.06651262 -0.016106572 -0.28610352 -0.03184817 -0.015522753 -0.023848718
0.05032585 0.3733408 0.031019166 0.27643695 -0.012171167 0.24366446 -0.3534917 -0.10955129
0.037364896 -0.16427293 0.038420778 -0.306141 0.033113837 0.2767258 -0.07399158 0.22434257
0.25504982 0.17529514 0.12405894 0.26793242 0.14464442 -0.3817205 -0.01076703 -0.1669873
-0.065771654 -0.21952473 0.05975893 0.0030827443 -0.079489104 0.01420078 0.13472287 0.07553273
-0.0682323 -0.14197272 -0.03141512 -0.3853829 -0.109272204 -0.017475838 -0.088463716 -0.13240568
0.020132944 0.1870491 0.13796765 0.41434696 0.124277495 0.10811268 -0.11599872 -0.16894476
-0.067054436 -0.32181767 0.07582162 0.068236776 -0.1431367 0.22934766 0.11211377 0.12476238
-0.13505234 -0.16983017 0.08641836 -0.22544535 0.027149701 0.018228773 -0.15444584 0.077135205
00000000: e94d 033d 1918 003c f144 863d 94ed d43e
00000010: 3e5a 843d 5305 c3be 7aa9 e93d 803e b33d
00000020: f5d0 543d 7242 9d3d 0cd0 013e 7c32 5cbe
00000030: 4457 8a3d 4ae5 583e 2aa2 903e 7889 a9be
00000040: 074d 5abe d674 a93c ee20 75bd 5f8b a23d
00000050: 68ea 52bd 553b 863e 5fb3 a1bd 8e90 e3be
00000060: e6b4 533e ed13 8ebe bf51 1d3e 1eea 68be
00000070: 8cd2 bc3e 0f87 e33c 539d 2dbe 981c 9fbd
00000080: 50c8 cdbd b711 dfbd 8a8e 8f3e 7d56 dbbd
00000090: 8a03 833d 1d93 fa3c d6a0 d13d 7377 883b
000000a0: 398c 94bd c12a 93bd ac5f 833d 3fab babc
000000b0: ffcb e8bd 6497 443e a103 073d 794f 8d3d
000000c0: 74dd 2dbe 7150 dbbd f621 d33c c496 703b
000000d0: a929 163e 898d 913e c47a 7a3e 7f2c 33be
000000e0: 7fec 98bd f9ad ce3a 8449 2dbd 01f8 c0bd
000000f0: b80b f83b 3e14 c2bd d68b dc3e c4e7 20bd
00000100: b15e 46be e4d4 973d d473 8b3e 893e 7cbe
00000110: 894e 9abc 89bd 9dbe ffa2 86be 90de 7bbe
00000120: ffb2 ab3c e6f3 b23d 4864 973e 136d e6bd
00000130: 8f38 99bd 4ad5 a1be 5a73 c73d 2c70 f53d
00000140: 5636 f13d 1b7d 933e d81f 443e 9eba 99bb
00000150: ae80 a93e 2c3a d4bb 78db e7bc 86f9 dabd
00000160: 1ad4 9dbe 0401 f4bd fe36 ab3c 5355 d73c
00000170: b606 823d da74 05bc 8bfd 1abe b785 a0be
00000180: 6f21 a43d 14d2 283e 912c ba3d 2cee 723e
00000190: 9f5a 4cbe ebd0 f5bc cbe8 d0bd 15fb 683e
000001a0: 259a 72bd 708f 8abe f72d 78bc ec54 d8bc
000001b0: 4a7e 8ebe 4ffc 453d f60f a43d 29a3 a63e
000001c0: b667 1f3e c9ad 27be a4e3 093d 3818 51bd
000001d0: da3a a7ba 5337 00be eeef a13e de43 f73d
000001e0: 0c12 25be c9bc 003d 749f 7a3c 7720 54be
000001f0: f119 a5be 2c78 d23d 5221 2abe 0203 a3bc
00000200: 6ac3 0dbd 8e99 bdbb b7a6 1ebd 352a f43d
00000210: 7ad8 db3d b657 53bd 885c a9be 5915 61be
00000220: e5e0 853d e69e 013f c118 8bbc 1979 003d
00000230: 8a5a 3cbe 7b88 55be 0932 c0bd a3b5 5f3e
00000240: d27d 81bd f1cb 323e 70bb c7bd 99bd 92be
00000250: 0b51 863d 2ae7 143e ac15 0fbe f14d 493e
00000260: 03ce 3e3e 3d97 05bd b036 0b3e 8039 70be
00000270: f8ee 233e 2526 5b3e 53cb f13d aecc 1dbe
00000280: 2b1a 3bbe 9244 88be 845f bcbc 72eb 90be
00000290: 6cf3 343e 9774 1c3e 643b e3bc fc4f 85bd
000002a0: d53d 61be f1c6 333e 499a fd3d bbd9 3a3e
000002b0: c9ff 293e fbb9 47be 53c1 c03b 034b 873c
000002c0: 5ae6 82be 27eb 9e3d 7366 9abe 1d92 58be
000002d0: f349 4abe 4526 87be f1fc fdbd beab 91be
000002e0: 041d 2c3d a981 5d3e c537 883d eef1 83bc
000002f0: 297c 92be 3a73 02bd 2553 7ebc 635e c3bc
00000300: 7a22 4e3d 8626 bf3e e81b fe3c 2589 8d3e
00000310: 9369 47bc 2d83 793e ddfc b4be 6d5c e0bd
00000320: ef0b 193d 2a37 28be 1b5f 1d3d 83be 9cbe
00000330: 60a2 073d 01af 8d3e e688 97bd 0fba 653e
00000340: e495 823e 9280 333e 9d12 fe3d 702e 893e
00000350: ab1d 143e df70 c3be 3268 30bc b8fe 2abe
00000360: 4ab3 86bd 17cb 60be c8c5 743d de07 4a3b
00000370: 2fcb a2bd 63aa 683c cbf4 093e e7b0 9a3d
00000380: 60bd 8bbd 4c61 11be 24ad 00bd e850 c5be
00000390: 1bca dfbd 7d29 8fbc 772c b5bd 5b95 07be
000003a0: d8ed a43c cd89 3f3e 6447 0d3e 4925 d43e
000003b0: 3385 fe3d 2e6a dd3d bd90 edbd dbff 2cbe
000003c0: d653 89bd 49c5 a4be 5e48 9b3d b9bf 8b3d
000003d0: 6d92 12be 1dda 6a3e e79b e53d 6b83 ff3d
000003e0: 294b 0abe f6e7 2dbe 1cfc b03d 25db 66be
000003f0: 0d69 de3c 8254 953c 0d27 1ebe 10f9 9d3d

base.mlp.fc_h.0.bias f4 [64]
0.0 0.0 0.0 0.0 0.0 0.0 0.0 0.0
0.0 0.0 0.0 0.0 0.0 0.0 0.0 0.0
0.0 0.0 0.0 0.0 0.0 0.0 0.0 0.0
0.0 0.0 0.0 0.0 0.0 0.0 0.0 0.0
0.0 0.0 0.0 0.0 0.0 0.0 0.0 0.0
0.0 0.0 0.0 0.0 0.0 0.0 0.0 0.0
0.0 0.0 0.0 0.0 0.0 0.0 0.0 0.0
0.0 0.0 0.0 0.0 0.0 0.0 0.0 0.0
00000000: 0000 0000 0000 0000 0000 0000 0000 0000
00000010: 0000 0000 0000 0000 0000 0000 0000 0000
00000020: 0000 0000 0000 0000 0000 0000 0000 0000
00000030: 0000 0000 0000 0000 0000 0000 0000 0000
00000040: 0000 0000 0000 0000 0000 0000 0000 0000
00000050: 0000 0000 0000 0000 0000 0000 0000 0000
00000060: 0000 0000 0000 0000 0000 0000 0000 0000
00000070: 0000 0000 0000 0000 0000 0000 0000 0000
00000080: 0000 0000 0000 0000 0000 0000 0000 0000
00000090: 0000 0000 0000 0000 0000 0000 0000 0000
000000a0: 0000 0000 0000 0000 0000 0000 0000 0000
000000b0: 0000 0000 0000 0000 0000 0000 0000 0000
000000c0: 0000 0000 0000 0000 0000 0000 0000 0000
000000d0: 0000 0000 0000 0000 0000 0000 0000 0000
000000e0: 0000 0000 0000 0000 0000 0000 0000 0000
000000f0: 0000 0000 0000 0000 0000 0000 0000 0000

base.mlp.fc_h.2.weight f4 [64]
1.0 1.0 1.0 1.0 1.0 1.0 1.0 1.0
1.0 1.0 1.0 1.0 1.0 1.0 1.0 1.0
1.0 1.0 1.0 1.0 1.0 1.0 1.0 1.0
1.0 1.0 1.0 1.0 1.0 1.0 1.0 1.0
1.0 1.0 1.0 1.0 1.0 1.0 1.0 1.0
1.0 1.0 1.0 1.0 1.0 1.0 1.0 1.0
1.0 1.0 1.0 1.0 1.0 1.0 1.0 1.0
1.0 1.0 1.0 1.0 1.0 1.0 1.0 1.0
00000000: 0000 803f 0000 803f 0000 803f 0000 803f
00000010: 0000 803f 0000 803f 0000 803f 0000 803f
00000020: 0000 803f 0000 803f 0000 803f 0000 803f
00000030: 0000 803f 0000 803f 0000 803f 0000 803f
00000040: 0000 803f 0000 803f 0000 803f 0000 803f
00000050: 0000 803f 0000 803f 0000 803f 0000 803f
00000060: 0000 803f 0000 803f 0000 803f 0000 803f
00000070: 0000 803f 0000 803f 0000 803f 0000 803f
00000080: 0000 803f 0000 803f 0000 803f 0000 803f
00000090: 0000 803f 0000 803f 0000 803f 0000 803f
000000a0: 0000 803f 0000 803f 0000 803f 0000 803f
000000b0: 0000 803f 0000 803f 0000 803f 0000 803f
000000c0: 0000 803f 0000 803f 0000 803f 0000 803f
000000d0: 0000 803f 0000 803f 0000 803f 0000 803f
000000e0: 0000 803f 0000 803f 0000 803f 0000 803f
000000f0: 0000 803f 0000 803f 0000 803f 0000 803f

base.mlp.fc_h.2.bias f4 [64]
0.0 0.0 0.0 0.0 0.0 0.0 0.0 0.0
0.0 0.0 0.0 0.0 0.0 0.0 0.0 0.0
0.0 0.0 0.0 0.0 0.0 0.0 0.0 0.0
0.0 0.0 0.0 0.0 0.0 0.0 0.0 0.0
0.0 0.0 0.0 0.0 0.0 0.0 0.0 0.0
0.0 0.0 0.0 0.0 0.0 0.0 0.0 0.0
0.0 0.0 0.0 0.0 0.0 0.0 0.0 0.0
0.0 0.0 0.0 0.0 0.0 0.0 0.0 0.0
00000000: 0000 0000 0000 0000 0000 0000 0000 0000
00000010: 0000 0000 0000 0000 0000 0000 0000 0000
00000020: 0000 0000 0000 0000 0000 0000 0000 0000
00000030: 0000 0000 0000 0000 0000 0000 0000 0000
00000040: 0000 0000 0000 0000 0000 0000 0000 0000
00000050: 0000 0000 0000 0000 0000 0000 0000 0000
00000060: 0000 0000 0000 0000 0000 0000 0000 0000
00000070: 0000 0000 0000 0000 0000 0000 0000 0000
00000080: 0000 0000 0000 0000 0000 0000 0000 0000
00000090: 0000 0000 0000 0000 0000 0000 0000 0000
000000a0: 0000 0000 0000 0000 0000 0000 0000 0000
000000b0: 0000 0000 0000 0000 0000 0000 0000 0000
000000c0: 0000 0000 0000 0000 0000 0000 0000 0000
000000d0: 0000 0000 0000 0000 0000 0000 0000 0000
000000e0: 0000 0000 0000 0000 0000 0000 0000 0000
000000f0: 0000 0000 0000 0000 0000 0000 0000 0000

base.mlp.fc2.0.0.weight f4 [64, 64]
0.011331168 0.024205115 0.036349468 0.44282934 0.08862824 -0.403459 0.09246276 0.072008505
0.039518736 0.087496735 0.13520841 -0.22170117 0.0857537 0.23579638 0.2632171 -0.33753297
-0.2216916 0.02531438 -0.08202441 0.09299445 -0.059589207 0.24486823 -0.09875877 -0.46602902
0.23288351 -0.29515928 0.15924644 -0.21467827 0.3914033 0.020410663 -0.1897121 -0.07387612
-0.094246954 -0.089005105 0.26145798 -0.09631414 0.0447661 0.019944252 0.114479996 0.028563946
-0.090147816 -0.0693772 0.043872 -0.04230896 -0.12921454 0.18040985 0.056180216 0.091047995
-0.19379932 -0.10307022 0.022211777 0.010171032 0.16533989 0.30744845 0.2633133 -0.19113474
-0.09469307 0.020083386 -0.060474146 -0.11688439 -0.014924963 -0.11810108 0.45144984 -0.04790351
-0.1742013 0.053714328 0.28467473 -0.22183321 -0.03410175 -0.28634292 -0.24234705 -0.2330146
0.031189451 0.07499529 0.28887185 -0.107641675 -0.057225667 -0.30407038 0.12323745 0.10950201
0.10000046 0.263864 0.1859017 -0.0025027432 0.30101916 0.011966311 -0.041389376 -0.0858939
-0.300194 -0.123297386 0.045821633 0.03031056 0.04357629 0.008974386 -0.13992426 -0.2883077
0.06469801 0.1428517 0.11316912 0.22614005 -0.1764028 -0.022928227 -0.11677244 0.21880683
-0.037864257 -0.25746405 0.00648002 -0.011926809 -0.2679515 0.040922325 0.06105284 0.3172117
0.1359093 -0.18022975 0.0264241 -0.044501014 0.0015215889 -0.13827276 0.29325145 0.13613772
-0.1399299 0.046891637 0.0041474407 -0.19695818 -0.32006505 0.11473216 -0.18456204 0.004362378
-0.05312122 0.015585601 -0.051893875 0.12998034 0.12943976 -0.048554912 -0.34639195 -0.24133494
0.053445894 0.52946585 -0.026492063 0.014395547 -0.20445533 -0.21022919 -0.11714788 0.23941575
-0.05555781 0.19728437 -0.11848017 -0.2838011 0.056197956 0.12253106 -0.12908955 0.20304428
0.21125875 -0.019324468 0.12301445 -0.25332046 0.17739639 0.23400454 0.11702979 -0.16672578
-0.17927755 -0.27238035 -0.043734618 -0.29628035 0.1749086 0.17119862 -0.03455923 -0.08723791
-0.22629724 0.18803208 0.10508495 0.19544339 0.18859473 -0.21558733 0.02270517 0.020562725
-0.26028335 0.098472565 -0.3195114 -0.20997106 -0.2120413 -0.25757554 -0.10558332 -0.30329165
0.046831947 0.23847646 0.079456024 -0.03619278 -0.30853593 -0.04789665 0.006203173 -0.014657379
0.032270797 0.39493543 0.0066547985 0.2864521 -0.014055282 0.25433922 -0.36892968 -0.12431298
0.033007123 -0.14269763 0.037814166 -0.32071596 0.015360215 0.29855308 -0.098363176 0.2418686
0.27001685 0.19633427 0.13028966 0.2896274 0.16719325 -0.40336522 0.008124005 -0.18374711
-0.06952782 -0.23759131 0.038090657 -0.0077053597 -0.100593984 0.02128616 0.119636714 0.09749709
-0.053706244 -0.13001579 -0.052457258 -0.4077653 -0.12549227 0.0015759558 -0.07266402 -0.15042304
0.0052889255 0.20480427 0.11688379 0.4217145 0.15048043 0.107665725 -0.11947446 -0.1574746
-0.0571934 -0.3313752 0.053363618 0.06850698 -0.13359597 0.25393942 0.1343133 0.1056231
-0.15470797 -0.18870369 0.09222319 -0.24915619 0.0051039504 -0.00030078058 -0.18200979 0.093339406
00000000: 5da6 393c ce49 c63c 2ee3 143d 87ba e23e
00000010: b982 b53d 2e92 cebe 1e5d bd3d 3279 933d
00000020: 66de 213d 7d31 b33d 1374 0a3e a205 63be
00000030: a39f af3d 9b74 713e 64c4 863e 1fd1 acbe
00000040: 1f03 63be 1a60 cf3c 6afc a7bd e073 be3d
00000050: d013 74bd bdbe 7a3e 0a42 cabd 5b9b eebe
00000060: 0479 6e3e 1e1f 97be 8011 233e 9fd4 5bbe
00000070: 0366 c83e 4334 a73c e443 42be 5d4c 97bd
00000080: 8c04 c1bd 4f48 b6bd d2dd 853e 5940 c5bd
00000090: a85c 373d 2162 a33c 7d74 ea3d f0fe e93c
000000a0: 6b9f b8bd a215 8ebd 20b3 333d 294c 2dbd
000000b0: d150 04be 5cbd 383e 3a1d 663d 5f77 ba3d
000000c0: 5473 46be 7b16 d3bd 79f5 b53c 66a4 263c
000000d0: dc4e 293e e269 9d3e 00d1 863e d3b8 43be
000000e0: 71ee c1bd ea85 a43c bdb3 77bd 1561 efbd
000000f0: d587 74bc fbde f1bd 6f24 e73e 7936 44bd
00000100: d361 32be 8e03 5c3d e3c0 913e 3f28 63be
00000110: 47ae 0bbd 8a9b 92be d329 78be 619b 6ebe
00000120: 0581 ff3c 2197 993d 03e7 933e 3d73 dcbd
00000130: 7665 6abd 1daf 9bbe eb63 fc3d 9742 e03d
00000140: 0bcd cc3d 2f19 873e 045d 3e3e 1005 24bb
00000150: 2f1f 9a3e 590e 443c e887 29bd 24e9 afbd
00000160: 07b3 99be 5783 fcbd 77af 3b3d da4d f83c
00000170: 0d7d 323d 4e09 133c 4e48 0fbe 119d 93be
00000180: 6480 843d b747 123e 36c5 e73d 4291 673e
00000190: f0a2 34be fad3 bbbc 6426 efbd e60e 603e
000001a0: 8d17 1bbd 54d2 83be 5956 d43b aa68 43bc
000001b0: f030 89be 2b9e 273d 8b12 7a3d 9269 a23e
000001c0: cf2b 0b3e 268e 38be 5b77 d83c b246 36bd
000001d0: 0d70 c73a 6097 0dbe 0e25 963e b067 0b3e
000001e0: c949 0fbe 7211 403d 41e7 873b 68af 49be
000001f0: 91df a3be b2f8 ea3d d5fd 3cbe 47f2 8e3b
00000200: a395 59bd c05a 7f3c ac8e 54bd 9119 053e
00000210: db8b 043e 84e1 46bd 495a b1be 8220 77be
00000220: 15ea 5a3d 138b 073f e205 d9bc 4ddb 6b3c
00000230: bd5c 51be 5246 57be 3aeb efbd 6729 753e
00000240: 9690 63bd ea04 4a3e bba5 f2bd 614e 91be
00000250: d42f 663d 90f1 fa3d 0d30 04be d7ea 4f3e
00000260: 3754 583e 594e 9ebc 00ef fb3d 38b3 81be
00000270: 66a7 353e e39e 6f3e 51ad ef3d 2aba 2abe
00000280: 8994 37be 7075 8bbe 1223 33bd 0fb2 97be
00000290: 3d1b 333e b14e 2f3e fb8d 0dbd caa9 b2bd
000002a0: 77ba 67be 7b8b 403e c736 d73d 5022 483e
000002b0: fa1e 413e edc2 5cbe 3100 ba3c 2973 a83c
000002c0: dc43 85be fcab c93d 0097 a3be a702 57be
000002d0: 5b21 59be f1e0 83be 113c d8bd 0b49 9bbe
000002e0: dbd2 3f3d 2c33 743e d7b9 a23d e13e 14bd
000002f0: 6cf8 9dbe 472f 44bd fd43 cb3b 8125 70bc
00000300: 622e 043d fa34 ca3e 7f10 da3b daa9 923e
00000310: 2048 66bc c038 823e 5ae4 bcbe ce97 febd
00000320: 7a32 073d 541f 12be 07e3 1a3d e234 a4be
00000330: 69a9 7b3c f3db 983e a272 c9bd 67ac 773e
00000340: a63f 8a3e da0b 493e a76a 053e 0b4a 943e
00000350: b534 2b3e e385 cebe 8c1a 053c 3428 3cbe
00000360: 9a64 8ebd 234b 73be f304 1c3d 3e7d fcbb
00000370: 3804 cebd 5060 ae3c 1804 f53d 8eac c73d
00000380: 14fb 5bbd dc22 05be 6cdd 56bd 9dc6 d0be
00000390: 0c81 00be 4d90 ce3a e0d0 94bd 7f08 1abe
000003a0: b94e ad3b 36b8 513e c560 ef3d f7ea d73e
000003b0: 8b17 1a3e d97f dc3d 07af f4bd 0641 21be
000003c0: a043 6abd 03aa a9be cf93 5a3d 634d 8c3d
000003d0: 62cd 08be 5904 823e 6d89 093e ed50 d83d
000003e0: c46b 1ebe 8a3b 41be 83df bc3d cd22 7fbe
000003f0: 0a3f a73b 16b2 9db9 c660 3abe bb28 bf3d

base.mlp.fc2.0.0.bias f4 [64]
0.022941114 -0.014684248 0.019728221 0.024206886 0.025871033 -0.015765894 -0.01470925 0.013868134
-0.019377334 -0.020418484 -0.019089384 -0.014203568 -0.0233118 0.026584378 0.013361278 -0.013429956
0.015623451 -0.023376018 -0.014425176 0.025158444 0.021164466 -0.010379995 -0.010865503 0.015931351
-0.01250734 0.02301454 0.023345912 -0.012518055 0.026100788 0.014064432 0.012573535 -0.022612046
0.023665668 0.014669152 0.025945606 -0.014219584 0.016005244 0.0058788597 0.02469074 -0.01467959
-0.013676938 0.013364209 -0.01231067 0.0149809355 0.013352522 -0.012566548 0.026576973 0.01620458
0.025575485 0.023748044 -0.011856145 0.026380578 -0.0134347975 0.018743621 -0.011214774 -0.017055387
-0.012643944 0.020686025 0.013521422 0.022520363 0.012491304 0.01923543 0.024977488 0.023433294
00000000: 01ef bb3c 3396 70bc 149d a13c 854d c63c
00000010: 7def d33c 7a27 81bc 11ff 70bc 2b37 633c
00000020: 37bd 9ebc aa44 a7bc 5761 9cbc 15b6 68bc
00000030: 63f8 bebc 7bc7 d93c 43e9 5a3c 5109 5cbc
00000040: 81f9 7f3c 107f bfbc 9357 6cbc 1519 ce3c
00000050: 1a61 ad3c db10 2abc 3905 32bc 7782 823c
00000060: 96eb 4cbc fd88 bc3c ed3f bf3c 8718 4dbc
00000070: 52d1 d53c 816e 663c 3a01 4e3c e63c b9bc
00000080: 81de c13c e256 703c e18b d43c 42f9 68bc
00000090: 6e1d 833c 73a3 c03b 3c44 ca3c aa82 70bc
000000a0: 3c15 60bc 8ef5 5a3c b1b2 49bc 9972 753c
000000b0: 89c4 5a3c ece3 4dbc f4b7 d93c 78bf 843c
000000c0: ae83 d13c 428b c23c 4740 42bc 151c d83c
000000d0: a01d 5cbc 398c 993c 2cbe 37bc bdb7 8bbc
000000e0: 8b28 4fbc bd75 a93c f488 5d3c a07c b83c
000000f0: 54a8 4c3c 9f93 9d3c 979d cc3c 2ef7 bf3c

base.mlp.fc2.0.2.weight f4 [64]
0.9984808 0.98973846 1.0019222 1.0161529 1.0283825 0.9824355 0.98045313 0.97835565
0.9861009 0.9885116 1.0098035 1.0227269 0.9906474 1.0139358 0.9885988 1.0098767
0.98362404 0.98339945 1.014236 1.0158223 0.9872934 0.9841322 0.9899173 0.9884557
0.97952175 1.000694 0.98442745 1.0178196 1.0112749 0.9766607 0.9786741 0.9847388
1.0160271 1.0028393 1.0263705 1.0029229 0.9832093 0.9932441 0.9956703 0.992094
1.0055141 0.9837638 1.0101683 0.9970296 0.9784901 0.99629503 1.0125428 0.9829171
1.0169569 1.0037475 1.0131724 1.0323792 1.0143926 1.0027046 0.99715155 0.9874818
0.9867272 0.9884718 1.0002475 1.0089688 0.9819945 0.9987037 1.019313 0.99641365
00000000: 709c 7f3f 805f 7d3f fd3e 803f 4c11 823f
00000010: 0aa2 833f e580 7b3f fafe 7a3f 8475 7a3f
00000020: 1c71 7c3f 190f 7d3f 3e41 813f b7e8 823f
00000030: 119b 7d3f a6c8 813f d014 7d3f a443 813f
00000040: c9ce 7b3f 11c0 7b3f 7cd2 813f 7706 823f
00000050: 43bf 7c3f 16f0 7b3f 386b 7d3f 6f0b 7d3f
00000060: f0c1 7a3f be16 803f 7003 7c3f ea47 823f
00000070: 7571 813f 7006 7a3f 638a 7a3f d817 7c3f
00000080: 2d0d 823f 0a5d 803f 1c60 833f c75f 803f
00000090: 9bb3 7b3f 3f45 7e3f 40e4 7e3f dff9 7d3f
000000a0: b0b4 803f f2d7 7b3f 324d 813f 553d 7f3f
000000b0: 547e 7a3f 310d 7f3f 019b 813f 74a0 7b3f
000000c0: a52b 823f cc7a 803f a2af 813f 0025 843f
000000d0: 9ed7 813f a058 803f 5345 7f3f 9bcb 7c3f
000000e0: 279a 7c3f 7d0c 7d3f 1c08 803f e425 813f
000000f0: fe63 7b3f 0cab 7f3f d978 823f f714 7f3f

base.mlp.fc2.0.2.bias f4 [64]
0.015776293 -0.014931267 0.016063219 0.016598864 0.020448923 -0.015664797 -0.015532692 0.015415841
-0.015602701 -0.01570409 -0.01608313 -0.018311776 -0.015806323 0.020787772 0.015749676 -0.0166189
0.015071836 -0.01568031 -0.01666122 0.016908804 0.015332492 -0.014542679 -0.014951182 0.015669154
-0.015199955 0.01599707 0.014322836 -0.017231142 0.028921513 0.015472005 0.015529285 -0.015705384
0.016499965 0.016135707 0.019959232 -0.015996728 0.015585218 -0.0040333676 0.016165221 -0.015726622
-0.016011706 0.015569358 -0.016035771 0.01593998 0.0153347375 -0.015776325 0.0078689745 0.014862634
0.028068433 0.016360402 -0.016217684 0.022444 -0.01636707 0.016216338 -0.015534183 -0.015579815
-0.0153247025 0.015550854 -0.0045375265 0.019748537 0.015682647 0.015918989 0.016767869 0.015683012
00000000: 493d 813c 46a2 74bc 0397 833c 57fa 873c
00000010: 8084 a73c 7653 80bc d57c 7ebc b992 7c3c
00000020: 79a2 7fbc dda5 80bc c5c0 83bc 9402 96bc
00000030: 437c 81bc 1e4b aa3c 7705 813c 5c24 88bc
00000040: ddef 763c fe73 80bc 1c7d 88bc 5584 8a3c
00000050: 2235 7b3c 6b44 6ebc cdf5 74bc 995c 803c
00000060: 3b09 79bc 4a0c 833c 54aa 6a3c 5328 8dbc
00000070: cfec ec3c 4b7e 7d3c 8b6e 7e3c 94a8 80bc
00000080: ef2a 873c 082f 843c 8b81 a33c 920b 83bc
00000090: 2459 7f3c 572a 84bb ed6c 843c 1ed5 80bc
000000a0: fb2a 83bc 9f16 7f3c 735d 83bc 9094 823c
000000b0: 8d3e 7b3c 5a3d 81bc dfec 003c 6882 733c
000000c0: c5ef e53c 4006 863c f3da 84bc 7bdc b73c
000000d0: 3c14 86bc 20d8 843c 1683 7ebc 7b42 7fbc
000000e0: 7614 7bbc 02c9 7e3c 88af 94bb afc7 a13c
000000f0: e578 803c 8a68 823c c55c 893c a979 803c

v_out.weight f4 [1, 64]
0.03915641 -0.034361612 0.11242186 0.10728328 0.031532146 -0.22579299 -0.15955089 0.12316356
-0.13802981 -0.16799411 -0.25589317 -0.042195503 -0.23662074 0.018201508 0.15773 -0.071206495
0.052995704 -0.2151924 -0.09925369 0.0721558 0.06395248 -0.03677431 -0.04305965 0.16333649
-0.08240814 0.095219895 0.024595648 -0.050564688 0.017135983 0.15485024 0.1630678 -0.22057529
0.079463534 0.13406207 0.0323638 -0.081149966 0.1538945 0.011442742 0.028557718 -0.091811135
-0.27692682 0.15320946 -0.10117577 0.100238204 0.10333001 -0.10931374 0.017385699 0.042620897
0.02016312 0.09062453 -0.09220229 0.029238326 -0.1263167 0.070212245 -0.046216905 -0.1157839
-0.06863069 0.11393721 0.008326791 0.011181753 0.26824346 0.13934313 0.07670415 0.087975994
00000000: 7962 203d c3be 0cbd 6f3d e63d 56b7 db3d
00000010: da27 013d 4736 67be 4f61 23be 2d3d fc3d
00000020: b057 0dbe a606 2cbe 6e04 83be 31d5 2cbd
00000030: b54c 72be 541b 953c f983 213e b6d4 91bd
00000040: 0612 593d 665b 5cbe 8545 cbbd 6cc6 933d
00000050: 85f9 823d a9a0 16bd 515f 30bd ae41 273e
00000060: 99c5 a8bd a602 c33d d07c c93c eb1c 4fbd
00000070: c360 8c3c 1091 1e3e 3ffb 263e 7dde 61be
00000080: c7bd a23d 9147 093e e78f 043d f431 a6bd
00000090: 8596 1d3e 577a 3b3c e0f1 e93c 7a07 bcbd
000000a0: 5ac9 8dbe f1e2 1c3e 3e35 cfbd b049 cd3d
000000b0: af9e d33d e2df dfbd 746c 8e3c 4093 2e3d
000000c0: 212d a53c 5b99 b93d 8ed4 bcbd 3785 ef3c
000000d0: 2a59 01be 70cb 8f3d f04d 3dbd 1c20 edbd
000000e0: 3f8e 8cbd e957 e93d 186d 083c ac33 373c
000000f0: 3557 893e f7af 0e3e 1117 9d3d c22c b43d
