results/MyEnv/MyEnv/mappo/check/run12/models/critic.pt (torch, 40693 bytes, 15 tensors)

base.feature_norm.weight f4 [2]
00000000: 21d2 7f3f f418 803f
0.99930006 1.0007615

base.feature_norm.bias f4 [2]
00000000: 0864 39ba fc80 77bb
-0.0007072096 -0.003776609

base.mlp.fc1.0.weight f4 [64, 2]
00000000: 9119 96be 9a2d 7e3e bf32 72be 263d 213d
00000010: 93b8 833c fdc9 ad3d a672 b8be ab3b e33b
00000020: 3931 88bd 4037 1fbe 5bb4 b03d 1087 b53c
00000030: ccc1 d13e 1754 f9bc 6af7 d83d 0c61 69bd
00000040: 8986 713e d36f c53e 70db 4abd 4291 8abe
00000050: 2e95 59be 0ceb fcbd 43a8 3d3e 38a0 2dbe
00000060: 1aca edbc 3f1b a13d 6858 2bbe 9072 87be
00000070: 92bc 6e3d 8291 9ebe 2c45 1cbe 9517 c33e
00000080: 78b9 dcbe 5189 1d3e 840f 323e 4ca4 5dbd
00000090: 98d7 683e 6ffe 8cbe 5b8f cbbd cada 9c3a
000000a0: 50dd ad3e 6f18 89be a192 783e 272d 93bd
000000b0: 4e15 e33e 7a43 823e 6571 41be 9f7e c6bd
000000c0: 7448 2b3d 0a70 99bd 884e 60be 34be 16be
000000d0: 40df 92bc ae37 0f3e 8715 43bd 6e85 353d
000000e0: bdf3 fcbd 1018 8d3d 9933 97bd 97bf 22be
000000f0: 3cd9 ba3d 80c0 c0bd fac3 7ebc e352 61be
00000100: da86 90bc 54aa b63d d066 1abd 2cea ef3b
00000110: 586b 75be 5bb1 903d df76 893d 1f08 a9bd
00000120: de93 ed3d ca00 64be 917b 2dbd 8e0c 3f3e
00000130: d8b4 e1bd 4f8d 853d c29a 9d3d 436d 923d
00000140: 5584 19be 4a95 58be 9607 b0bd 9bdb 913d
00000150: 4c6d 073e 6180 b83c c9d5 c63d 1a51 03be
00000160: e0f5 b6bc 2a33 d13d 59a7 763e 1a9e 613c
00000170: 0184 6b3d 7b90 203e e46d 0f3d 6dbf 83be
00000180: 60eb d2bd a4ef 75be 293d dabd cbed 2dbb
00000190: 0456 fc3c 6065 dfbc bc36 60be 30d3 f7bd
000001a0: 4431 b23c ba77 1dbd e784 b6bd 3bcc 823d
000001b0: ff35 353d d38c 1cbe 87ba 30be cdb3 80ba
000001c0: 9ec9 20bd ba30 9d3e 4aa5 403e 3be9 86be
000001d0: 9e17 0cbe d721 ccbe 63c3 3f3e 49cf c53e
000001e0: b1d0 9f3e 31b3 4d3e 0864 663e e5e4 0a3b
000001f0: e451 54bc ea0d 7ebd d248 01bd 433e 363e
-0.2931638 0.24822083 -0.2365217 0.039364956 0.016079223 0.08485792 -0.3602497 0.006934603
-0.066500135 -0.1554842 0.0862815 0.02215913 0.40968168 -0.030435605 0.105940655 -0.056977317
0.23586477 0.38561878 -0.04952568 -0.27063948 -0.21248314 -0.12349519 0.18521218 -0.1695565
-0.029027034 0.07866525 -0.16732943 -0.26454592 0.058285303 -0.3097039 -0.15260762 0.3810393
-0.4311025 0.15384413 0.17388731 -0.054111764 0.22738492 -0.27537867 -0.09939452 0.001196706
0.3395791 -0.26776454 0.24274684 -0.071863465 0.44352192 0.25442106 -0.18890913 -0.0969212
0.041817144 -0.07492073 -0.21904957 -0.14720994 -0.01792872 0.13986084 -0.047627952 0.0443167
-0.12351177 0.06889355 -0.07382888 -0.15893398 0.091234654 -0.094117165 -0.015549654 -0.22004275
-0.017642427 0.08919206 -0.037695706 0.0073216166 -0.2396673 0.07065078 0.06712126 -0.08253502
0.11600469 -0.22265926 -0.04235417 0.18657133 -0.11020821 0.06521093 0.07695533 0.07149746
-0.14991887 -0.211507 -0.08595197 0.071219645 0.13225287 0.022522153 0.09708745 -0.12823907
-0.02233404 0.10214837 0.24087276 0.0137706045 0.057498936 0.15680115 0.03501691 -0.25731984
-0.102988005 -0.24017197 -0.106561966 -0.002653944 0.030802734 -0.027270019 -0.2189588 -0.12100828
0.021752007 -0.03844426 -0.08912068 0.0638661 0.044240948 -0.15288095 -0.17258655 -0.000981921
-0.039254777 0.30701238 0.18813053 -0.26349816 -0.13680884 -0.39869568 0.18726878 0.3863471
0.31213906 0.20087887 0.22499096 0.002119356 -0.012958977 -0.06202499 -0.031563587 0.17797188

base.mlp.fc1.0.bias f4 [64]
00000000: 3e86 12bb 9ef1 2cbb 7c89 deb9 6a9c 8b3b
00000010: f2df 36bb 838d 3abb 1f29 3abb 1cc4 253b
00000020: 7dbb 403a bcd0 c13a bf22 09bb f3d6 823b
00000030: 43de 4dbb ec5a 823a 8bbd 37bb 0f6a 813a
00000040: 39f4 363a 7588 2cbb aa77 32bb eb3d 733b
00000050: 2cd0 34bb 2712 3abb 0dd0 35bb 9b27 523b
00000060: c1c5 3c3b a428 71bb a4dc 2ebb d04a cdbb
00000070: f54e ec3b 650f 50bb 3b57 38bb bf30 39bb
00000080: ea6a d0bb 1342 8bba ad96 483b 946a bb3b
00000090: 964a 7dbb 49c0 11bb ee9a e63b 8def 9cba
000000a0: e88c 60ba 1724 893a c55d f039 1546 d43a
000000b0: 3527 7d3b b766 3abb c964 f33a 1f1c b13b
000000c0: 2ce0 31bb e518 613b c34d 3abb 3b54 2e3b
000000d0: e70d 0eb8 3b84 2a3b fe24 1cba e27f f4ba
000000e0: 8217 0cbb 96e6 463a 32a8 a139 8a51 b83a
000000f0: 221b 07bb 050d 603b 8c10 36bb b6ce e4b8
-0.0022357847 -0.0026389132 -0.00042445573 0.0042605894 -0.0027904478 -0.0028465695 -0.0028405858 0.0025293892
0.00073521567 0.0014786939 -0.0020925251 0.003992909 -0.0031412996 0.000994531 -0.002803656 0.0009873527
0.0006979141 -0.0026326452 -0.002723197 0.0037115763 -0.00275899 -0.0028392167 -0.0027742416 0.0032067064
0.0028804394 -0.0036797905 -0.0026681805 -0.006265022 0.007211561 -0.0031747457 -0.0028128165 -0.0028257815
-0.0063604014 -0.001062455 0.0030607388 0.005719492 -0.0038649193 -0.0022239855 0.007037512 -0.0011973247
-0.00085659185 0.0010463026 0.0004584623 0.0016195202 0.0038628106 -0.002844257 0.0018569465 0.0054049636
-0.0027141673 0.0034347114 -0.0028427697 0.0026600498 -3.3868386e-05 0.0026018757 -0.000595644 -0.0018653835
-0.0021376316 0.00075874606 0.00030833628 0.0014062386 -0.0020615538 0.0034187448 -0.0027780859 -0.0001091039

base.mlp.fc1.2.weight f4 [64]
00000000: d871 7f3f c509 803f c4f9 7f3f 116b 803f
00000010: db06 803f 7123 803f 4788 7e3f 7923 803f
00000020: 6d94 7f3f bccd 7f3f 7328 803f 2070 803f
00000030: 2995 7f3f b440 7f3f 39a3 803f 721c 803f
00000040: d83b 803f 4725 803f 4bbe 7f3f 125f 803f
00000050: fca3 7f3f 6399 7f3f ee6b 803f 6c1d 803f
00000060: 8b9d 7f3f ed0d 803f 11b6 803f 20ac 7f3f
00000070: 356c 803f b6b8 7f3f 14f2 7f3f 920b 803f
00000080: e40e 803f 090c 7f3f 7343 803f dd7d 803f
00000090: a44a 803f 3439 7f3f 7fd0 803f 2b38 7f3f
000000a0: b948 7f3f fd07 803f 94a7 7e3f 393e 7f3f
000000b0: 5c3b 803f ec03 803f c018 803f 3e4d 803f
000000c0: d56e 803f b25c 7f3f f100 803f 0b45 803f
000000d0: 2fff 7e3f 432b 7f3f fb3c 7f3f 3b4c 803f
000000e0: edbc 7f3f c38f 7f3f 1007 7f3f 08c5 7f3f
000000f0: 1ee7 7f3f 90a4 7f3f 122c 803f 9d1e 803f
0.99783087 1.0002981 0.9999049 1.0032674 1.0002092 1.0010816 0.9942669 1.0010825
0.99835855 0.999233 1.0012344 1.0034218 0.99836975 0.99708104 1.0049812 1.0008681
1.0018263 1.0011376 0.9989974 1.0029013 0.99859595 0.99843425 1.0032938 1.0008979
0.99849766 1.000425 1.0055562 0.99872017 1.0033022 0.9989122 0.99978757 1.0003531
1.0004544 0.9962774 1.0020584 1.003841 1.0022779 0.9969666 1.0063628 0.9969508
0.9972034 1.0002438 0.99474454 0.9970432 1.0018115 1.0001197 1.0007553 1.0023572
1.0033823 0.99750817 1.0000287 1.002107 0.9960813 0.9967539 0.99702424 1.0023264
0.9989765 0.9982874 0.9962015 0.9991002 0.9996203 0.9986048 1.0013449 1.0009342

base.mlp.fc1.2.bias f4 [64]
00000000: 6fb3 4ab9 ccf3 02bb add5 803a 29f3 8f3b
00000010: 6181 a93a fead 51bb 1bf1 863b ca74 0e3b
00000020: f1da b63a 31ca ab39 ef40 6fbb c4ac 5a3b
00000030: 80d6 45b9 e86f 5c3a e009 bebb 2ada 4539
00000040: d487 1ebb 734d 06ba 4673 e43a 8ccb 04bb
00000050: baf2 5d3a 4128 94b9 7631 51bb 84c1 373b
00000060: 05a7 393b 7c2b 37bb b6a6 7ebb 4ddb e4b9
00000070: e193 8f3b 74e4 ffba 1d7b 01bb 5a5a 9ab9
00000080: b10d dfba 761a 2d38 5ee0 e6b9 2a1f a73b
00000090: 0581 9fbb afb4 653a 8b1c d73b e38c b6b9
000000a0: b1cc 63ba f990 c73a 3e8a 9739 8fe6 e53a
000000b0: 8384 6e3b 2ca7 323a bb03 cbb9 2a1d 9a3b
000000c0: d7e9 54bb ac6f 033b 0425 063a 7813 8bbb
000000d0: 8ff3 79b9 c052 383a 31d3 03bb f2ff 98ba
000000e0: be6e 9338 9d82 a939 3050 c636 d1b5 713a
000000f0: ab4e 27bb 200c 443b dc30 d7ba 74c0 25bb
-0.00019331065 -0.001998174 0.0009829305 0.0043930006 0.0012932235 -0.0031994577 0.0041180975 0.0021737092
0.0013950748 0.00032766306 -0.003650721 0.0033367136 -0.00018867292 0.00084090093 -0.005799517 0.00018868656
-0.0024189847 -0.0005123235 0.0017429374 -0.0020262925 0.000846665 -0.0002825875 -0.003192035 0.0028038928
0.002832831 -0.0027949503 -0.0038856692 -0.0004365094 0.004381642 -0.001952304 -0.001975722 -0.00029440486
-0.001701763 4.1271058e-05 -0.00044036185 0.0051001506 -0.0048676752 0.00087625807 0.006564682 -0.00034818714
-0.0008689864 0.00152257 0.00028903963 0.0017540025 0.00363949 0.00068150717 -0.00038721957 0.0047031837
-0.0032488012 0.0020055575 0.000511721 -0.004244264 -0.00023837223 0.00070313737 -0.0020114894 -0.0011672957
7.0301336e-05 0.00032331506 5.910195e-06 0.0009220513 -0.0025529067 0.0029914454 -0.001641776 -0.0025291713

base.mlp.fc_h.0.weight f4 [64, 64]
00000000: a0a4 86bd 8ab9 f63d 2998 613d ff1b 35be
00000010: 4b49 423c 120c a4bd f87b 82bd f42b e73d
00000020: 8eeb 28be fb9e acbd 23f7 bcbd 7b63 e3bc
00000030: 0dcf 8abd 827a 91bd 6ab1 93be c227 4c3e
00000040: 98d6 99be 0901 91be 2e3a 6a3e 180f 143e
00000050: c205 cc3d c4ff 6b3e ab00 87bd 95d8 57be
00000060: d40e 0d3d 3187 f73c 3846 9d3b 7bd4 a43e
00000070: c8dd 99bc 7b7e 013e c13d 9e3e 1112 b93e
00000080: d885 e1bd 7ea0 613e 3107 37be f4c9 203e
00000090: 04b7 0b3e 3f1b 3cbe 0aa0 f8bd 662e cd3d
000000a0: 6dde 01bd cd07 f73d cece 82bc 7104 a9bd
000000b0: 0492 eebc 5f44 d83d a832 583e 5f48 30bd
000000c0: b1ce f73c 9c34 14bc 0b13 e0be 845c 4b3b
000000d0: 60b6 533e b26e 91be b189 edbd ef6c b1bd
000000e0: 9cce 0a3e d6e8 873e 9bb2 f33d 55dc 3a3e
000000f0: 2116 dc3e 85ff 9cbe 113b bfbd f899 aebd
00000100: e023 ccbd 11c6 b2bc da0f 06be e886 bd3c
00000110: bba8 e93d 019d a33d 5315 4cbe e343 43bd
00000120: 0765 9abc d3d3 a13d 9866 9cbe c0e1 82bd
00000130: ff58 9a3e 87a3 81be 43d3 08be d2ab 2d3e
00000140: 387c 76bd 2b8b 98bd 649b 2c3e f58f a5be
00000150: 4899 a3bd 75e8 03be 307d 803e 330d 98bb
00000160: 09ec 27be 5b81 2b3e aab0 14be 150b e0bd
00000170: 82e4 31bd dece e5be 53c2 783e 2b2d 893e
00000180: 8554 693d 2d61 e93d 69c5 76bc 731d c9bc
00000190: b544 bd3c 7917 213d 8f78 583d 1dfb e8bc
000001a0: a444 27be 920c 92bd 9bce a7be c6b7 57be
000001b0: 0861 7ebe 8681 ba3e a953 17be 55e5 eebd
000001c0: 2927 90bd 0dd9 273e 773a 963e 5452 8fbd
000001d0: 53af a0be 8b96 803d 4185 07be 88a4 533e
000001e0: c64a a6bd 7642 16be 437b f53d b5d4 48be
000001f0: d5ad 303e b64a 9ebd b4b7 6d3e fed9 7fbe
00000200: a8cf 553e 590a 033e 7154 593e d9cc cfbc
00000210: bbc6 023e c482 293e 715b 7b3d 77c1 b8bd
00000220: cc87 9abd 6c85 99bd 4481 96be f281 67be
00000230: 5101 233e dfc6 d73e 9ce8 5e3e bc28 2dbd
00000240: 3b8d 573c d7a4 043e 0902 96be 73e1 b53d
00000250: 6e84 9b3e 43aa 543e d70a 4dbe cbdb 613d
00000260: e7b3 9b3e a06b b6bd 0402 623e e077 7f3e
00000270: 44d0 37bc d597 883d 4cb8 44be 4793 c83d
00000280: 2695 1dba bc70 64ba 9404 1f3e 4f2e ab3e
00000290: ee5c ae3d eb72 0dbe bb3a 3fbe 205a 0f3e
000002a0: 444c 49bd 9ce0 033e 714f aebe fd2a 423d
000002b0: 0805 44be c1a8 f33d 4741 89be 4ec1 97bc
000002c0: e315 b13b 41e4 01be 0f80 3a3e 14bd 963d
000002d0: 5308 92be ffe2 05be aa0c 8d3d b210 533e
000002e0: d6e1 1abe fc7e 03bd 5426 cc3c 1856 82be
000002f0: eaa2 073e 3353 0bbe 3311 93be 7c0c 00bd
00000300: c7a6 e53d 70a3 bbbe 7d62 f63d 0f5b 90bc
00000310: da06 78bd 696c 8fbe c798 8f3e d3d8 513e
00000320: 2629 06be 13ad 58be 5493 fdbd 6e2b 063f
00000330: e626 583c 619d c73d 663e 9fbd 79c7 07bd
00000340: 96af 453e 14c2 8c3d dad7 90bc affe 5a3e
00000350: 041a 513d 30ab 003e 0044 4cbc 2c90 b8bd
00000360: 4a7a 53be e1bf 5cbc 8cfa 10be 8f26 f4bd
00000370: 6fd0 873c 306e b7be d4b7 073e 29ec 5b3e
00000380: c69e 12bd 0481 8fbe 2b7c 5e3e df81 343d
00000390: 712c b83d 64b3 e7bd df3b 8c3d d9d5 c3bb
000003a0: f5df 10bd 12f0 4dbc acb1 533e 72e0 723e
000003b0: 8806 3cbe 5727 af3c 26b0 893e 16d1 b2be
000003c0: f844 8ebe ac29 45be 0bc7 073d eab7 65bd
000003d0: f583 d63d 6481 71be 1312 7d3e 3e44 b13d
000003e0: e99e 4abe bfc6 38be 03d9 d73d 6f5b 72be
000003f0: 0d6b 4a3c 8f24 26bd 528d 8ebd ebdb 2fbb
-0.065743685 0.120471075 0.05507675 -0.17686461 0.011858295 -0.08010115 -0.063713014 0.1128768
-0.16496107 -0.084287606 -0.09226825 -0.027757397 -0.06777773 -0.07103445 -0.28846294 0.19937041
-0.30046535 -0.28321102 0.22873756 0.14458883 0.09962036 0.23046786 -0.06591924 -0.21078713
0.03443797 0.030215831 0.0047996305 0.3219336 -0.018782511 0.12645905 0.3090649 0.36146596
-0.11011857 0.22033879 -0.17873837 0.15702039 0.13644034 -0.18369769 -0.121399 0.100186154
-0.031706262 0.12062035 -0.015967753 -0.082528 -0.02912236 0.10559916 0.21113074 -0.04303777
0.030249925 -0.009045746 -0.4376453 0.0031030485 0.2067504 -0.28404766 -0.11598528 -0.086633556
0.13555378 0.26544827 0.11899301 0.18248112 0.42985633 -0.30663696 -0.09337438 -0.08525461
-0.0996778 -0.021822961 -0.13091984 0.023135617 0.11409136 0.079889305 -0.1993001 -0.047672164
-0.018847002 0.079017304 -0.30547023 -0.06390715 0.30146024 -0.25320074 -0.1336184 0.16960075
-0.060177058 -0.07448419 0.16856152 -0.32336393 -0.079882205 -0.12881644 0.2509551 -0.0046402453
-0.16398634 0.16748564 -0.14520517 -0.10939614 -0.043430813 -0.4488439 0.24292879 0.26792273
0.05696537 0.11395488 -0.015061715 -0.024550175 0.023104051 0.039329026 0.05284935 -0.028440053
-0.16334778 -0.07131304 -0.32774815 -0.21066198 -0.24841702 0.36426944 -0.14778008 -0.11664835
-0.07038719 0.16391392 0.2934148 -0.06998125 -0.31383762 0.06278714 -0.13234426 0.20668232
-0.08119731 -0.1467379 0.11986401 -0.19612391 0.17253812 -0.07729094 0.23214608 -0.24985501
0.20879996 0.12796916 0.21223618 -0.025366234 0.12771122 0.1655379 0.061366502 -0.090212755
-0.075454324 -0.07496151 -0.29395497 -0.22608164 0.15918471 0.42143914 0.21768421 -0.042275175
0.013156231 0.12953506 -0.29298428 0.08880892 0.30374473 0.20768075 -0.20023666 0.05514125
0.30410692 -0.089072466 0.22071081 0.24948072 -0.011219088 0.06669585 -0.19210929 0.09793716
-0.00060112996 -0.00087143085 0.1552909 0.33433768 0.08513819 -0.13813369 -0.18674748 0.13999224
-0.049145 0.1287865 -0.34044984 0.047404278 -0.19142544 0.11897422 -0.26807615 -0.018524792
0.0054042204 -0.12684728 0.18212913 0.073602825 -0.28521976 -0.13074873 0.06887181 0.20611838
-0.15125212 -0.032103524 0.02492062 -0.2545631 0.1324574 -0.13605957 -0.2872406 -0.031261906
0.11213451 -0.3664813 0.12030504 -0.017621545 -0.06055341 -0.28012398 0.28046247 0.20492868
-0.13101634 -0.21159773 -0.12381616 0.5241002 0.013192868 0.097468145 -0.077755734 -0.033149216
0.19305262 0.06872955 -0.017681051 0.21386217 0.0510502 0.12565303 -0.012467384 -0.090118736
-0.20652118 -0.013473482 -0.14158076 -0.11921417 0.016578881 -0.35826254 0.13253719 0.21476807
-0.03579595 -0.2802812 0.21727054 0.044069167 0.089928515 -0.11313513 0.06847357 -0.0059764204
-0.035369832 -0.012569444 0.20673245 0.23718432 -0.18361866 0.021381063 0.26892203 -0.34925145
-0.27786994 -0.19254178 0.033148807 -0.056083597 0.104743876 -0.23584515 0.24713926 0.08655594
-0.19787182 -0.18044566 0.105394386 -0.23667692 0.012354624 -0.04056221 -0.069605485 -0.0026833962

base.mlp.fc_h.0.bias f4 [64]
00000000: 0000 0000 0000 0000 0000 0000 0000 0000
00000010: 0000 0000 0000 0000 0000 0000 0000 0000
00000020: 0000 0000 0000 0000 0000 0000 0000 0000
00000030: 0000 0000 0000 0000 0000 0000 0000 0000
00000040: 0000 0000 0000 0000 0000 0000 0000 0000
00000050: 0000 0000 0000 0000 0000 0000 0000 0000
00000060: 0000 0000 0000 0000 0000 0000 0000 0000
00000070: 0000 0000 0000 0000 0000 0000 0000 0000
00000080: 0000 0000 0000 0000 0000 0000 0000 0000
00000090: 0000 0000 0000 0000 0000 0000 0000 0000
000000a0: 0000 0000 0000 0000 0000 0000 0000 0000
000000b0: 0000 0000 0000 0000 0000 0000 0000 0000
000000c0: 0000 0000 0000 0000 0000 0000 0000 0000
000000d0: 0000 0000 0000 0000 0000 0000 0000 0000
000000e0: 0000 0000 0000 0000 0000 0000 0000 0000
000000f0: 0000 0000 0000 0000 0000 0000 0000 0000
0.0 0.0 0.0 0.0 0.0 0.0 0.0 0.0
0.0 0.0 0.0 0.0 0.0 0.0 0.0 0.0
0.0 0.0 0.0 0.0 0.0 0.0 0.0 0.0
0.0 0.0 0.0 0.0 0.0 0.0 0.0 0.0
0.0 0.0 0.0 0.0 0.0 0.0 0.0 0.0
0.0 0.0 0.0 0.0 0.0 0.0 0.0 0.0
0.0 0.0 0.0 0.0 0.0 0.0 0.0 0.0
0.0 0.0 0.0 0.0 0.0 0.0 0.0 0.0

base.mlp.fc_h.2.weight f4 [64]
00000000: 0000 803f 0000 803f 0000 803f 0000 803f
00000010: 0000 803f 0000 803f 0000 803f 0000 803f
00000020: 0000 803f 0000 803f 0000 803f 0000 803f
00000030: 0000 803f 0000 803f 0000 803f 0000 803f
00000040: 0000 803f 0000 803f 0000 803f 0000 803f
00000050: 0000 803f 0000 803f 0000 803f 0000 803f
00000060: 0000 803f 0000 803f 0000 803f 0000 803f
00000070: 0000 803f 0000 803f 0000 803f 0000 803f
00000080: 0000 803f 0000 803f 0000 803f 0000 803f
00000090: 0000 803f 0000 803f 0000 803f 0000 803f
000000a0: 0000 803f 0000 803f 0000 803f 0000 803f
000000b0: 0000 803f 0000 803f 0000 803f 0000 803f
000000c0: 0000 803f 0000 803f 0000 803f 0000 803f
000000d0: 0000 803f 0000 803f 0000 803f 0000 803f
000000e0: 0000 803f 0000 803f 0000 803f 0000 803f
000000f0: 0000 803f 0000 803f 0000 803f 0000 803f
1.0 1.0 1.0 1.0 1.0 1.0 1.0 1.0
1.0 1.0 1.0 1.0 1.0 1.0 1.0 1.0
1.0 1.0 1.0 1.0 1.0 1.0 1.0 1.0
1.0 1.0 1.0 1.0 1.0 1.0 1.0 1.0
1.0 1.0 1.0 1.0 1.0 1.0 1.0 1.0
1.0 1.0 1.0 1.0 1.0 1.0 1.0 1.0
1.0 1.0 1.0 1.0 1.0 1.0 1.0 1.0
1.0 1.0 1.0 1.0 1.0 1.0 1.0 1.0

base.mlp.fc_h.2.bias f4 [64]
00000000: 0000 0000 0000 0000 0000 0000 0000 0000
00000010: 0000 0000 0000 0000 0000 0000 0000 0000
00000020: 0000 0000 0000 0000 0000 0000 0000 0000
00000030: 0000 0000 0000 0000 0000 0000 0000 0000
00000040: 0000 0000 0000 0000 0000 0000 0000 0000
00000050: 0000 0000 0000 0000 0000 0000 0000 0000
00000060: 0000 0000 0000 0000 0000 0000 0000 0000
00000070: 0000 0000 0000 0000 0000 0000 0000 0000
00000080: 0000 0000 0000 0000 0000 0000 0000 0000
00000090: 0000 0000 0000 0000 0000 0000 0000 0000
000000a0: 0000 0000 0000 0000 0000 0000 0000 0000
000000b0: 0000 0000 0000 0000 0000 0000 0000 0000
000000c0: 0000 0000 0000 0000 0000 0000 0000 0000
000000d0: 0000 0000 0000 0000 0000 0000 0000 0000
000000e0: 0000 0000 0000 0000 0000 0000 0000 0000
000000f0: 0000 0000 0000 0000 0000 0000 0000 0000
0.0 0.0 0.0 0.0 0.0 0.0 0.0 0.0
0.0 0.0 0.0 0.0 0.0 0.0 0.0 0.0
0.0 0.0 0.0 0.0 0.0 0.0 0.0 0.0
0.0 0.0 0.0 0.0 0.0 0.0 0.0 0.0
0.0 0.0 0.0 0.0 0.0 0.0 0.0 0.0
0.0 0.0 0.0 0.0 0.0 0.0 0.0 0.0
0.0 0.0 0.0 0.0 0.0 0.0 0.0 0.0
0.0 0.0 0.0 0.0 0.0 0.0 0.0 0.0

base.mlp.fc2.0.0.weight f4 [64, 64]
00000000: 7459 83bd c14a f93d 3239 683d 2155 39be
00000010: 4cbf 6a3c 559b 9fbd 4409 73bd 185c e23d
00000020: 4a43 27be e946 b1bd 3daa b9bd a443 ccbc
00000030: e39e 93bd 90c3 8ebd 2273 91be dacf 4d3e
00000040: 7202 99be 9bd9 8ebe f9ac 6e3e dcb7 153e
00000050: 5bc6 d43d e875 703e af51 7dbd da05 5bbe
00000060: 9947 0c3d 1973 f73c a9e9 d03b 7ca8 a53e
00000070: d897 bbbc 180d 033e cc51 a03e 2230 bb3e
00000080: f33e debd e649 5d3e b660 35be ef40 1e3e
00000090: 3f8b 0f3e c075 3abe c287 00be fdbb c43d
000000a0: 5224 ffbc 22a6 ee3d c212 9fbc 036b adbd
000000b0: b0da 07bd 87e2 e03d 38db 593e 7387 38bd
000000c0: d432 0b3d f278 00bc 0dff debe 25b3 9a3b
000000d0: 709e 4f3e 72cd 90be 2a3d f2bd 9e20 aebd
000000e0: 9174 0c3e 513f 883e 243b ef3d 1684 3c3e
000000f0: 6488 da3e 3c0c 9cbe 3713 bbbd ac4a abbd
00000100: c005 cfbd a71f bebc 61f1 03be b9f8 b13c
00000110: c097 ec3d 459d a63d 15ec 4abe 32a6 3dbd
00000120: a483 a3bc 968a a43d d087 99be 7f65 80bd
00000130: afc6 993e 7ee7 80be 179b 07be 5c40 2c3e
00000140: f730 7cbd a0de 95bd 01b8 2d3e 4ea7 a4be
00000150: 7482 a1bd 8fa4 02be 232d 813e df00 b6bb
00000160: e677 26be 1e94 2d3e 1100 16be 4472 dbbd
00000170: 5392 37bd 3310 e5be 9b23 7a3e ffda 893e
00000180: c79d 663d 7797 ec3d ee7d 86bc 12b6 bdbc
00000190: 2b41 c73c b37e 1b3d c8d6 523d 547a dcbc
000001a0: 14c1 25be acc7 94bd 5214 a7be 855d 56be
000001b0: d0b4 7fbe 7c2c bb3e 9c89 13be dd4c ecbd
000001c0: 524c 8dbd 82b2 263e 75fa 963e 0ae8 87bd
000001d0: 66ee 9fbe e6b8 7b3d 3a25 06be f35f 523e
000001e0: 9923 a9bd 6c19 15be fd1c f83d 1820 4abe
000001f0: d420 323e b093 9bbd be3b 6f3e b895 80be
00000200: e8bd 593e 7af8 063e a942 5d3e 15d9 d5bc
00000210: 3a23 063e b62f 2d3e e4ad 7c3d e230 c0bd
00000220: 92ab 92bd 7d4b a1bd 338a 94be a995 6bbe
00000230: 87ef 263e cb23 d73e c956 5f3e fe6f 1dbd
00000240: 2237 8b3c cd4c 053e e0e2 95be 88bd bd3d
00000250: e993 9b3e 492c 553e 2649 4cbe 04c9 5e3d
00000260: 037f 9a3e 2e8f aebd 1cf0 653e fab2 813e
00000270: 9452 44bc 59be 8f3d 5ef3 43be 39ff c93d
00000280: f82b 543b 60fa 423b b5f2 223e eb66 a93e
00000290: e752 af3d aa84 09be 2b03 40be a44d 133e
000002a0: 74e5 4bbd b918 033e c6eb acbe cd5b 323d
000002b0: 72bb 44be a7f8 f43d 324a 87be 9360 b7bc
000002c0: b220 d33b 3973 02be 4f37 3e3e 2199 9e3d
000002d0: 712b 90be 35f8 04be cf45 853d d4fe 563e
000002e0: a0f3 16be 4ed7 13bd b757 ac3c fe5e 80be
000002f0: acc9 093e 3637 0fbe 412f 91be 07a8 e0bc
00000300: fab2 da3d 7d55 bebe 557e eb3d 308c 57bc
00000310: 4b1f 86bd fc08 92be d2a9 8d3e e120 573e
00000320: 9da3 0bbe 2b58 53be 8144 04be f8d0 063f
00000330: 7947 7a3c 3889 c83d 4334 a7bd 6db0 1dbd
00000340: afe0 403e c13d 843d 7509 afbc 4249 573e
00000350: 6d86 423d 3e31 f93d 5927 89bc d6c8 b3bd
00000360: ebc5 51be 52a3 88bc 7076 16be a61b ffbd
00000370: cfe5 ac3c dbb9 b9be 7653 033e cc98 573e
00000380: 4686 28bd 4432 8ebe 1ccd 5a3e 0f26 4a3d
00000390: d76f b23d dea6 f2bd 1083 953d 0401 55bb
000003a0: 1749 20bd 1030 13bc edf9 563e 1e2e 783e
000003b0: 1b85 37be 5c16 8d3c 8ff8 863e fae4 afbe
000003c0: 6895 90be 218c 48be 828e e53c b97b 74bd
000003d0: 5163 dc3d deac 74be b971 803e 734f a63d
000003e0: 2319 50be 59b6 33be 2cfd e13d 6ed5 77be
000003f0: 0c6d 723c cc9c 1ebd ba24 99bd 7c53 03bc
-0.06413546 0.12172461 0.05669517 -0.1809888 0.014327835 -0.07793299 -0.05933501 0.11052722
-0.16334262 -0.08656103 -0.090656735 -0.024934597 -0.072080396 -0.06970894 -0.28408152 0.2009882
-0.29884678 -0.27900395 0.23308171 0.14620918 0.10389396 0.23482478 -0.061845478 -0.21388951
0.03424797 0.03020625 0.0063755107 0.32355106 -0.022899553 0.12797964 0.31312406 0.3656016
-0.1085185 0.21610221 -0.17712674 0.15454458 0.14017962 -0.1820898 -0.12551787 0.096061684
-0.031145249 0.11652781 -0.019418124 -0.084676765 -0.03316754 0.10980707 0.21275032 -0.04505105
0.03398402 -0.007841336 -0.43553963 0.0047210627 0.20275283 -0.28281742 -0.11828072 -0.08502315
0.13716342 0.26610807 0.11681202 0.18409762 0.42682183 -0.30478084 -0.09134524 -0.08363852
-0.101085186 -0.023208452 -0.12885047 0.021725046 0.115523815 0.081354655 -0.1981662 -0.046301074
-0.019960232 0.08034246 -0.2998643 -0.06269359 0.30034396 -0.25176615 -0.13242756 0.16821426
-0.061570134 -0.07317853 0.16964723 -0.32158893 -0.0788621 -0.12758087 0.2522975 -0.005554303
-0.16256675 0.16951033 -0.14648463 -0.10715154 -0.04481728 -0.44738922 0.24427645 0.26924893
0.056302812 0.11552327 -0.01641747 -0.023158107 0.024323067 0.037962627 0.051474363 -0.0269138
-0.16186935 -0.07264647 -0.3263269 -0.20934112 -0.24971318 0.36557376 -0.14407963 -0.11538098
-0.068993226 0.16279033 0.2948796 -0.06636055 -0.3123657 0.06145563 -0.13100138 0.20544414
-0.08258743 -0.14560479 0.12114904 -0.19738805 0.17395335 -0.075965285 0.23362634 -0.25114226
0.2126385 0.13180724 0.2160746 -0.02610449 0.13099375 0.16912732 0.061689273 -0.09384324
-0.07161631 -0.07875726 -0.29011688 -0.2300631 0.1630231 0.42019495 0.2181045 -0.038436882
0.016994063 0.13017578 -0.29274654 0.09264666 0.30386284 0.20817675 -0.19949779 0.054390922
0.30175027 -0.08523403 0.22454876 0.2533186 -0.011982579 0.07018728 -0.19135806 0.09863133
0.003237484 0.0029751286 0.15912898 0.33086333 0.08560734 -0.13429514 -0.18751208 0.14385086
-0.04977937 0.128024 -0.3377363 0.04354458 -0.1921213 0.11961489 -0.26423794 -0.022384917
0.0064431066 -0.12739266 0.18575786 0.07744051 -0.28158143 -0.12985308 0.065074556 0.20995647
-0.14741373 -0.036094002 0.02103792 -0.25072473 0.13455838 -0.13985905 -0.28356364 -0.027423872
0.10678668 -0.37174597 0.11498705 -0.013155982 -0.065489374 -0.2852248 0.27668625 0.21008636
-0.13636632 -0.20639102 -0.12916757 0.5266261 0.0152758295 0.097917974 -0.08164265 -0.03849833
0.1883571 0.06457091 -0.021366814 0.2102404 0.04749148 0.12167595 -0.016742395 -0.08778541
-0.20485656 -0.01667944 -0.14693618 -0.124564454 0.021105675 -0.3627461 0.12824807 0.21054381
-0.041143678 -0.27772725 0.21367306 0.0493527 0.08712738 -0.11848234 0.07300389 -0.0032501826
-0.039132204 -0.008983627 0.20993777 0.24236342 -0.1792187 0.017222576 0.2636151 -0.34354383
-0.28238988 -0.19584705 0.028022055 -0.059688304 0.107611306 -0.23894069 0.25086764 0.081206225
-0.20322089 -0.17550029 0.11034617 -0.2420251 0.014796507 -0.038723752 -0.07477708 -0.00801551

base.mlp.fc2.0.0.bias f4 [64]
00000000: 944a 24bb d37d c7ba 7699 7bbb 7fcd ae3b
00000010: c8e7 433b 0777 723b e23c af3b 69c0 5bbb
00000020: e12e 1e3c 524f cdba acac 66bb 0a7c 533a
00000030: ce0e 09bb 5c18 de3a b331 5aba 4972 4dbb
00000040: 43f2 2b3b 0000 0000 06c0 f6b9 dc23 22bb
00000050: f587 a83b f215 baba 22ea 96bb aec0 533b
00000060: 8c84 3c39 2043 37ba aa98 b8ba ecba 443a
00000070: 588d 29ba 0a6b b83a ace9 29bb 1e30 dfba
00000080: 5a21 a5ba 0cd5 283b f1a9 c43a da3c 39bb
00000090: 0000 0000 7684 19b9 f63a 37bb 74ed 9939
000000a0: c769 33bb 916c 65bb da1a 713a f1f7 38bb
000000b0: b9e1 57ba f65c 38bb a69a 1f3b ab3a c5ba
000000c0: 4ebc 23bb 76b3 2fbb e70c e93a e241 b6ba
000000d0: f77c 5a3a b8ea 95bb 6416 5f3a 98eb 44bb
000000e0: 5f7f 94ba 6e05 80bb bd8f 193b 8f92 faba
000000f0: 91b3 173b 181b a93b a741 fbba 9680 bd3a
-0.0025068866 -0.0015219994 -0.003839103 0.0053345556 0.002989279 0.0036997215 0.005347834 -0.0033531433
0.0096547315 -0.0015663898 -0.0035198135 0.00080674945 -0.0020913365 0.0016944516 -0.0008323446 -0.0031348637
0.0026236929 0.0 -0.00047063845 -0.0024740612 0.0051431605 -0.0014197214 -0.0046055475 0.003231089
0.00017978455 -0.00069908984 -0.0014083583 0.000750466 -0.00064679 0.0014069986 -0.0025926633 -0.001702789
-0.001259844 0.0025761751 0.001500426 -0.002826503 0.0 -0.00014640563 -0.0027958727 0.0002935935
-0.002737628 -0.0035007338 0.00091974216 -0.0028223956 -0.00082352344 -0.002813158 0.0024353652 -0.0015047392
-0.0024984065 -0.0026809848 0.0017780334 -0.0013905133 0.0008334661 -0.0045751 0.00085101114 -0.0030047651
-0.0011329463 -0.0039068973 0.0023431622 -0.0019117164 0.0023147801 0.0051607005 -0.0019169346 0.0014457877

base.mlp.fc2.0.2.weight f4 [64]
00000000: d6b3 7f3f b7b3 7f3f 1ec7 7f3f 240b 803f
00000010: 2302 803f 2d82 7f3f 1a6b 7f3f 789f 7f3f
00000020: 99ee 7f3f b9ce 7f3f bb72 7f3f b1e1 7e3f
00000030: cbcc 7f3f eb15 803f 0bcf 7f3f 6fc2 7f3f
00000040: fda4 7f3f e115 803f 6b14 803f 4378 7f3f
00000050: b00d 803f baaf 7f3f 0a80 7f3f cdab 7f3f
00000060: a497 7f3f 54ba 7f3f 69e3 7f3f ff30 803f
00000070: 1a90 7f3f ae00 803f b3c6 7f3f 51e8 7e3f
00000080: 6b2f 803f 6739 7f3f 4019 803f 07bb 7f3f
00000090: b802 803f b4ec 7e3f c37c 7f3f 7c5f 7f3f
000000a0: 72d0 7f3f 2d7d 7f3f 9bd2 7f3f 3f16 803f
000000b0: 11b7 7f3f ce14 803f 9425 803f 449f 7f3f
000000c0: d70f 803f c5ce 7f3f 5f76 7f3f 977b 7f3f
000000d0: c733 803f 83c0 7f3f 8f43 803f 7d81 7f3f
000000e0: 6d8b 7f3f d479 7f3f 82fc 7f3f 15cb 7f3f
000000f0: 08b0 7f3f 1182 7f3f 2d60 7f3f 4ee8 7e3f
0.9988378 0.998836 0.99913204 1.00034 1.0000652 0.9980801 0.997728 0.99852705
0.99973446 0.9992481 0.9978444 0.9956313 0.99921864 1.0006689 0.999253 0.9990606
0.9986113 1.0006677 1.0006231 0.9979288 1.0004177 0.9987751 0.9980475 0.9987152
0.9984076 0.9989369 0.99956375 1.0014952 0.99829257 1.0000207 0.99912566 0.99573237
1.0014471 0.99696964 1.0007706 0.99894756 1.000083 0.9957993 0.99799746 0.9975507
0.9992744 0.9980038 0.99930733 1.0006789 0.9988871 1.0006349 1.0011468 0.99852395
1.0004834 0.9992488 0.99789995 0.9979796 1.0015801 0.99903125 1.0020617 0.9980696
0.9982212 0.9979527 0.9999467 0.99919254 0.9987798 0.9980784 0.9975613 0.9957322

base.mlp.fc2.0.2.bias f4 [64]
00000000: 00ac 6a3b fcb0 69bb e861 69bb 1aca 67bb
00000010: d419 6bbb bee8 6abb 79a9 663b 8857 68bb
00000020: 841c 6ebb 4e81 67bb 5917 6abb 3ebb 693b
00000030: 64bd 68bb db76 6a3b e153 69bb e2f1 68bb
00000040: c39b 683b 7cb3 6a3b 81cb 6c3b 6a90 693b
00000050: ca03 603b 8f46 69bb 535c d73a c780 5fbb
00000060: 5aeb 68bb eab7 69bb ca96 64bb b72d 6a3b
00000070: 133c 6a3b f793 6a3b ac45 67bb 4b4c 69bb
00000080: 451a 6a3b 2cd0 69bb e1b4 6a3b 3c54 6a3b
00000090: 2a85 6e3b a098 693b fbd1 69bb 018c 69bb
000000a0: 22d2 69bb cb7c 69bb 8046 67bb 3398 6a3b
000000b0: 321a 68bb 4cc8 6a3b c314 68bb ba59 69bb
000000c0: c08c 6a3b 53ae 69bb 4072 6abb 4635 69bb
000000d0: 190a 6a3b 1f15 68bb 8d40 693b 7c2c 69bb
000000e0: 23f9 69bb 9b27 69bb 64c2 6abb 5c0b 47bb
000000f0: 502d 6abb 4d51 673b 622b 6a3b 2e2b 693b
0.0035808086 -0.003565847 -0.0035611335 -0.0035368265 -0.003587355 -0.0035844292 0.0035196228 -0.0035452563
-0.0036332915 -0.0035324874 -0.0035719483 0.0035664584 -0.0035513276 0.003577641 -0.0035602974 -0.0035544564
0.0035493232 0.0035812547 0.003613204 0.0035639056 0.0034181946 -0.0035595035 0.0016430713 -0.0034103857
-0.003554067 -0.00356626 -0.0034879916 0.0035732815 0.0035741373 0.003579376 -0.003528933 -0.0035598453
0.0035721224 -0.0035677059 0.0035813379 0.0035755774 0.003639529 0.003564395 -0.0035678137 -0.0035636427
-0.0035678227 -0.003562736 -0.0035289824 0.0035796284 -0.0035416004 0.0035824953 -0.0035412766 -0.003560646
0.003578946 -0.0035656884 -0.0035773665 -0.0035584732 0.0035711585 -0.003541298 0.0035591454 -0.0035579493
-0.0035701476 -0.0035576585 -0.0035821432 -0.003037176 -0.0035732575 0.0035296262 0.0035731425 0.0035578716

v_out.weight f4 [1, 64]
00000000: 97c0 dbbc 5df2 7f3e bb19 203e c458 4b3d
00000010: d1d7 603d 0071 303d 6f15 27bd c4d2 8b3d
00000020: 23e5 603c 0ef8 4a3d c064 7d3e bc3f a6bd
00000030: 42c4 b53d f0e8 5bbe ccce 0e3e 44ed d63d
00000040: 3e92 a5bd 33bc cdbd 66c1 78bc f749 c9bd
00000050: 1d6f 5ebc 6abd 153e 3906 c037 932f 143c
00000060: 72b2 5b3d e06d 543e 5aec cb3c d3cd 2fbe
00000070: 8870 37be ad41 f0bd 3dae 3b3d a383 7e3d
00000080: e1a0 b7bd b484 cb3d 50bf e2bd 227c 34be
00000090: 4e84 e4bb 2678 32be c168 bf3d 71eb 943d
000000a0: 454d a03e 6cec bb3d 7039 3d3d 6eb8 08be
000000b0: 2f94 863d ed06 aebd d47d 413d 7bf4 ff3d
000000c0: 66d8 14be 8fab 713e 6f73 453e b3a9 9a3d
000000d0: 50aa 5cbe b605 813d 3331 b3bd 439b 0c3e
000000e0: 2e46 093e afd7 ed3d 9d49 b93d 0f3e 8b3b
000000f0: 9f89 e03d 5931 37bd 0c7b 3dbe c5fb b9bd
-0.026825232 0.24994798 0.15634815 0.0496452 0.05489332 0.043076515 -0.040791925 0.0682731
0.013726505 0.04955297 0.24745464 -0.08117625 0.08875324 -0.21475577 0.13946074 0.104944736
-0.08084534 -0.10045662 -0.0151828285 -0.09828561 -0.013576296 0.14623037 2.2891081e-05 0.009044546
0.053636976 0.20745039 0.024892975 -0.1716836 -0.17914021 -0.11731277 0.045820463 0.062137257
-0.08966232 0.099374205 -0.11071646 -0.17625478 -0.0069737798 -0.17428645 0.09346152 0.072714694
0.31308952 0.09175953 0.046197355 -0.13351604 0.065712325 -0.08497415 0.04723914 0.12497803
-0.14535674 0.236006 0.19282316 0.07551899 -0.21549344 0.062999174 -0.087496184 0.13731103
0.13405678 0.11613404 0.09047244 0.0042493413 0.10963749 -0.044724796 -0.1850397 -0.09081224
