results/MyEnv/MyEnv/mappo/check/run10/models/actor.pt (torch, 44853 bytes, 16 tensors)

base.feature_norm.weight f4 [14]
00000000: 06ec 823f 4c65 693f e785 6d3f 7cbb 6e3f
00000010: f8dd 883f 8db3 833f ff82 803f fa27 873f
00000020: 8b8d 743f ee2a 783f ebf5 703f 7cd4 863f
00000030: d31d 6c3f 32fc 893f
1.0228279 0.9117019 0.92782444 0.9325483 1.069274 1.028917 1.0039977 1.0559075
0.9552848 0.96940506 0.9412524 1.0533595 0.9223301 1.0780089

base.feature_norm.bias f4 [14]
00000000: 31f9 cd3c d31b 043d ede5 9f3c c3de 003d
00000010: fd5f 53bd 00f4 58bb 9749 06bc 0637 febc
00000020: 279a b33d e136 a9bc e39b 283b 95a1 d83c
00000030: 6943 8dbc a90e c9bc
0.025143238 0.032253098 0.019518817 0.031462442 -0.051605213 -0.003310442 -0.008196256 -0.031032097
0.087696366 -0.020656051 0.0025727681 0.026444236 -0.017244058 -0.024543123

base.mlp.fc1.0.weight f4 [64, 14]
00000000: a1ac 563e 815c c4ba c51e a73c 0579 aabd
00000010: 36a2 62bd f06b 9bbe 3768 5dbe 542c 473e
00000020: 9cad 64be baeb 01bd 0658 c8bc 25e9 c33d
00000030: 9f84 cc3e ae28 ab3e 859e e03d 840d 1b3c
00000040: 7d7d 4f3e 98c0 86bd 8398 7cbd 0ea0 973e
00000050: 5078 2d3e 54b2 eb3d e437 14be f925 413e
00000060: 2e33 fc3d eb79 fcbc 0d23 cd3e 26cf 8cbe
00000070: 72cb c93c c7a5 973e b92a acbd 7cdc 7fbd
00000080: 6fdb 88be d1c6 d3bc 3c22 c43d 8027 2cbd
00000090: 7104 50be 6609 f3bc 578d 35bc 5996 2ebd
000000a0: 9e78 203e 617a fc3c 0b96 0e3e a4ec 023f
000000b0: d100 f23d 24d7 7dbc 954f 13be 2eb6 133e
000000c0: 0a26 13bd 16ce ee3c bc46 bebe cbfe 923e
000000d0: 3e41 b53e 9235 66be ed6e ed3a c9e4 0ebc
000000e0: e5c4 e8bd b27a eb3c 082a aabd d781 9c3e
000000f0: cf1e 16be 39d7 a93c 1830 723e 32c6 1d3e
00000100: df48 513e 893c ffbd 5053 e03d 4961 5ebe
00000110: 8298 6e3d 182c c3bd 8606 d73d ecac 16be
00000120: 710e 21be 5daf 5ebe 1d82 8cbe f9b2 213e
00000130: 2bde 5c3d 0bb5 35be 8c20 b13e 85e5 953c
00000140: 93b7 00be 9f6d d2be 5fb4 64bc 11d3 5c3e
00000150: 5cf4 9a3e 869b 9ebe ef0b 163c 21df 7ebe
00000160: 91be 183d ff62 123c bbcb d23c 2959 823e
00000170: ffd8 dabd 0450 9cbd c658 79be 1fbe 92bb
00000180: c320 1e3e 4ec4 5cbe 22bb 833c a22a 2c3e
00000190: 9a9c 903e 4150 46be ca7a df3d 4f09 713e
000001a0: de2c 5dbb 9077 b73c e3ee 7fbd 86c5 303e
000001b0: cf73 b2bd 18ca ee3d 259b 713d f0fc 05be
000001c0: 5b47 813d 8c96 ffbd 1522 1e3d 4d5a a6bb
000001d0: acfe 063e 6d30 b4be 35d1 903d 1512 943e
000001e0: fb18 bfbd 9bf4 68bd a727 0c3e b6bf 03be
000001f0: e513 5ebe b26d 4cbd 0fc9 c83d ec99 013e
00000200: 9f35 053e 9617 aabe 4be2 53be 80f5 8cbe
00000210: 120d 993d b07a 09bd c6b6 ff3d 747d 5bbe
00000220: 895d 583e 8b84 9d3d 3e37 103d 12c1 d33d
00000230: 346f d1bd e834 8dbd 0293 833e 65dd 053e
00000240: 6de8 fa3d cf4b 74be 36da bbbe 5c96 9c3e
00000250: 1d82 253e 01a9 763e fd60 29bd 9529 a1bd
00000260: 148d d8bc 0189 34be 3b26 f8bc 2783 0dbd
00000270: fcea a33e 7072 513d adc4 e13d b020 fabd
00000280: 68cb 103e aef7 51be 9ebe da3d 1e00 003e
00000290: 33b7 0a3e 2a4f 353e dedf 443e 77ed f9bd
000002a0: 4e85 7c3e db33 8abe ceb3 9fbe 738c 80be
000002b0: 07fa 8c3c bd0d 89bd c693 993d 4004 303e
000002c0: c29e b4be 6587 a6bd 230d 433e a119 b9bd
000002d0: 8650 11be 7b16 8d3e f70d cd3e 529b ecbd
000002e0: d6cb 00be bb97 083e 5857 063e d51d a63e
000002f0: d089 1abe 2edd 813e 0689 f23e 73a9 3bbd
00000300: f2bb ef3d f407 cc3d 8f45 ed3d 0e78 d4bc
00000310: 82b0 6ebe 01c5 f33d 99a6 823d ad7e c63c
00000320: eaed 043e 155c 3bbe 0339 6ebd bc8d 603e
00000330: 2b50 b83e 7e46 573c ec7a db3d 6482 71be
00000340: b7dd ecbc 675b 9d3d bd9a 4abe af87 2b3d
00000350: 8f05 a23e ba88 493e 1951 65bd 7b89 65bc
00000360: 7035 bfbd 1fd3 70bd ee92 713d 0f65 7f3b
00000370: b825 bc3d 30cf d1bd 6896 73be 4997 a9bc
00000380: 21c3 3bbe 1e92 a2bd e5bc 77be 9253 373e
00000390: 8ee8 e53c 2593 b5bd 6882 9ebe 3b8c bfbd
000003a0: 803a 8b3a b6a5 d23e d90c 4ebe 0341 94bd
000003b0: a624 4dbe 77ac da3b 2a5b a63e fdb8 9dbe
000003c0: 3e81 3e3e 9e48 c23e 4a68 d33d 6809 f3bd
000003d0: 512d 3e3d aae3 21bd cc57 95bd 8635 7ebc
000003e0: 89ae 9f3e 636c 1c3e 1acd 89be 254c 373d
000003f0: 062e 263e faf9 acbc 0d0f 33be 1df6 a6be
0.2096429 -0.0014981182 0.020400414 -0.08323864 -0.055330478 -0.30355787 -0.21621786 0.19450504
-0.22331852 -0.031718947 -0.024456035 0.09565953 0.39944932 0.33429474 0.10967735 0.009463672
0.20262714 -0.06579703 -0.061668884 0.296143 0.16940427 0.11508623 -0.14474446 0.18862142
0.12314449 -0.030819854 0.40065804 -0.27501792 0.024633143 0.29618666 -0.08406586 -0.06246613
-0.26729915 -0.025851639 0.09576842 -0.042029858 -0.20314194 -0.029667567 -0.011081061 -0.04262385
0.15671012 0.030820074 0.13924424 0.51142335 0.11816562 -0.015493188 -0.14385827 0.14424965
-0.03592495 0.029151004 -0.3716334 0.28710017 0.35401338 -0.22481373 0.0018114723 -0.008721539
-0.1136568 0.02874503 -0.08308798 0.3056781 -0.1466019 0.020732509 0.23651159 0.15407637
0.20437954 -0.12462718 0.109533906 -0.21716799 0.05825091 -0.095298946 0.10499291 -0.14714402
-0.15728165 -0.21746583 -0.2744302 0.15790929 0.053922813 -0.17744844 0.34595144 0.01829792
-0.12570028 -0.4109926 -0.013959019 0.2156489 0.30264556 -0.3097803 0.009158119 -0.24889804
0.037291113 0.008934735 0.025731912 0.2545865 -0.1068592 -0.07632449 -0.2435027 -0.0044782306
0.15442185 -0.2155926 0.016080443 0.16813138 0.28244478 -0.19366552 0.10912092 0.23538707
-0.0033748667 0.022395879 -0.06248368 0.17262849 -0.08713495 0.1165964 0.058985848 -0.13084769
0.06312438 -0.124798864 0.038606722 -0.0050766827 0.13183087 -0.35193196 0.07071153 0.28920045
-0.093309365 -0.0568739 0.13687001 -0.128661 -0.21687277 -0.0499093 0.09803974 0.12656373
0.13008736 -0.3322112 -0.20691793 -0.27531052 0.07473196 -0.03356427 0.12486033 -0.21434575
0.21129431 0.07691296 0.035208933 0.103395596 -0.102262884 -0.06894857 0.25698096 0.13072737
0.12251363 -0.23857044 -0.3668992 0.30583465 0.16162916 0.24087907 -0.04135226 -0.07869259
-0.026434459 -0.17630388 -0.030291667 -0.034548905 0.32015216 0.051134527 0.11023841 -0.12213266
0.14140093 -0.20504639 0.106808886 0.12500045 0.13546447 0.1770598 0.19226024 -0.12203496
0.24660227 -0.26992688 -0.31191868 -0.25107154 0.017209066 -0.066920735 0.07498889 0.17189121
-0.35277373 -0.08131293 0.1904798 -0.090380915 -0.14190874 0.27556214 0.40049717 -0.115530625
-0.12577757 0.1333913 0.13119256 0.32444635 -0.15091634 0.2536406 0.47370166 -0.045815896
0.117057696 0.099624544 0.11585533 -0.025936153 -0.2330952 0.1190281 0.06379432 0.024230326
0.12981382 -0.18296845 -0.05815984 0.21929067 0.35998663 0.013139365 0.10716805 -0.23584896
-0.028914316 0.07683449 -0.1978559 0.041877445 0.31644866 0.19681063 -0.055985544 -0.014009829
-0.09336364 -0.05879509 0.058978014 0.0038970148 0.09186882 -0.10244596 -0.23787844 -0.020702021
-0.18336155 -0.07938026 -0.24193151 0.17902973 0.028064992 -0.08865956 -0.30958867 -0.09352919
0.0010622293 0.41142052 -0.20122088 -0.072389625 -0.20033512 0.0066733914 0.32491428 -0.30805197
0.1860399 0.37946028 0.10322626 -0.118670285 0.046429936 -0.039523758 -0.072921365 -0.015515691
0.31187847 0.15275721 -0.26914293 0.04475035 0.16228494 -0.021115292 -0.1748621 -0.32609645

base.mlp.fc1.0.bias f4 [64]
00000000: c1db 733c 28a2 453d 8731 143c 8827 d53c
00000010: 3359 503c b0db 8cbc 4561 38bd 649c cd3b
00000020: 0bfe 61bd 0afd b1bc c4da 983d ca66 0fbd
00000030: 886f 27bc f523 3ebc 0760 2e3d adbc ad3d
00000040: 8f9a c3bc 8b6b 263b d648 e53c e2cd fcbc
00000050: bb06 f5bc 8546 0c3d 19e8 4e3d 74c9 cf3c
00000060: 8d5c 35bc db72 4e3c 13d0 c73c df18 953d
00000070: 75c1 97bb 3d42 8b3b 585c ab3d f5ce da3c
00000080: 2fbb aa3b 57a0 3cbd f190 7a3d 7e17 713c
00000090: 4e25 dabc 0280 00bd e94d 4bbd a8bf 973c
000000a0: 8699 3d3c 38cb 15bd c994 dbbc 37c6 363c
000000b0: 8a2e 0b3c 0046 93bc eb40 44bd 13f0 bdbc
000000c0: b927 473d ed00 623d a382 c03c 43ab e03b
000000d0: a688 133c 51c7 39bc 4203 9ebc 96f7 203b
000000e0: 6cd2 1e3a dedc 7c3d 5b89 8b3c 0eda 0ebc
000000f0: b3e0 4aba 497c 4e3d 409b 55bd 5fc4 ddbc
0.014883936 0.048250347 0.009045011 0.026019827 0.012716579 -0.017194599 -0.04501464 0.0062747467
-0.055173915 -0.021727104 0.07463601 -0.035010137 -0.010219462 -0.0116052525 0.042572048 0.08483253
-0.02387741 0.002539369 0.027988832 -0.030859891 -0.029910436 0.03424694 0.050514314 0.025364615
-0.011069429 0.012600626 0.02439121 0.072801344 -0.004631216 0.0042498396 0.083672225 0.026710013
0.0052103023 -0.04605135 0.061173383 0.014715074 -0.026629116 -0.031372078 -0.049634848 0.018524006
0.011572247 -0.036570758 -0.026804345 0.011155657 0.0084949825 -0.017977715 -0.047913473 -0.023185765
0.048621867 0.055176664 0.023499792 0.0068563535 0.0090047475 -0.011339025 -0.019288663 0.0024561635
0.0006058577 0.061734073 0.01703327 -0.0087189805 -0.0007739171 0.050411496 -0.05215001 -0.027071176

base.mlp.fc1.2.weight f4 [64]
00000000: c822 853f 1438 823f fc78 7b3f 33a4 7f3f
00000010: 1256 823f 7efa 843f 28e1 843f dc9f 803f
00000020: 276d 743f 12dc 803f 8c54 853f 3ffb 723f
00000030: 7f78 773f d30c 773f 97d7 883f f833 783f
00000040: 003a 7a3f 0a25 7e3f f852 803f 08a3 803f
00000050: 7946 783f 2db5 793f b824 833f f9f4 7c3f
00000060: d0cf 803f 4614 7c3f 9f9c 773f bc43 893f
00000070: f3c1 7d3f 69c8 7d3f 4fb5 853f 5201 8a3f
00000080: f256 6f3f bc1f 803f e4b1 753f 219e 863f
00000090: bc64 803f 6eac 6f3f 5749 7b3f e8ce 793f
000000a0: 757c 803f ee03 823f ed36 803f 3773 783f
000000b0: e912 7a3f 4484 7d3f 77af 7e3f 162f 813f
000000c0: 0850 823f 0298 833f 1e9b 833f ba67 843f
000000d0: 3e96 7e3f 57f9 7a3f 59cc 813f 57c1 803f
000000e0: 4806 803f 3e1a 863f c8f5 803f f955 723f
000000f0: c16b 803f 5fcc 803f 1685 763f 9082 733f
1.0401239 1.0173364 0.9823148 0.99859923 1.0182517 1.0388944 1.0381212 1.0048785
0.95479053 1.006716 1.0416427 0.9491462 0.9666824 0.96503943 1.0690793 0.969543
0.9774475 0.9927527 1.002532 1.0049753 0.9698253 0.9754208 1.0245581 0.988113
1.0063419 0.98468435 0.9672336 1.0723796 0.9912407 0.99133927 1.0445956 1.0781653
0.93492043 1.0009685 0.95974565 1.0517007 1.0030742 0.9362248 0.9815878 0.9758134
1.0037981 1.0157449 1.0016762 0.97050804 0.97685105 0.99029946 0.9948649 1.0092494
1.0180674 1.0280764 1.0281713 1.0344155 0.99448 0.9803671 1.0140487 1.0059003
1.0001917 1.0476758 1.0075006 0.94662434 1.0032884 1.0062369 0.96296823 0.951211

base.mlp.fc1.2.bias f4 [64]
00000000: 5ee6 ab3c c6c2 293d 60df 453c 9d46 e43c
00000010: b1dd 203c 8b32 9bbc 51c9 9bbd 56c5 083c
00000020: b7b0 67bd 8f16 d23c 9643 38bb d2e8 cdbc
00000030: 5e98 8ebc 73d4 0c3d 8772 e03b 98c9 853d
00000040: 23a4 fbbc f8b5 343d fe13 cc3c f2e8 79ba
00000050: 44cf 083b 1812 ce3c 64f7 763d e785 fc3c
00000060: 8920 3cbd 4444 bb3c c192 1c3d 27c1 a53c
00000070: c073 c93c 243d 8bbc 0a77 ae3c 7f02 1bbc
00000080: c44e a23c 3a11 cabc ba11 213d f208 49bd
00000090: 0bee 30bd 66af ea3c adc5 77bd 74c9 933c
000000a0: 02d8 7a3c e843 06bd f556 ecbc 5f65 183d
000000b0: c16c f53c d6fd 80bd ce44 7fbd a544 07bc
000000c0: 0b7c 1c3d e3fa 893d cc1b 7dbc e3c2 12bd
000000d0: d762 7c3d b062 0bbd 76ee ccbc 2628 873c
000000e0: dbea ad3b 6af5 103d 685e fc3b fa19 2c3c
000000f0: 978e 25bd 751f d63c eb96 90bd 51d5 04bb
0.020983871 0.041445516 0.0120771825 0.027865702 0.00981848 -0.018945 -0.076067574 0.00834783
-0.056565013 0.025645522 -0.0028116456 -0.025135431 -0.017406639 0.034382295 0.00684959 0.065325916
-0.030717915 0.04411885 0.024911877 -0.0009533308 0.0020875493 0.025155112 0.060294524 0.030825568
-0.045929465 0.0228597 0.038225893 0.020233704 0.024591327 -0.016996928 0.021296997 -0.009461044
0.019812949 -0.024666417 0.039323546 -0.049080797 -0.043195765 0.02864809 -0.060491253 0.018040396
0.015310289 -0.032779604 -0.028850058 0.03720605 0.029959084 -0.06298415 -0.062321477 -0.008256112
0.038204234 0.06737306 -0.015448522 -0.03583039 0.0616177 -0.034029663 -0.02501605 0.016498636
0.005307538 0.035390295 0.007701684 0.01050424 -0.040419187 0.026138047 -0.07060035 -0.0020268748

base.mlp.fc_h.0.weight f4 [64, 64]
00000000: 2de0 39be 5942 20be b57f e63b da3e 2d3e
00000010: a27a 00be 7cdd 27be d96b 80be 1f8f b63d
00000020: 97cc 9d3e 89d2 efbd 8b79 893e e0f7 24be
00000030: 26d1 263e 01ed 3cbe eb11 6dbe ffdf 033e
00000040: f79e d3bc 79cc 2ebe 91fc 7d3d 4a1a ea3d
00000050: 05d5 4a3e 240a b73d cff8 3abe a9be 63bd
00000060: 8c09 0e3d d75d b93e 86e6 873d 5dca b53a
00000070: 376b 5fbe 6346 e23d 4ced d83e df83 e4bd
00000080: 6888 1cbe e4d5 803d 190d 81be 649e d73d
00000090: 0d37 733e ed27 1cbe 6096 8ebc 79ae 0b3d
000000a0: e0a9 1c3d 8980 a83d 52b6 01be c657 d4bd
000000b0: d3e8 02be 39b8 9e3c 3513 d93e 1c27 1bbe
000000c0: f58f 10bd a00b fbbd 89cc 60be 992d 51be
000000d0: 79f4 13be 29b9 1cbe d8f6 3a3d c7f5 a7be
000000e0: f310 0abd b716 a4bc 5955 2c3e a1fa 71be
000000f0: 941e ebbd 1549 0abe 7746 833e 9802 81be
00000100: 4a0c 2ebe c5fe b9bd a9e6 603e c42b 15be
00000110: 27cc 483d 30be 80be 845a 3e3c db0b 373c
00000120: 5535 073e d9a6 17be 6205 c2bd ac51 e53c
00000130: 3c29 bf3e 2491 3a3e 1c9e c7bd 3ac7 a4bd
00000140: 1ca2 cbbe 210e af3a c8b3 76bc 6a25 71be
00000150: b083 2bbe 129e 703d db1f 8ebe 4235 0dbd
00000160: b476 af3c a1e1 37be 7f34 82be ef47 423e
00000170: 9d49 34be 6bf8 063d 0388 473d 1623 8e3d
00000180: b3c7 ecbd 5db3 b6bd 5149 123e 3a21 47be
00000190: 243f 083d 12cc a13e 7b82 803e 39d4 54be
000001a0: 54b5 4a3e 37b3 943e 76ec 33be f2c1 92be
000001b0: 2c7b 503d 2b1b eebd 19a4 edbc 4597 32be
000001c0: 1917 2a3e 07a0 483e 96c4 2f3e 7758 34be
000001d0: f8ab 873e 96c9 e2bd f998 ef3c 2a9c a93e
000001e0: b7e3 42be cbcf 083d 229d 393e 7091 393e
000001f0: b560 6bbe b75c 043e 9d9d 173e 38ed c0bd
00000200: be29 0e3e 9593 853e 65f2 a53d 08bf 9f3e
00000210: 89b9 29be 65a3 6a3e 0d10 2cbe 53d0 94bd
00000220: b4dc 91be 7412 a0be 04da 8dbe aef4 5d3d
00000230: c7d0 a7bd 4af4 8a3d a68c 39be 10e1 9e3e
00000240: 9e83 1abd bf3e fc3d 7079 283e e3b0 2abe
00000250: 36d2 d53d a870 ccbe fb3e b5bc a735 8ebe
00000260: 8143 1abe 64a1 5ebd 16ac 0cbc b513 88be
00000270: 1c15 ea3b 0d04 323d cdd5 2f3e 1559 8cbe
00000280: 53a1 1cbd 3473 9ebd b041 153e b26e c7be
00000290: aa3f 683e 2bdb 80bd eb32 9f3e fbd2 93be
000002a0: dd78 cabd 63c5 953d 885b 1b3d 6e21 ffbc
000002b0: c243 833d efeb c9bd 4d52 f2bc 6e70 18be
000002c0: 743f 313e 023e 5bbe 5b1a 333e 5b4e 603e
000002d0: d3b2 55be 3da9 1b3d f650 27bc db87 cfbd
000002e0: 92bd 38bb 2ac7 3c3c 8de4 3abe d12d 57bd
000002f0: 378e 113d 314c f03c 25f5 643e 8f7c 98bd
00000300: 2104 ed3d 17b5 7ebc 806d 893c 1bd0 293e
00000310: e4a7 1dbe 4004 213e ed3b 0d3e 3a24 113e
00000320: 7dfb 7c3d 35e9 1bbe d818 623d 3407 1fbe
00000330: 9143 4e3c 25c7 923e 3af4 f1bd c7cb 42be
00000340: 9e31 2a3e 44e2 31be 0772 63be b617 f6bd
00000350: cb9c 2d3e 9680 033e 8f89 1a3e 6765 473e
00000360: 9819 00be c1ef 35bd 1fdc 29bd 65e0 c9bd
00000370: b42c a13e e488 9abd 7a98 e83e 1ba2 14be
00000380: 9003 62bd d369 843d e544 0a3e ba5f 3fbd
00000390: 3e99 b43d 1d99 293e b106 4fbc 4ea0 353c
000003a0: 7807 823e 1e8d 383e bb5d 3dbe c552 2fbd
000003b0: 1215 e23e 01fb 8236 936b 5fbe f614 843e
000003c0: ae9a a9be 1e22 913e 2408 253e 157e f9bb
000003d0: 5a07 f4bc 916a 7a3e 9098 d7bd 6541 2abe
000003e0: 26c1 2bbd 7722 9abe 3e25 9e3e 8ae4 e3bd
000003f0: 8c94 233e 8dcf 85bd d0e3 08be c91d 28be
-0.18151923 -0.1565031 0.007034267 0.16918507 -0.1254678 -0.16393083 -0.2508228 0.08914017
0.30820152 -0.11710078 0.26850542 -0.16110182 0.16290721 -0.18449785 -0.23151366 0.12878416
-0.025832636 -0.17070188 0.062008444 0.114307955 0.19807823 0.08937481 -0.18258975 -0.05560175
0.034677073 0.36204407 0.06635766 0.0013869513 -0.21818243 0.110485815 0.42368543 -0.11157965
-0.1528641 0.062907964 -0.25205305 0.105282575 0.23751469 -0.15249605 -0.017405689 0.034101937
0.038247943 0.08227641 -0.12667206 -0.10368304 -0.12784128 0.019374954 0.42397466 -0.15151638
-0.035293538 -0.12258077 -0.21953024 -0.2042755 -0.14448728 -0.15305008 0.045645565 -0.328047
-0.03370757 -0.020030363 0.16829433 -0.23630764 -0.11480442 -0.13504441 0.25639698 -0.2519729
-0.16996875 -0.090817966 0.2196299 -0.14567477 0.04902282 -0.25145102 0.01161826 0.01117226
0.13203938 -0.14809741 -0.09473683 0.027993046 0.37336147 0.18219429 -0.09746954 -0.08045812
-0.39772117 0.0013355651 -0.015057512 -0.23549429 -0.16749454 0.058744498 -0.2775868 -0.03447462
0.021418907 -0.17957164 -0.25430676 0.18972753 -0.17606206 0.032951754 0.048713695 0.06940286
-0.11561527 -0.089209296 0.1428578 -0.19446269 0.03326334 0.31601006 0.2509955 -0.20784082
0.19795734 0.2904298 -0.17570671 -0.28663594 0.050898716 -0.11626276 -0.029008912 -0.17440517
0.16610374 0.19592296 0.17164835 -0.17611872 0.2649839 -0.11073606 0.029247748 0.33126956
-0.19032179 0.03340129 0.18126348 0.18121886 -0.2298611 0.12925993 0.14806218 -0.09420246
0.13883111 0.2608916 0.08102874 0.31200433 -0.16574682 0.22913893 -0.16802998 -0.07266297
-0.28488696 -0.3126408 -0.27705395 0.054188423 -0.08194118 0.06784876 -0.1812006 0.31031084
-0.037723176 0.12316655 0.16452575 -0.1666904 0.10440485 -0.399297 -0.022124758 -0.27775308
-0.15064813 -0.054353133 -0.00858595 -0.26577535 0.0071436297 0.043460894 0.17171402 -0.27411714
-0.03823979 -0.07736817 0.14575839 -0.3895164 0.22680536 -0.06291803 0.31093535 -0.28871903
-0.09886334 0.07313039 0.037929088 -0.03114387 0.06409408 -0.09859454 -0.02958026 -0.14886639
0.17309362 -0.21410373 0.17490523 0.2190489 -0.20868997 0.038003195 -0.010212174 -0.10133334
-0.0028189165 0.011522094 -0.18251248 -0.05253393 0.035536017 0.029333206 0.2235914 -0.07445633
0.11573053 -0.015546105 0.016775846 0.16583292 -0.15396076 0.15724277 0.13792391 0.14173976
0.061763275 -0.1522568 0.055199474 -0.15530092 0.012589351 0.2866756 -0.11814161 -0.19023047
0.1662049 -0.1737147 -0.22211467 -0.12016241 0.16954343 0.1284202 0.15091537 0.19472276
-0.12509763 -0.0444181 -0.04146969 -0.09857253 0.31479418 -0.07545641 0.4542883 -0.14514963
-0.05517918 0.06465497 0.13502844 -0.04672215 0.08818291 0.16562314 -0.012635873 0.011085583
0.25396323 0.18022582 -0.18492787 -0.042803545 0.441567 3.9035226e-06 -0.2181838 0.25797242
-0.33125824 0.28346342 0.16116387 -0.007613907 -0.029788662 0.24454714 -0.10527146 -0.16626509
-0.041932248 -0.3010442 0.3088779 -0.11127575 0.15974635 -0.06533728 -0.13368154 -0.16417612

base.mlp.fc_h.0.bias f4 [64]
00000000: 0000 0000 0000 0000 0000 0000 0000 0000
00000010: 0000 0000 0000 0000 0000 0000 0000 0000
00000020: 0000 0000 0000 0000 0000 0000 0000 0000
00000030: 0000 0000 0000 0000 0000 0000 0000 0000
00000040: 0000 0000 0000 0000 0000 0000 0000 0000
00000050: 0000 0000 0000 0000 0000 0000 0000 0000
00000060: 0000 0000 0000 0000 0000 0000 0000 0000
00000070: 0000 0000 0000 0000 0000 0000 0000 0000
00000080: 0000 0000 0000 0000 0000 0000 0000 0000
00000090: 0000 0000 0000 0000 0000 0000 0000 0000
000000a0: 0000 0000 0000 0000 0000 0000 0000 0000
000000b0: 0000 0000 0000 0000 0000 0000 0000 0000
000000c0: 0000 0000 0000 0000 0000 0000 0000 0000
000000d0: 0000 0000 0000 0000 0000 0000 0000 0000
000000e0: 0000 0000 0000 0000 0000 0000 0000 0000
000000f0: 0000 0000 0000 0000 0000 0000 0000 0000
0.0 0.0 0.0 0.0 0.0 0.0 0.0 0.0
0.0 0.0 0.0 0.0 0.0 0.0 0.0 0.0
0.0 0.0 0.0 0.0 0.0 0.0 0.0 0.0
0.0 0.0 0.0 0.0 0.0 0.0 0.0 0.0
0.0 0.0 0.0 0.0 0.0 0.0 0.0 0.0
0.0 0.0 0.0 0.0 0.0 0.0 0.0 0.0
0.0 0.0 0.0 0.0 0.0 0.0 0.0 0.0
0.0 0.0 0.0 0.0 0.0 0.0 0.0 0.0

base.mlp.fc_h.2.weight f4 [64]
00000000: 0000 803f 0000 803f 0000 803f 0000 803f
00000010: 0000 803f 0000 803f 0000 803f 0000 803f
00000020: 0000 803f 0000 803f 0000 803f 0000 803f
00000030: 0000 803f 0000 803f 0000 803f 0000 803f
00000040: 0000 803f 0000 803f 0000 803f 0000 803f
00000050: 0000 803f 0000 803f 0000 803f 0000 803f
00000060: 0000 803f 0000 803f 0000 803f 0000 803f
00000070: 0000 803f 0000 803f 0000 803f 0000 803f
00000080: 0000 803f 0000 803f 0000 803f 0000 803f
00000090: 0000 803f 0000 803f 0000 803f 0000 803f
000000a0: 0000 803f 0000 803f 0000 803f 0000 803f
000000b0: 0000 803f 0000 803f 0000 803f 0000 803f
000000c0: 0000 803f 0000 803f 0000 803f 0000 803f
000000d0: 0000 803f 0000 803f 0000 803f 0000 803f
000000e0: 0000 803f 0000 803f 0000 803f 0000 803f
000000f0: 0000 803f 0000 803f 0000 803f 0000 803f
1.0 1.0 1.0 1.0 1.0 1.0 1.0 1.0
1.0 1.0 1.0 1.0 1.0 1.0 1.0 1.0
1.0 1.0 1.0 1.0 1.0 1.0 1.0 1.0
1.0 1.0 1.0 1.0 1.0 1.0 1.0 1.0
1.0 1.0 1.0 1.0 1.0 1.0 1.0 1.0
1.0 1.0 1.0 1.0 1.0 1.0 1.0 1.0
1.0 1.0 1.0 1.0 1.0 1.0 1.0 1.0
1.0 1.0 1.0 1.0 1.0 1.0 1.0 1.0

base.mlp.fc_h.2.bias f4 [64]
00000000: 0000 0000 0000 0000 0000 0000 0000 0000
00000010: 0000 0000 0000 0000 0000 0000 0000 0000
00000020: 0000 0000 0000 0000 0000 0000 0000 0000
00000030: 0000 0000 0000 0000 0000 0000 0000 0000
00000040: 0000 0000 0000 0000 0000 0000 0000 0000
00000050: 0000 0000 0000 0000 0000 0000 0000 0000
00000060: 0000 0000 0000 0000 0000 0000 0000 0000
00000070: 0000 0000 0000 0000 0000 0000 0000 0000
00000080: 0000 0000 0000 0000 0000 0000 0000 0000
00000090: 0000 0000 0000 0000 0000 0000 0000 0000
000000a0: 0000 0000 0000 0000 0000 0000 0000 0000
000000b0: 0000 0000 0000 0000 0000 0000 0000 0000
000000c0: 0000 0000 0000 0000 0000 0000 0000 0000
000000d0: 0000 0000 0000 0000 0000 0000 0000 0000
000000e0: 0000 0000 0000 0000 0000 0000 0000 0000
000000f0: 0000 0000 0000 0000 0000 0000 0000 0000
0.0 0.0 0.0 0.0 0.0 0.0 0.0 0.0
0.0 0.0 0.0 0.0 0.0 0.0 0.0 0.0
0.0 0.0 0.0 0.0 0.0 0.0 0.0 0.0
0.0 0.0 0.0 0.0 0.0 0.0 0.0 0.0
0.0 0.0 0.0 0.0 0.0 0.0 0.0 0.0
0.0 0.0 0.0 0.0 0.0 0.0 0.0 0.0
0.0 0.0 0.0 0.0 0.0 0.0 0.0 0.0
0.0 0.0 0.0 0.0 0.0 0.0 0.0 0.0

base.mlp.fc2.0.0.weight f4 [64, 64]
00000000: 57b0 6fbe a6eb 53be 2baa 99bc 7246 fb3d
00000010: 088f eebd 819f 77be 127e 90be f6a1 da3d
00000020: 372c 903e 58b3 f8bd 1543 a63e 7aeb dabd
00000030: ad5d f93d 5365 4ebe 8ddf 5bbe b108 5f3e
00000040: 5be9 e23c f690 17be 9b69 af3d 2f60 d53d
00000050: 47f4 9e3e 1444 ef3d 30a4 72be d974 93bd
00000060: 460f 363d afa4 b23e f9cd 4abc cdfd bb3c
00000070: 22a4 15be c2fd 743d c8c0 dc3e 697c fbbd
00000080: 96fe 1fbe c1d8 113d 1efd 83be 3265 f13d
00000090: b193 9b3e a841 06be 8ff7 80bc 404d 81bc
000000a0: d243 363d 97bf 923d f969 1bbe 1a69 36bd
000000b0: ce0e 0bbe 8f5b 123d 98c5 cf3e 343d 38be
000000c0: 098f 31bc 5061 14be a18b 34be 7fe2 34be
000000d0: 7b6f 27be c0ed 3bbe ad78 e53c 858e 81be
000000e0: ed0d 87bd b3ee 243d 9fa4 343e 182b 76be
000000f0: d578 38be fe68 c1bd c025 533e 9a03 98be
00000100: 1b86 12be 7065 98bd 070e 463e cbf1 1cbe
00000110: d4b8 a5bb 69e8 65be 8514 1a3d 338a 413d
00000120: 4fe1 2b3e aa86 33be 2c35 9dbd 6f44 613d
00000130: 7e4b d33e 3361 193e ca6a f5bd cb07 e5bd
00000140: 58d4 abbe 53a6 60bc f978 8b3c 12c1 26be
00000150: 414b 54be f5ef f03d 2338 99be 2490 3cbd
00000160: 533c 3dbd 18ee 5abe 83c9 6fbe 2cfb ee3d
00000170: 33b6 5cbe 7d88 d83c 3d03 363d d5e4 be3d
00000180: 57ce fbbd b858 c0bd 6f10 e03d fc16 83be
00000190: f63b b3ba 194d bb3e b923 8b3e b9da d3bd
000001a0: 5a65 943e a06f 933e 6cc4 58be 64d1 68be
000001b0: cde5 eebc 3542 41bd 880b 50bc 4075 29be
000001c0: 388e 493e 4372 693e d603 793e 09dc 79be
000001d0: 3477 843e 1807 fcbd 6788 013d 4d23 b03e
000001e0: eb62 34be 73b5 ae3c f023 4b3e a352 363e
000001f0: 93b2 87be c513 e63d a151 073e c8be e9bd
00000200: b1a7 223e 9d65 643e dad8 b0bc 2d8a 673e
00000210: 2ddb 44be c212 793e 6e6c 3fbe 0960 a5bd
00000220: 56dc 78be dcb4 97be f109 94be 054a 703d
00000230: 576a 9abd b079 c03d 3107 2abe 7507 943e
00000240: 9b66 99bc fad1 6c3e 1430 383e 8dee 1cbe
00000250: 9761 163d 8a43 cdbe afa0 3abd afde 8ebe
00000260: e3f1 48be f760 4abd 6002 7b3c a3f8 68be
00000270: 3150 493d d549 243d 34e4 473e 9ac9 8bbe
00000280: e295 11bc bf57 90bd 852e cf3d 74c9 c6be
00000290: e59a 823e 80e9 6dbd d9f9 b03e 08b2 88be
000002a0: f934 a0bd e496 a53d a080 a73d c9f3 a1bc
000002b0: 7629 efbc 347c 5abd 25bc 3dbc 1cd6 21be
000002c0: 32e6 263e d155 34be da81 4b3e dea3 483e
000002d0: 1373 58be 8338 b8bc 490c 923b 1bb7 1cbe
000002e0: bcbc a3bb f7ba af3c e722 1abe b604 79bc
000002f0: fd19 a03b 48a9 a23d 8470 293e d7aa b9bd
00000300: 9889 0c3e ef5f d03c a964 d83c f250 1f3e
00000310: d929 ebbd b029 3f3e cd34 3c3e 7e48 353e
00000320: 820e 843c 3d67 e9bd e8da 3f3d 2faa 3ebe
00000330: 9303 afbc 89cf aa3e 08cb 93bd 594b 62be
00000340: f8ed 033e b31f 52be f819 90be 08f2 f8bd
00000350: ae45 bb3d 6dc2 0d3e 7e0d 373e 6ed6 693e
00000360: 04e1 adbd c5f5 aabb c016 31bd 0fd8 e3bd
00000370: 410a a13e f7bb d2bd b9aa e23e 165e 1cbe
00000380: 3d1d 56bd 8b7e 3c3d aee5 0d3e 48f5 5cbd
00000390: 53b7 113d a0c2 fb3d 6b68 833c b06f 843c
000003a0: 3543 633e 46b4 463e 0f63 05be 3c44 80bd
000003b0: 684a f53e 1649 05bc 426b 4dbe e05c 723e
000003c0: d632 bebe 68f5 9e3e 1c51 053e 4959 a3bb
000003d0: 2280 9bbb ad4c 833e ed5c a0bd 1e03 33be
000003e0: d8f3 87bd c5a1 9dbe 1482 823e d752 07be
000003f0: d133 163e 9564 3dbd a358 23be 6e26 36be
-0.23407112 -0.20695361 -0.0187579 0.12269296 -0.11648375 -0.2418194 -0.28221184 0.10675423
0.28158733 -0.12143582 0.32473055 -0.10689445 0.1217607 -0.2015584 -0.21471997 0.2178066
0.027699163 -0.14801392 0.085650645 0.10418736 0.31045744 0.11682907 -0.23695445 -0.07200021
0.04444816 0.3489127 -0.012378209 0.02294817 -0.14613393 0.059812315 0.4311583 -0.12279589
-0.1562446 0.035607103 -0.2577905 0.117868796 0.30386117 -0.13110983 -0.015743045 -0.015783906
0.044498272 0.07165449 -0.15177144 -0.044533826 -0.13579866 0.03573185 0.4058044 -0.17992097
-0.010837325 -0.14490247 -0.17631389 -0.17664526 -0.1635112 -0.18352413 0.028011644 -0.25304046
-0.06594453 0.040266704 0.17640923 -0.24039876 -0.18014844 -0.09443854 0.20619869 -0.29690248
-0.1430897 -0.07441223 0.19341289 -0.15326612 -0.0050574336 -0.22451939 0.037617225 0.047250938
0.16785167 -0.17531839 -0.07676157 0.054996904 0.41268533 0.14978485 -0.11983259 -0.11183127
-0.33560443 -0.01371153 0.017025458 -0.16284588 -0.20731832 0.11764518 -0.2992564 -0.0460359
-0.046200108 -0.21379888 -0.23416714 0.11669001 -0.21553878 0.02643227 0.044436682 0.0932099
-0.122952156 -0.09391922 0.109406345 -0.25603473 -0.0013674486 0.36582258 0.27175692 -0.103444524
0.28983575 0.287961 -0.21168679 -0.22736126 -0.029162312 -0.04718228 -0.012698062 -0.16548634
0.19683158 0.22797494 0.2431787 -0.24400343 0.25872195 -0.123060405 0.031624224 0.34401932
-0.17615859 0.021326756 0.19837928 0.17804961 -0.2650343 0.112342395 0.13214733 -0.11413342
0.15884282 0.22304387 -0.021587778 0.22611304 -0.19224234 0.24323562 -0.18693706 -0.08074958
-0.24302801 -0.29630172 -0.28913835 0.05866434 -0.07539814 0.0939821 -0.16604306 0.2891194
-0.018725684 0.23126975 0.1798709 -0.15325375 0.036714163 -0.4009059 -0.045563396 -0.2790427
-0.19623522 -0.04940888 0.01532039 -0.22751097 0.049148742 0.040109474 0.19520646 -0.27302247
-0.0088858325 -0.07047986 0.10116295 -0.38825572 0.255088 -0.05808401 0.3456562 -0.26698327
-0.07822604 0.08085421 0.0817883 -0.019769566 -0.029194575 -0.053341106 -0.011580502 -0.15804332
0.1629875 -0.17610861 0.19873753 0.1959376 -0.21137647 -0.022487884 0.004457031 -0.15304224
-0.004996864 0.021451456 -0.15052377 -0.015198877 0.0048859105 0.07942444 0.16546828 -0.09065788
0.13724363 0.02543637 0.026415186 0.15558222 -0.11482591 0.18668246 0.18379517 0.17703435
0.0161202 -0.11396644 0.046839625 -0.18619607 -0.021364009 0.33361462 -0.072164595 -0.22099055
0.12883747 -0.20519905 -0.28144813 -0.12155539 0.0914415 0.13843699 0.1787624 0.22835705
-0.08490184 -0.0052172863 -0.043234587 -0.11125194 0.31453136 -0.10289758 0.44270876 -0.15270266
-0.052273978 0.04601912 0.13857147 -0.053944856 0.035575222 0.12292981 0.016041001 0.016166538
0.22193606 0.19404706 -0.13026069 -0.06263015 0.4790833 -0.008135101 -0.20060447 0.23668242
-0.3714816 0.31046605 0.13019222 -0.004985009 -0.004745499 0.25644436 -0.07830224 -0.17481658
-0.066383064 -0.30787483 0.25489867 -0.13215195 0.14668204 -0.0462385 -0.15951781 -0.17788097

base.mlp.fc2.0.0.bias f4 [64]
00000000: 1bd9 09bd 859d 843c c430 a2bc c39d 8a3c
00000010: e317 25bd 2b47 77bd 1174 313b 64ae 9a3b
00000020: 9700 023d 9dec bf3c 1d50 68bc 0a31 2dbd
00000030: d89e 66bd 1bed 503c c202 64bb 1ef6 3a3c
00000040: f505 99bc ba3d be3c 7289 75bc f461 55bc
00000050: 7f17 1e3b ffa2 8fbd dc84 a7bd 236f 403d
00000060: 70ce 74bd f28c 17bc c42d 0d3c 83e1 19bd
00000070: e5c2 f23c 8ddf 21bd ef4a 693c 3d32 d63c
00000080: 21dd 04bd 99fe f3bc 7962 633d 1e8e f33c
00000090: 0e62 c2bb 32c4 34bc 57bf 35bc 3de1 3c3d
000000a0: eb95 723c 1e9b 09bb 67f6 01bd 93b4 01bd
000000b0: 4182 85bc 6bbc 86bc c6e5 1a3c 8290 ae3c
000000c0: 320f 31bd 08ef eabc 30a3 cd3a dbf8 5e3d
000000d0: a521 0bbc 0260 21bd 1e1d 443d e825 733c
000000e0: 42a9 d5bc 2fda e9bc ab4a 2fbd 62c0 ec3c
000000f0: b320 123d 5696 cfbc 0b30 233d 53e7 0dbd
-0.033654314 0.016188392 -0.019798644 0.01692093 -0.040305983 -0.060370605 0.0027077238 0.004720496
0.031738844 0.023428256 -0.014179257 -0.042283095 -0.05630383 0.012751843 -0.0034791683 0.011411218
-0.018679598 0.023222793 -0.014986383 -0.013023842 0.0024122891 -0.07013511 -0.08179638 0.04698099
-0.059767187 -0.009249913 0.008616868 -0.03756858 0.029633949 -0.039519835 0.014239057 0.026147002
-0.032437447 -0.029784488 0.055513833 0.029730853 -0.005932099 -0.011033105 -0.011092982 0.04611324
0.014806251 -0.0020996998 -0.03172913 -0.03166635 -0.016297461 -0.016447267 0.009454196 0.021309141
-0.043227382 -0.028678432 0.0015688892 0.054436546 -0.008491908 -0.0393982 0.04787933 0.0148405805
-0.026081685 -0.02854642 -0.04279582 0.028900329 0.035675716 -0.02534024 0.03984074 -0.034644436

base.mlp.fc2.0.2.weight f4 [64]
00000000: 0977 893f d51f 873f 0cd0 783f 7528 823f
00000010: 8fa6 853f 4a26 823f 5bfe 863f 3d33 893f
00000020: 797d 8d3f 208b 833f 155f 7e3f 5be6 833f
00000030: f59e 8d3f eff4 8a3f b916 8b3f a884 883f
00000040: fef2 803f c885 843f f770 8c3f 97ef 803f
00000050: f4be 903f 8d6c 853f 3de8 813f 5859 913f
00000060: 19f6 893f 0ced 843f 625d 883f 7bd2 853f
00000070: 70f9 883f b55b 883f 2ad6 883f 6ae0 853f
00000080: 8882 863f 77bf 8a3f cd73 883f 7bf9 8b3f
00000090: 785d 783f 0cf9 883f 2176 8f3f 9040 8c3f
000000a0: 2690 803f 420c 863f 2501 843f 9d76 873f
000000b0: 8d6f 873f 0d60 7c3f 8a2d 863f a9da 863f
000000c0: caeb 833f a9c1 833f e9cc 843f 6def 893f
000000d0: cdc3 803f 9251 833f c63c 8f3f e4cc 873f
000000e0: 182a 853f 956a 833f a012 863f 49b7 873f
000000f0: fd89 863f e6db 863f 9b43 8f3f 9db6 873f
1.0739452 1.0556589 0.97192454 1.0168597 1.0441455 1.0167935 1.0546373 1.0718762
1.1053916 1.0276833 0.99363834 1.0304674 1.1064135 1.0855998 1.086631 1.0665483
1.0074155 1.0353327 1.0971974 1.0073117 1.1308274 1.0423752 1.0148998 1.135539
1.0778228 1.0384841 1.0653498 1.0454859 1.0701122 1.0652987 1.0690358 1.0459111
1.0508585 1.083968 1.066034 1.093551 0.9701762 1.0701003 1.1207925 1.0957203
1.0043991 1.0472491 1.0312849 1.0583073 1.0580918 0.9858406 1.0482647 1.053548
1.0306332 1.0293475 1.0375034 1.0776192 1.0059754 1.0259268 1.1190422 1.0609403
1.0403471 1.0266901 1.0474434 1.0602809 1.0510861 1.0535858 1.1192507 1.0602604

base.mlp.fc2.0.2.bias f4 [64]
00000000: 75ae e9bc d6fe 1ebb 92c1 263d d6dd 593c
00000010: 5a9c 1ebd 5a51 22bd e04a ba3c 7a00 df3c
00000020: 33cb 573d 70f4 263d f7ec 0bbd 859a b43c
00000030: 97ec febc bb2a a53c 406a a73b b851 e23c
00000040: c4c7 bb3c 004a 703c a668 b8b9 65fb 10bd
00000050: ab6b 623c b217 4dbd c1d6 01bd bafa 92ba
00000060: bf78 363c 9970 393d 5681 7fbd c87e 71bc
00000070: 1f3b 45bd 3118 c3bc 1d8e 9e3c 937e 1c3d
00000080: 563b b0ba 91f7 4dbd 6a8a 15bc 0640 cfbc
00000090: c3c9 763d 6191 febc aa7d 663b 88bf b4bb
000000a0: cd02 33bb 8955 163d 1ea2 6abd 7fc1 42bd
000000b0: 96f9 593c 183d eabb 268a 663d 1f1b 453d
000000c0: edf5 2fbd 6600 3abd 5588 673a b1ae 423d
000000d0: f40a af3c 45b3 e7bc 12fb 353d 69e0 bc3c
000000e0: f421 b5bc ea8a 24bd c799 4dbd 212e 18bd
000000f0: c2aa 543d 5bd5 123d 404a 1d3d 3bdc 5cbd
-0.02852557 -0.002426078 0.040711947 0.013297519 -0.038723327 -0.039628364 0.022740781 0.027221907
0.05268402 0.040760458 -0.034161534 0.022046337 -0.031118674 0.020161977 0.0051091015 0.027626857
0.022922404 0.0146660805 -0.00035173184 -0.035396 0.013819615 -0.050071426 -0.031698946 -0.0011213638
0.011137187 0.045273397 -0.062379204 -0.0147397 -0.048152085 -0.023815246 0.019354874 0.038206648
-0.0013445418 -0.050284926 -0.009127239 -0.025299083 0.06025101 -0.031075181 0.0035170116 -0.0055159964
-0.0027314902 0.036702666 -0.057283513 -0.047547814 0.013304135 -0.007148396 0.056284092 0.048121568
-0.042959142 -0.045410536 0.0008832266 0.04752988 0.021367528 -0.028283725 0.044428892 0.023056226
-0.022110917 -0.04017154 -0.05019548 -0.037153367 0.05192066 0.035848003 0.03840089 -0.053920966

act.action_out.linear.weight f4 [5, 64]
00000000: 4ca4 353d 0948 c0bb 46bf f7bc c1a6 873c
00000010: 71aa f6bc b577 bfbb c105 34bd 1f0a 233d
00000020: b8ad 60bd 0dbf 3abd 8f63 07bc 67ed 1dbc
00000030: 8beb 963d 3288 0cbc 66c7 ae3d f0d4 9bbd
00000040: b37d 063c 127e bdbc 1352 a0bc 7129 1a3d
00000050: d9af 8c3c d8ff 68bd 0d4e 12bd f7cf cb3d
00000060: da96 1fbd 8a5d 54bd 42e6 023d 5535 d0bc
00000070: 8781 b83d c4f6 fa3c fcb5 c83b a0b4 683d
00000080: 3f73 d73c 753e ccbc 9a1c 983d a3e9 963d
00000090: 84bc c3bc 7847 253c d42b 2b3d 6587 75bd
000000a0: 3a93 123d de8e 5abc e80f 163c 021c 83bd
000000b0: 3fd5 41bd bf2c 113c 12de debc c00a 8fbd
000000c0: 4769 073d b744 823d 38e4 293c ee11 dbba
000000d0: 0cf3 403d d365 1abd 5309 65bd 99bd 71bd
000000e0: 8923 5dbd 4a3c 463d 7f35 5cbc 98c6 933d
000000f0: b752 9bbc 1a78 443c f6b1 27bd 863a 913d
00000100: d4e8 473b 9ae0 aabc a7e1 683c ae6e da3c
00000110: ec07 e23b 1071 643c 671f 15bc c000 793d
00000120: db91 253d 24ff c73c d29f 3cbb 3801 b53b
00000130: 2c25 953c c7ab 653c b0f9 ecbc d767 233c
00000140: b8a9 f63c c31a 613b cc8b 0cbd bfea 94b9
00000150: 165a 79bc 27d5 da3c 836c 0fbb 2026 163d
00000160: e514 deba 1453 7d3c 27a8 9fbc b90d 1dbc
00000170: 47d9 943c 40dc 523d 6dac 34bd 389e 0f3d
00000180: 2b4e fa3b 9a6c 993b 12c6 32bd af90 e83c
00000190: 8691 5e3b 965c 02bd 5beb aa3d a5cb 9bbc
000001a0: 3708 953a 58fd 083d 02a1 69bc 9228 b9bc
000001b0: 49b3 0ebd 9c5e 3f3c 8659 66bb f149 bebc
000001c0: 7acf 7ebc 0d26 e9bc 403a d5bc 22ed 25bb
000001d0: d4ea 67bc 0025 b5bc 9c34 cfba 1a8c a6bc
000001e0: ac18 4b3c c026 99bc 6a61 033b 5d85 b7bc
000001f0: 333f 813c 2faa 623a 550b 2bbd 5bea b1bc
00000200: dc77 ccbd 2975 50bd aa22 d6bb d57a 333d
00000210: 4abc 07bd 475d 01bd 3301 5fbc 625f d5bc
00000220: 4558 553d cb61 b63c ddb4 313d 07d1 3e3d
00000230: ba84 d23c 0f08 a5bd 879d 0c3d a656 f6bb
00000240: 2ccf e8bc 2a9b 2abd 8c08 2abc caaa c7bc
00000250: 00e5 cb3d 4219 7d3c 0c0a 9ebc cb0f 48bd
00000260: b38b 0dbd 4ec8 be3a 8009 243c 26fa 8f3d
00000270: 1d77 8dbd cdca 9cbd 459e 7cbd 3e9a cebc
00000280: 5c36 a7bd 241e 3ebd 8c68 883c eaca 87bc
00000290: 3d02 633c 7bed 1bba 3235 273b 9660 533d
000002a0: 0650 d43c 2630 6ebd 8bcb 50bc feb0 623b
000002b0: 56f3 853d 6727 253c 7770 19bc 1f16 5e3d
000002c0: ee6b 23bd 5381 88bc 92ef 133d dfaa 05bc
000002d0: 87c6 913b 863c 56bc b616 ee3d e9c6 75bc
000002e0: c106 cf3c 15f4 07bd 389e 47bc 4ab0 94bc
000002f0: 9cc7 01bd 9ef6 acbc 61f6 e83d 7809 da3a
00000300: e188 2e3d 505b 2cbc c406 19bc 703d d3bc
00000310: b9d0 9e3d 3675 273d a7d3 1b3c 5bf1 24bd
00000320: ebbc dbbd 7edd 10bd be52 0ebc 839d 56bd
00000330: 81f3 fd3b ba4f a93c b67b 5abd 77d9 07bc
00000340: 61b9 3cbb 9a4b a73d 9059 d53d 196b acbc
00000350: a462 b5bd a3e3 2f3d 6ab3 173d b5b2 8abd
00000360: 1437 a13d ed79 27bd 2c44 993d 8915 a4bc
00000370: 7dfd 43bc 53bd 09bd aecd 783d c5f5 c5bc
00000380: 2851 a23b 2e83 b93d e2dd e8bb beb1 c0bb
00000390: 635b 82bc 61bc c93d f033 98bd b73f b43d
000003a0: 3fc1 02bd cb25 9f3c b614 863d 1f31 683d
000003b0: 240f c63b f9e0 5cbc 72c7 ffbc 3f6e 84bb
000003c0: f7e4 323d a850 cb3c 6cd6 e23c ffe0 c5bd
000003d0: cf1b b8bc 0078 3f3d 15ed 86bd 673f b63c
000003e0: f9a0 453d 2c8c 1a3d 395b 843d b61c ed3c
000003f0: a211 75bd 4390 5ebd fa5f 273d 35f9 84bc
0.04434614 -0.0058679623 -0.030242573 0.016559007 -0.03011057 -0.0058431276 -0.0439508 0.039804574
-0.05485317 -0.045592356 -0.008263483 -0.009639121 0.07369145 -0.008577393 0.08534126 -0.07608974
0.00820868 -0.023131404 -0.019570386 0.037637178 0.017173694 -0.056884617 -0.035718966 0.099517755
-0.038962223 -0.05184702 0.031957872 -0.025416056 0.090090804 0.030635245 0.00612521 0.056812882
0.02630007 -0.024932126 0.0742733 0.073687814 -0.023893602 0.01008784 0.041789845 -0.059943575
0.035784937 -0.013339726 0.009159066 -0.064018264 -0.047322508 0.008860766 -0.0272055 -0.06984472
0.033059385 0.063607626 0.010369353 -0.0016713717 0.047106788 -0.037694763 -0.055917095 -0.059018705
-0.053988967 0.04839734 -0.013440489 0.07215613 -0.01896034 0.011991525 -0.0409412 0.070912406
0.0030503767 -0.020859051 0.014213956 0.026664104 0.006897917 0.013942972 -0.009101725 0.06079173
0.0404223 0.024413653 -0.0028781784 0.005523827 0.018206201 0.014018006 -0.028927654 0.009973488
0.030110225 0.0034348227 -0.03431301 -0.0002840366 -0.015219232 0.026712967 -0.0021884746 0.036657453
-0.0016943483 0.015461702 -0.019489361 -0.009585791 0.018170012 0.051479578 -0.04410975 0.035063
0.007638713 0.004682136 -0.043645926 0.028389303 0.003396125 -0.031826578 0.08345672 -0.019018004
0.0011370246 0.033444732 -0.014259579 -0.022602353 -0.03483895 0.0116802715 -0.0035148575 -0.023228617
-0.015552396 -0.028460527 -0.026028752 -0.0025318344 -0.0141551085 -0.02211237 -0.0015808525 -0.020330478
0.012396019 -0.018695235 0.0020047077 -0.02240246 0.015777206 0.0008646575 -0.041758854 -0.021718195
-0.09983799 -0.050892983 -0.006534894 0.043818314 -0.03313855 -0.031583097 -0.013611126 -0.026046459
0.052086134 0.022263428 0.043385375 0.046586063 0.025698055 -0.08058178 0.034329917 -0.0075176535
-0.0284191 -0.041651882 -0.010378014 -0.02437343 0.09955788 0.015447916 -0.0192919 -0.048843186
-0.034557056 0.0014555545 0.010012031 0.07030134 -0.06907485 -0.07655869 -0.061674375 -0.025220033
-0.08164665 -0.046415463 0.016651414 -0.01657625 0.013855514 -0.0005948168 0.0025513885 0.051605783
0.025917064 -0.058151387 -0.012743841 0.003459036 0.06540553 0.010080195 -0.009365193 0.054220315
-0.03989785 -0.01666323 0.036117144 -0.008158415 0.004448715 -0.013075953 0.116254255 -0.015001037
0.025271775 -0.03319176 -0.012183718 -0.018150467 -0.031684503 -0.02111369 0.11375118 0.0016634902
0.042611007 -0.0105198175 -0.009339992 -0.025786132 0.077546544 0.040883265 0.009510911 -0.040269237
-0.107293926 -0.03536748 -0.008686719 -0.05239631 0.007749975 0.0206679 -0.053340636 -0.008291594
-0.0028797018 0.08168717 0.10417473 -0.021047162 -0.08856705 0.0429417 0.037036337 -0.06772367
0.078718334 -0.04088776 0.07483706 -0.0200298 -0.011962292 -0.03362782 0.060743026 -0.024165044
0.0049535222 0.09058224 -0.0071065286 -0.0058805635 -0.015912717 0.098503835 -0.07431781 0.08801215
-0.031922575 0.0194272 0.06546919 0.05668747 0.0060442854 -0.013481372 -0.031223033 -0.0040414627
0.04367539 0.024818733 0.027690135 -0.09662055 -0.022474198 0.0467453 -0.065881886 0.02224703
0.04824922 0.037731335 0.06462712 0.028944355 -0.05983127 -0.054336797 0.040863015 -0.016232112

act.action_out.linear.bias f4 [5]
00000000: ddcb 06bd e546 453c 08d2 af3c c9c2 d3bb
00000010: 0b05 2b3d
-0.032909263 0.012040828 0.021462455 -0.006462429 0.041752856
