results/MyEnv/MyEnv/mappo/check/run10/models/critic.pt (torch, 47477 bytes, 15 tensors)

base.feature_norm.weight f4 [28]
0	0x3f87a5a0	1.059742
1	0x3f807c2d	1.0037895
2	0x3f820763	1.0158504
3	0x3f8320ea	1.024442
4	0x3f79b9cf	0.97549146
5	0x3f81f965	1.0154234
6	0x3f785bb5	0.97014934
7	0x3f7ff8dc	0.99989104
8	0x3f7f3bc8	0.99700594
9	0x3f7889c6	0.97085226
10	0x3f812e77	1.0092305
11	0x3f7f4b3d	0.9972418
12	0x3f861ae0	1.0476952
13	0x3f7a4b3d	0.97771055
14	0x3f7f74b9	0.9978748
15	0x3f821243	1.0161823
16	0x3f803e1b	1.0018953
17	0x3f79b1ce	0.97536933
18	0x3f814bdc	1.0101275
19	0x3f7f692d	0.9976986
20	0x3f80ba00	1.0056763
21	0x3f7a7453	0.97833747
22	0x3f811d73	1.0087112
23	0x3f8317fa	1.0241692
24	0x3f75f00d	0.96069413
25	0x3f814da3	1.0101818
26	0x3f81385e	1.0095327
27	0x3f831c25	1.0242964

base.feature_norm.bias f4 [28]
0	0xbd26a979	-0.040688965
1	0xbc468d35	-0.012118627
2	0x3cea28d0	0.028583914
3	0xbb4bcdbc	-0.003109797
4	0xbc3a3adc	-0.011366572
5	0xbc9746b9	-0.01846634
6	0x3bdd2504	0.0067487974
7	0x3cbaa1e5	0.022782275
8	0x3bae6fe9	0.0053233993
9	0xbd1e3d33	-0.038632583
10	0xbbbcef8e	-0.005765862
11	0xbc805eb2	-0.015670154
12	0xbd076b87	-0.03306153
13	0x3c1e479b	0.009660627
14	0x3c94c6c4	0.018161185
15	0x3c4fc233	0.012680578
16	0x3cf5cab9	0.030003892
17	0xbcda8211	-0.026673349
18	0xbcd33325	-0.025781224
19	0xbcc72d63	-0.024313634
20	0xbac6c822	-0.0015165845
21	0x3c83d2ac	0.016091667
22	0x3c23f37d	0.010006783
23	0x3ca22166	0.019791316
24	0x3ccd731d	0.025079304
25	0xbc259739	-0.010106855
26	0xbc561903	-0.013067487
27	0xbcdf541e	-0.02726179

base.mlp.fc1.0.weight f4 [64, 28]
0	0x3e4b048f	0.19825958
1	0x3d3f246b	0.04666559
2	0x3cd1c9b9	0.025608884
3	0xbca460cf	-0.020065693
4	0x3e251565	0.16121443
5	0x3e38b6ad	0.18038435
6	0xbe5da357	-0.2164434
7	0xbc9630dd	-0.018333847
8	0x3d450329	0.048098717
9	0x3ce03d1c	0.02737289
10	0xbda94b5e	-0.08266328
11	0x3ea0213d	0.3127536
12	0xbd2c0b89	-0.04200319
13	0xbe75d1d7	-0.24005829
14	0x3de744e3	0.11292436
15	0x3e78d042	0.24298194
16	0xbd287f68	-0.04113713
17	0x3ebc6379	0.36794642
18	0x3d9c823f	0.0764203
19	0xbd813090	-0.06308091
20	0xbe492f0d	-0.19646855
21	0xbd7ffbc7	-0.062495973
22	0xbeb09ff1	-0.34497026
23	0xbd74f7b6	-0.059806548
24	0x3d4623ac	0.048373863
25	0x3e8b1a32	0.27168423
26	0xbe06dc12	-0.13169888
27	0x3e196c90	0.1498282
28	0x3e452a91	0.19254519
29	0x3beca68b	0.007222002
30	0xb9f859f4	-0.00047369266
31	0xbdd7edcd	-0.10543404
32	0x3ee1019e	0.43946546
33	0x3e4cb2d3	0.19990091
34	0x3ecfa9ed	0.4055933
35	0x3ed4178f	0.41424224
36	0xbc81e9b8	-0.015858516
37	0xbe747cdb	-0.23875754
38	0x3ceb4546	0.028719556
39	0xbcf1a887	-0.029499305
40	0xbe005321	-0.12531711
41	0x3e09377b	0.1340007
42	0x3e3b099a	0.18265381
43	0xbdb0b8cc	-0.08628997
44	0xbe6945d9	-0.22780551
45	0xbe67c8e1	-0.22635223
46	0xbef64df2	-0.48106343
47	0xbdb54fa7	-0.08853083
48	0xbebd9646	-0.37028712
49	0xbe9833de	-0.29727072
50	0xbdcb6fc7	-0.09933429
51	0x3e94488a	0.28961593
52	0x3e281675	0.16414817
53	0xbdf67a75	-0.120350756
54	0xbe650422	-0.22364858
55	0xbebd8799	-0.37017515
56	0x3d9d78fa	0.0768909
57	0x3e5788e4	0.21048313
58	0x3cef2342	0.029191617
59	0xbd51883b	-0.05115531
60	0xbd6c233d	-0.057650793
61	0xbb2cc059	-0.0026359765
62	0x3bcdbc20	0.0062785298
63	0x3ce3a780	0.027789831
64	0x3e0874ef	0.13325857
65	0x3e0dadc2	0.13835815
66	0xbe40c60e	-0.18825552
67	0x3d1b7bae	0.037959747
68	0x3ee4204c	0.4455589
69	0x3eb71858	0.3576076
70	0xbdd00c9f	-0.10158657
71	0x3e19b7d0	0.15011525
72	0x3e0027f7	0.12515245
73	0xbbb4e8f7	-0.0055209356
74	0x3e552d1d	0.2081799
75	0xbe86e96a	-0.26349956
76	0xbc69ed49	-0.014277765
77	0xbe1df023	-0.15423636
78	0xbe079ee5	-0.13244207
79	0x3e2cc63f	0.168725
80	0xbd62b263	-0.055345904
81	0xbbed3f87	-0.007240239
82	0x3c04a821	0.008096726
83	0xbd46ceaa	-0.048536934
84	0x3e9e1992	0.30878884
85	0xbcfe0c8f	-0.031011848
86	0xbd3ce292	-0.04611451
87	0xbede7101	-0.4344559
88	0xbe3512ef	-0.17683004
89	0xbd7fd300	-0.062457085
90	0xbdda2bd8	-0.10652894
91	0x3d4f0069	0.0505375
92	0xbe451601	-0.19246675
93	0xbe671ce3	-0.22569613
94	0x3d31f498	0.043446153
95	0x3d9660ff	0.07342719
96	0xbe1f8c16	-0.15580782
97	0x3e34b036	0.17645344
98	0xbdb9cdf4	-0.090724856
99	0x3dbab5e9	0.09116728
100	0x3ceaf439	0.028680908
101	0xbd3d659c	-0.04623948
102	0x3e57c898	0.21072614
103	0x3e4c98e9	0.19980206
104	0x3e01e3c9	0.1268455
105	0xbe040943	-0.12894158
106	0x3cc3183d	0.023815269
107	0x3d6a8f2a	0.05726544
108	0x3e61f65d	0.22066636
109	0xbb321b05	-0.002717675
110	0xbc7c0c21	-0.015383751
111	0x3ec63638	0.3871324
112	0xbdb38ed5	-0.087674774
113	0xbc37d59e	-0.011220364
114	0xbe5cc8ca	-0.2156097
115	0xbda56853	-0.08076539
116	0xbdbc641f	-0.09198784
117	0xbe1aa88c	-0.15103358
118	0x3e49e3d9	0.19715823
119	0xbf041167	-0.51589054
120	0xbd34e2bc	-0.044161543
121	0x3e26cb17	0.1628841
122	0x3db0ab3f	0.086264126
123	0xbe06a9d8	-0.13150728
124	0xbeb77161	-0.3582869
125	0xbd3ee7f7	-0.046607938
126	0x3d8632c2	0.0655265
127	0x3ea0ec6e	0.31430382
128	0xbd799032	-0.06092853
129	0xbdde230f	-0.10846531
130	0x3cdeb6ff	0.027186869
131	0xbdb14d01	-0.086572655
132	0xbe66fc65	-0.22557218
133	0xbc2c7aea	-0.010527352
134	0xbd2e46e1	-0.042548064
135	0xbe75965d	-0.2398314
136	0x3e2d6658	0.16933572
137	0xbd9419ca	-0.072314814
138	0xbe15f963	-0.14645915
139	0x3d2f4c08	0.04279712
140	0x3e1e36e3	0.15450625
141	0xbd990e88	-0.07473475
142	0xbdcafa5f	-0.09911036
143	0x38231528	3.888193e-05
144	0x3db90ea0	0.090359926
145	0xbd967673	-0.07346811
146	0x3d9b1c1e	0.07573722
147	0xbe0243d7	-0.12721191
148	0x3e64d6b5	0.22347529
149	0xbe9843c5	-0.29739204
150	0x3e51a98e	0.20474836
151	0x3d3eae11	0.04655272
152	0x3c80d6c4	0.015727408
153	0xbe17a9cd	-0.14810868
154	0xbe00af5e	-0.12566897
155	0x3e097c69	0.13426365
156	0xbd4205d8	-0.047368854
157	0xbea140c2	-0.3149472
158	0x3dbc2c30	0.091881156
159	0xbe8a1c33	-0.2697464
160	0x3ec3cabe	0.38240618
161	0xbdab87cc	-0.083755106
162	0x3ddfe9f2	0.109332934
163	0x3dfb3b45	0.12267164
164	0xbd7371e5	-0.05943479
165	0xbe69b42b	-0.22822635
166	0xbc99094b	-0.018681189
167	0xbd422b5b	-0.04740463
168	0xbe120707	-0.14260493
169	0x3e6c92cf	0.23102878
170	0xbe05675f	-0.13027714
171	0x3de97874	0.11399928
172	0x3d83617f	0.0641508
173	0xbce7ef6c	-0.028312407
174	0x3d0a7bf4	0.033809617
175	0xbd7c6315	-0.06161793
176	0x3dff3843	0.12461903
177	0x3d9bab16	0.076009914
178	0xbda60fec	-0.081085056
179	0xbe4a18c3	-0.19736008
180	0x3d8cea84	0.06880668
181	0xbc833c93	-0.016020095
182	0x3ddc1cec	0.10747704
183	0xbe940821	-0.28912452
184	0x3d921e9e	0.07134746
185	0xbdeb45d5	-0.11487929
186	0x3d05d741	0.032675985
187	0x3ddc7764	0.107649595
188	0xbea2b136	-0.31775826
189	0xbd9d9fd9	-0.07696504
190	0xbd52bf52	-0.05145199
191	0xbe7a42d2	-0.24439552
192	0x3e3afe12	0.18260983
193	0x3da99295	0.082799114
194	0xbe87839a	-0.26467592
195	0x3d54826f	0.051882204
196	0x3e8edb64	0.27901757
197	0xbd8b8a40	-0.068134785
198	0xbcb7a997	-0.022419734
199	0x3ebb88e8	0.3662789
200	0xbd9587f8	-0.073013246
201	0xbe175618	-0.14778936
202	0xbdcea541	-0.100901134
203	0x3babf6d1	0.0052479287
204	0x3dc4be91	0.0960666
205	0xbe66ae51	-0.22527434
206	0xbe54564f	-0.20736049
207	0x3c75d073	0.015003311
208	0x3e818c7f	0.25302503
209	0xbe1951dc	-0.14972633
210	0xbdf83358	-0.12119168
211	0x3dd6ee65	0.10494689
212	0xbdc871fd	-0.097873665
213	0xbe500f6e	-0.20318386
214	0xbe935743	-0.28777513
215	0x3e01b4b7	0.12666593
216	0x3c2b01c7	0.0104374355
217	0x3d414143	0.04718138
218	0x3df16677	0.11787122
219	0xbe350611	-0.17678095
220	0x3db85da5	0.09002236
221	0x3f042a0e	0.5162667
222	0x3c1387d1	0.009004549
223	0xbdacd3f8	-0.08438867
224	0xbe2db5f4	-0.16963941
225	0x3ea714ca	0.32633048
226	0xbda2613f	-0.079287045
227	0x3dfdb61b	0.123882495
228	0x3d233c9f	0.039852735
229	0x3dc09a8a	0.09404476
230	0xbe1fb949	-0.15598024
231	0x3d8ad6be	0.0677924
232	0xbec58adb	-0.385825
233	0xbe03d168	-0.12872851
234	0x3dcedc80	0.10100651
235	0x3e8a3cd6	0.2699954
236	0x3e44b027	0.19207822
237	0x3bf66d1f	0.0075203325
238	0x3d0b23fe	0.03396987
239	0xbe19ef18	-0.15032613
240	0xbd9ad9bb	-0.0756106
241	0x3daaf4a9	0.083474465
242	0xbe6fc6b7	-0.23415647
243	0x3e3ef902	0.18649676
244	0x3deda26d	0.11603246
245	0xbe7ff8b2	-0.24997213
246	0xbec4ca11	-0.38435414
247	0x3ded6fe7	0.11593609
248	0xbe959d95	-0.29221788
249	0x3e158dbe	0.14604852
250	0xbccf702c	-0.025322042
251	0x3d3c9a21	0.046045426
252	0xbea4f135	-0.32215276
253	0x3ea294e7	0.31754228
254	0x3de78d8d	0.113062955
255	0x3e14172e	0.14461967

base.mlp.fc1.0.bias f4 [64]
0	0xbcbb20ea	-0.022842843
1	0x3d198950	0.037484467
2	0x3c768c9f	0.015048175
3	0x3bfc7885	0.0077047967
4	0x3cc274bc	0.023737304
5	0x3c722bab	0.014780919
6	0x3ca05ab7	0.019574506
7	0x3cc72eb7	0.024314268
8	0xbc18c267	-0.009323693
9	0x3d91732c	0.071020454
10	0x3d3e907f	0.04652452
11	0x3c1d287c	0.009592172
12	0x3c916d47	0.017752303
13	0xbad26885	-0.0016052878
14	0x3c8561ca	0.016281981
15	0xbcb7a9f2	-0.022419903
16	0xbbcd6832	-0.0062685246
17	0x3d52960f	0.05141264
18	0x3c320206	0.01086474
19	0x3bb7e9ca	0.0056125866
20	0x3d182f09	0.03715423
21	0xbd0f9bf0	-0.035060823
22	0x3d029f2f	0.03189009
23	0xbcc49229	-0.023995476
24	0x3ca55751	0.020183237
25	0xbb511e98	-0.0031909104
26	0xbc8db9b9	-0.017300474
27	0xbcd84251	-0.02639881
28	0x3db01d71	0.085993655
29	0x3cf0b36c	0.02938243
30	0x3ce05cc3	0.027387982
31	0xbbec7494	-0.0072160456
32	0xbb8aafeb	-0.004232397
33	0xbcdaa564	-0.026690193
34	0x3c6e0b27	0.014529026
35	0x3d461f86	0.048369907
36	0xbc63a202	-0.013893606
37	0x3c0a7a25	0.008451973
38	0x3cbcf62d	0.023066605
39	0x3bd1f704	0.0064076204
40	0xbce7ed38	-0.028311357
41	0x3a1498c1	0.0005668514
42	0xbc9e26a7	-0.01930554
43	0x3c80da44	0.015729077
44	0x3d26e57a	0.04074619
45	0xbc352427	-0.011055983
46	0x3d0d2876	0.034462415
47	0xbd5f8397	-0.054568853
48	0xbbe513a7	-0.006990868
49	0x3c633bdc	0.013869252
50	0x3d2266c8	0.0396488
51	0xbca541a6	-0.020172905
52	0x3cd89297	0.026437087
53	0x3cb43bb7	0.02200113
54	0x3ccf6a71	0.02531931
55	0xbc3c3a68	-0.0114885345
56	0xbbfa9cc2	-0.0076480815
57	0x3c08142d	0.0083055915
58	0xbc8bb09b	-0.017051985
59	0x3c95178e	0.018199708
60	0xbab9499d	-0.0014136318
61	0xbc87db0b	-0.01658394
62	0xbd2f6890	-0.042824328
63	0x3b879246	0.00413731

base.mlp.fc1.2.weight f4 [64]
0	0x3f820687	1.0158242
1	0x3f892d01	1.0716859
2	0x3f8a8af6	1.0823658
3	0x3f7efff8	0.9960933
4	0x3f78a794	0.97130704
5	0x3f77ee00	0.96847534
6	0x3f7e8159	0.9941612
7	0x3f79a1dc	0.975126
8	0x3f7a45ae	0.9776257
9	0x3f848100	1.0351868
10	0x3f834a80	1.025711
11	0x3f7caee4	0.9870436
12	0x3f822e18	1.0170317
13	0x3f852406	1.0401618
14	0x3f8324e3	1.0245632
15	0x3f85eb9e	1.046253
16	0x3f83542f	1.0260066
17	0x3f82af7b	1.0209802
18	0x3f805060	1.0024529
19	0x3f79ea96	0.97623575
20	0x3f7d1019	0.9885269
21	0x3f818a32	1.0120299
22	0x3f85d3bc	1.0455241
23	0x3f75038f	0.95708555
24	0x3f8578ff	1.042755
25	0x3f811306	1.008393
26	0x3f74ddf8	0.956512
27	0x3f84d41f	1.0377234
28	0x3f869701	1.0514833
29	0x3f84a12e	1.0361688
30	0x3f8899ba	1.0671914
31	0x3f859308	1.0435495
32	0x3f78d489	0.971993
33	0x3f818276	1.0117939
34	0x3f8599d5	1.0437571
35	0x3f8591db	1.0435137
36	0x3f786a44	0.9703715
37	0x3f760bed	0.9611195
38	0x3f81a346	1.0127952
39	0x3f816a60	1.0110588
40	0x3f719a0a	0.9437567
41	0x3f82b62f	1.0211848
42	0x3f7721e6	0.965361
43	0x3f80560c	1.002626
44	0x3f8445fc	1.0333858
45	0x3f7ab522	0.97932637
46	0x3f708af3	0.9396202
47	0x3f800573	1.0001663
48	0x3f7b35a8	0.9812875
49	0x3f7d84f7	0.99031013
50	0x3f7ca56f	0.9868993
51	0x3f7fcd32	0.9992248
52	0x3f81a758	1.0129194
53	0x3f81cf46	1.014138
54	0x3f8776d9	1.0583144
55	0x3f7a0b13	0.9767315
56	0x3f7e3774	0.99303365
57	0x3f7dac39	0.99090916
58	0x3f7e9bd2	0.9945651
59	0x3f822098	1.0166197
60	0x3f7e0fcf	0.9924287
61	0x3f746505	0.95466644
62	0x3f80638a	1.0030377
63	0x3f816dc4	1.0111623

base.mlp.fc1.2.bias f4 [64]
0	0xbcc4f857	-0.024044199
1	0x3d07dad4	0.033167675
2	0xbd9af16b	-0.07565578
3	0x3abde268	0.001448703
4	0x3cbb3594	0.022852696
5	0x3c5b09df	0.013369053
6	0x3c93493e	0.01797926
7	0x3cc16003	0.023605352
8	0xbba1d6d2	-0.0049389387
9	0x3cc5a9ee	0.02412888
10	0x3da62941	0.08113337
11	0x3c004076	0.007827869
12	0x3ca8cd91	0.020605834
13	0xbc655c3a	-0.013999039
14	0xbbc53ebe	-0.0060194423
15	0xbd7cb5bd	-0.061696757
16	0xbd4c0fee	-0.04981988
17	0x3ac8c015	0.0015316034
18	0xbb8ca5a5	-0.0042922073
19	0x3c50a377	0.012734286
20	0x3d285311	0.041094843
21	0xbcf4d4c5	-0.029886613
22	0xbbf3841a	-0.007431519
23	0xbc95e085	-0.018295536
24	0xbd6dbdb3	-0.05804224
25	0xbc4abd25	-0.012374197
26	0xbc6d9641	-0.014501155
27	0xbd870fe6	-0.06594829
28	0x3d7e9b74	0.06215997
29	0x3ce8a576	0.02839921
30	0x3c8247d4	0.015903391
31	0xbd329a49	-0.04360417
32	0x3c1d01d1	0.009582953
33	0xbcf86962	-0.030323688
34	0xbc9d6933	-0.019215202
35	0x3d07622d	0.033052612
36	0xbc713d5b	-0.014724101
37	0x3c03f918	0.008054994
38	0x3cd55c54	0.026045002
39	0x3aaf30e2	0.0013366009
40	0xbc87effa	-0.016593922
41	0xbc2b7770	-0.010465488
42	0xbc2746df	-0.010209768
43	0xbb5c9a03	-0.0033661134
44	0xbb92ee4e	-0.0044839745
45	0xbc8f5d3b	-0.01750051
46	0x3d3d5498	0.046223253
47	0xbd076380	-0.033053875
48	0xbb816def	-0.0039498727
49	0x3c7213c9	0.014775225
50	0x3d5012e7	0.050799277
51	0xbc8cd60b	-0.017191907
52	0x3cc4eb70	0.024038047
53	0x3caeb363	0.021325773
54	0x3c6d413b	0.014480884
55	0xbc1b9ab2	-0.009497331
56	0xbc2431d8	-0.010021649
57	0x3b9d4f71	0.00480073
58	0xbc31af65	-0.01084504
59	0x3b38cc95	0.0028198112
60	0xbb4cd062	-0.0031252136
61	0xbc549a19	-0.012976193
62	0xbd1dd8b1	-0.03853673
63	0x3ad1f52f	0.0016018505

base.mlp.fc_h.0.weight f4 [64, 64]
0	0x3d034de9	0.032056723
1	0x3c001819	0.007818245
2	0x3d8644f1	0.06556118
3	0x3ed4ed94	0.41587508
4	0x3d845a3e	0.06462525
5	0xbec30553	-0.3809
6	0x3de9a97a	0.11409278
7	0x3db33e80	0.08752155
8	0x3d54d0f5	0.05195709
9	0x3d9d4272	0.07678689
10	0x3e01d00c	0.1267702
11	0xbe5c327c	-0.21503633
12	0x3d8a5744	0.06754926
13	0x3e58e54a	0.21181217
14	0x3e90a22a	0.2824872
15	0xbea98978	-0.33112693
16	0xbe5a4d07	-0.21318446
17	0x3ca974d6	0.020685595
18	0xbd7520ee	-0.059845857
19	0x3da28b5f	0.07936739
20	0xbd52ea68	-0.05149308
21	0x3e863b55	0.26217142
22	0xbda1b35f	-0.078955404
23	0xbee3908e	-0.44446224
24	0x3e53b4e6	0.20674476
25	0xbe8e13ed	-0.27749577
26	0x3e1d51bf	0.15363215
27	0xbe68ea1e	-0.22745559
28	0x3ebcd28c	0.36879385
29	0x3ce3870f	0.027774362
30	0xbe2d9d53	-0.16954546
31	0xbd9f1c98	-0.07769126
32	0xbdcdc850	-0.10047972
33	0xbddf11b7	-0.10892051
34	0x3e8f8e8a	0.28038436
35	0xbddb567d	-0.10709856
36	0x3d83038a	0.063971594
37	0x3cfa931d	0.030587727
38	0x3dd1a0d6	0.10235755
39	0x3b887773	0.00416463
40	0xbd948c39	-0.07253308
41	0xbd932ac1	-0.07185889
42	0x3d835fac	0.06414732
43	0xbcbaab3f	-0.022786735
44	0xbde8cbff	-0.11367034
45	0x3e449764	0.19198376
46	0x3d0703a1	0.032962445
47	0x3d8d4f79	0.06899924
48	0xbe2ddd74	-0.16979009
49	0xbddb5071	-0.10708702
50	0x3cd321f6	0.02577303
51	0x3b7096c4	0.0036710957
52	0x3e1629a9	0.1466433
53	0x3e918d89	0.28428295
54	0x3e7a7ac4	0.24460894
55	0xbe332c7f	-0.17497443
56	0xbd98ec7f	-0.07466983
57	0x3aceadf9	0.0015768401
58	0xbd2d4984	-0.042306438
59	0xbdc0f801	-0.09422303
60	0x3bf80bb8	0.0075697564
61	0xbdc2143e	-0.09476517
62	0x3edc8bd6	0.43075436
63	0xbd20e7c4	-0.03928353
64	0xbe465eb1	-0.1937206
65	0x3d97d4e4	0.074136525
66	0x3e8b73d4	0.27236807
67	0xbe7c3e89	-0.2463323
68	0xbc9a4e89	-0.018836277
69	0xbe9dbd89	-0.30808666
70	0xbe86a2ff	-0.2629623
71	0xbe7bde90	-0.2459662
72	0x3cabb2ff	0.020959375
73	0x3db2f3e6	0.08737926
74	0x3e976448	0.29568696
75	0xbde66d13	-0.11251273
76	0xbd99388f	-0.07481491
77	0xbea1d54a	-0.3160804
78	0x3dc7735a	0.097387984
79	0x3df5702c	0.11984286
80	0x3df13656	0.11777942
81	0x3e937d1b	0.28806385
82	0x3e441fd8	0.19152772
83	0xbb99ba9e	-0.004691436
84	0x3ea980ae	0.33105987
85	0xbbd43a2c	-0.006476661
86	0xbce7db78	-0.028302893
87	0xbddaf986	-0.10692124
88	0xbe9dd41a	-0.30825883
89	0xbdf40104	-0.11914256
90	0x3cab36fe	0.020900246
91	0x3cd75553	0.026285803
92	0x3d8206b6	0.06348936
93	0xbc0574da	-0.008145535
94	0xbe1afd8b	-0.15135781
95	0xbea085b7	-0.31352016
96	0x3da4216f	0.080141895
97	0x3e28d214	0.16486388
98	0x3dba2c91	0.090905316
99	0x3e72ee2c	0.23723668
100	0xbe4c5a9f	-0.19956444
101	0xbcf5d0eb	-0.030006846
102	0xbdd0e8cb	-0.10200652
103	0x3e68fb15	0.2275203
104	0xbd729a25	-0.059229035
105	0xbe8a8f70	-0.2706256
106	0xbc782df7	-0.015147678
107	0xbcd854ec	-0.026407681
108	0xbe8e7e4a	-0.27830726
109	0x3d45fc4f	0.048336323
110	0x3da40ff6	0.08010857
111	0x3ea6a329	0.32546356
112	0x3e1f67b6	0.15566906
113	0xbe27adc9	-0.16374888
114	0x3d09e3a4	0.03366436
115	0xbd511838	-0.051048487
116	0xbaa73ada	-0.0012758628
117	0xbe003753	-0.12521105
118	0x3ea1efee	0.31628364
119	0x3df743de	0.120734915
120	0xbe25120c	-0.16120166
121	0x3d00bcc9	0.03143004
122	0x3c7a9f74	0.015296806
123	0xbe542077	-0.2071551
124	0xbea519f1	-0.32246354
125	0x3dd2782c	0.10276827
126	0xbe2a2152	-0.16614273
127	0xbca30302	-0.019898895
128	0xbd0dc36a	-0.03461019
129	0xbbbd998e	-0.0057861274
130	0xbd1ea6b7	-0.03873321
131	0x3df42a35	0.11922113
132	0x3ddbd87a	0.10734649
133	0xbd5357b6	-0.05159732
134	0xbea95c88	-0.33078408
135	0xbe611559	-0.219808
136	0x3d85e0e5	0.06537036
137	0x3f019ee6	0.50633085
138	0xbc8b18c1	-0.016979577
139	0x3d007919	0.031365488
140	0xbe3c5a8a	-0.18393913
141	0xbe55887b	-0.20852844
142	0xbdc03209	-0.093845434
143	0x3e5fb5a3	0.21846633
144	0xbd817dd2	-0.063228264
145	0x3e32cbf1	0.1746061
146	0xbdc7bb70	-0.09752548
147	0xbe92bd99	-0.28660277
148	0x3d86510b	0.065584265
149	0x3e14e72a	0.14541307
150	0xbe0f15ac	-0.13973111
151	0x3e494df1	0.19658639
152	0x3e3ece03	0.18633275
153	0xbd05973d	-0.032614935
154	0x3e0b36b0	0.1359508
155	0xbe703980	-0.23459435
156	0x3e23eef8	0.16009128
157	0x3e5b2625	0.2140127
158	0x3df1cb53	0.11806359
159	0xbe1dccae	-0.1541011
160	0xbe3b1a2b	-0.18271701
161	0xbe884492	-0.26614815
162	0xbcbc5f84	-0.022994764
163	0xbe90eb72	-0.2830463
164	0x3e34f36c	0.17670983
165	0x3e1c7497	0.1527885
166	0xbce33b64	-0.02773828
167	0xbd854ffc	-0.065093964
168	0xbe613dd5	-0.21996243
169	0x3e33c6f1	0.17556359
170	0x3dfd9a49	0.12382943
171	0x3e3ad9bb	0.1824712
172	0x3e29ffc9	0.1660148
173	0xbe47b9fb	-0.1950454
174	0x3bc0c153	0.005882421
175	0x3c874b03	0.01651526
176	0xbe82e65a	-0.2556637
177	0x3d9eeb27	0.077596955
178	0xbe9a6673	-0.30156288
179	0xbe58921d	-0.21149488
180	0xbe4a49f3	-0.19754772
181	0xbe872645	-0.26396385
182	0xbdfdfcf1	-0.1240176
183	0xbe91abbe	-0.2845134
184	0x3d2c1d04	0.04201986
185	0x3e5d81a9	0.21631493
186	0x3d8837c5	0.06651262
187	0xbc83f1ee	-0.016106572
188	0xbe927c29	-0.28610352
189	0xbd02733a	-0.03184817
190	0xbc7e5325	-0.015522753
191	0xbcc35e63	-0.023848718
192	0x3d4e227a	0.05032585
193	0x3ebf2686	0.3733408
194	0x3cfe1be8	0.031019166
195	0x3e8d8925	0.27643695
196	0xbc476993	-0.012171167
197	0x3e79832d	0.24366446
198	0xbeb4fcdd	-0.3534917
199	0xbde05c6d	-0.10955129
200	0x3d190bef	0.037364896
201	0xbe28372a	-0.16427293
202	0x3d1d5f1b	0.038420778
203	0xbe9cbe83	-0.306141
204	0x3d07a260	0.033113837
205	0x3e8daf01	0.2767258
206	0xbd9788e6	-0.07399158
207	0x3e65ba0f	0.22434257
208	0x3e8295e4	0.25504982
209	0x3e338092	0.17529514
210	0x3dfe129d	0.12405894
211	0x3e892e70	0.26793242
212	0x3e141dab	0.14464442
213	0xbec370df	-0.3817205
214	0xbc306832	-0.01076703
215	0xbe2afeb8	-0.1669873
216	0xbd86b34a	-0.065771654
217	0xbe60cb17	-0.21952473
218	0x3d74c5c8	0.05975893
219	0x3b4a07de	0.0030827443
220	0xbda2cb2f	-0.079489104
221	0x3c68aa63	0.01420078
222	0x3e09f4cb	0.13472287
223	0x3d9ab0e7	0.07553273
224	0xbd8bbd60	-0.0682323
225	0xbe11614c	-0.14197272
226	0xbd00ad24	-0.03141512
227	0xbec550e8	-0.3853829
228	0xbddfca1b	-0.109272204
229	0xbc8f297d	-0.017475838
230	0xbdb52c77	-0.088463716
231	0xbe07955b	-0.13240568
232	0x3ca4edd8	0.020132944
233	0x3e3f89cd	0.1870491
234	0x3e0d4764	0.13796765
235	0x3ed42549	0.41434696
236	0x3dfe8533	0.124277495
237	0x3ddd6a2e	0.10811268
238	0xbded90bd	-0.11599872
239	0xbe2cffdb	-0.16894476
240	0xbd8953d6	-0.067054436
241	0xbea4c549	-0.32181767
242	0x3d9b485e	0.07582162
243	0x3d8bbfb9	0.068236776
244	0xbe12926d	-0.1431367
245	0x3e6ada1d	0.22934766
246	0x3de59be7	0.11211377
247	0x3dff836b	0.12476238
248	0xbe0a4b29	-0.13505234
249	0xbe2de7f6	-0.16983017
250	0x3db0fc1c	0.08641836
251	0xbe66db25	-0.22544535
252	0x3cde690d	0.027149701
253	0x3c955482	0.018228773
254	0xbe1e270d	-0.15444584
255	0x3d9df910	0.077135205

base.mlp.fc_h.0.bias f4 [64]
0	0x00000000	0.0
1	0x00000000	0.0
2	0x00000000	0.0
3	0x00000000	0.0
4	0x00000000	0.0
5	0x00000000	0.0
6	0x00000000	0.0
7	0x00000000	0.0
8	0x00000000	0.0
9	0x00000000	0.0
10	0x00000000	0.0
11	0x00000000	0.0
12	0x00000000	0.0
13	0x00000000	0.0
14	0x00000000	0.0
15	0x00000000	0.0
16	0x00000000	0.0
17	0x00000000	0.0
18	0x00000000	0.0
19	0x00000000	0.0
20	0x00000000	0.0
21	0x00000000	0.0
22	0x00000000	0.0
23	0x00000000	0.0
24	0x00000000	0.0
25	0x00000000	0.0
26	0x00000000	0.0
27	0x00000000	0.0
28	0x00000000	0.0
29	0x00000000	0.0
30	0x00000000	0.0
31	0x00000000	0.0
32	0x00000000	0.0
33	0x00000000	0.0
34	0x00000000	0.0
35	0x00000000	0.0
36	0x00000000	0.0
37	0x00000000	0.0
38	0x00000000	0.0
39	0x00000000	0.0
40	0x00000000	0.0
41	0x00000000	0.0
42	0x00000000	0.0
43	0x00000000	0.0
44	0x00000000	0.0
45	0x00000000	0.0
46	0x00000000	0.0
47	0x00000000	0.0
48	0x00000000	0.0
49	0x00000000	0.0
50	0x00000000	0.0
51	0x00000000	0.0
52	0x00000000	0.0
53	0x00000000	0.0
54	0x00000000	0.0
55	0x00000000	0.0
56	0x00000000	0.0
57	0x00000000	0.0
58	0x00000000	0.0
59	0x00000000	0.0
60	0x00000000	0.0
61	0x00000000	0.0
62	0x00000000	0.0
63	0x00000000	0.0

base.mlp.fc_h.2.weight f4 [64]
0	0x3f800000	1.0
1	0x3f800000	1.0
2	0x3f800000	1.0
3	0x3f800000	1.0
4	0x3f800000	1.0
5	0x3f800000	1.0
6	0x3f800000	1.0
7	0x3f800000	1.0
8	0x3f800000	1.0
9	0x3f800000	1.0
10	0x3f800000	1.0
11	0x3f800000	1.0
12	0x3f800000	1.0
13	0x3f800000	1.0
14	0x3f800000	1.0
15	0x3f800000	1.0
16	0x3f800000	1.0
17	0x3f800000	1.0
18	0x3f800000	1.0
19	0x3f800000	1.0
20	0x3f800000	1.0
21	0x3f800000	1.0
22	0x3f800000	1.0
23	0x3f800000	1.0
24	0x3f800000	1.0
25	0x3f800000	1.0
26	0x3f800000	1.0
27	0x3f800000	1.0
28	0x3f800000	1.0
29	0x3f800000	1.0
30	0x3f800000	1.0
31	0x3f800000	1.0
32	0x3f800000	1.0
33	0x3f800000	1.0
34	0x3f800000	1.0
35	0x3f800000	1.0
36	0x3f800000	1.0
37	0x3f800000	1.0
38	0x3f800000	1.0
39	0x3f800000	1.0
40	0x3f800000	1.0
41	0x3f800000	1.0
42	0x3f800000	1.0
43	0x3f800000	1.0
44	0x3f800000	1.0
45	0x3f800000	1.0
46	0x3f800000	1.0
47	0x3f800000	1.0
48	0x3f800000	1.0
49	0x3f800000	1.0
50	0x3f800000	1.0
51	0x3f800000	1.0
52	0x3f800000	1.0
53	0x3f800000	1.0
54	0x3f800000	1.0
55	0x3f800000	1.0
56	0x3f800000	1.0
57	0x3f800000	1.0
58	0x3f800000	1.0
59	0x3f800000	1.0
60	0x3f800000	1.0
61	0x3f800000	1.0
62	0x3f800000	1.0
63	0x3f800000	1.0

base.mlp.fc_h.2.bias f4 [64]
0	0x00000000	0.0
1	0x00000000	0.0
2	0x00000000	0.0
3	0x00000000	0.0
4	0x00000000	0.0
5	0x00000000	0.0
6	0x00000000	0.0
7	0x00000000	0.0
8	0x00000000	0.0
9	0x00000000	0.0
10	0x00000000	0.0
11	0x00000000	0.0
12	0x00000000	0.0
13	0x00000000	0.0
14	0x00000000	0.0
15	0x00000000	0.0
16	0x00000000	0.0
17	0x00000000	0.0
18	0x00000000	0.0
19	0x00000000	0.0
20	0x00000000	0.0
21	0x00000000	0.0
22	0x00000000	0.0
23	0x00000000	0.0
24	0x00000000	0.0
25	0x00000000	0.0
26	0x00000000	0.0
27	0x00000000	0.0
28	0x00000000	0.0
29	0x00000000	0.0
30	0x00000000	0.0
31	0x00000000	0.0
32	0x00000000	0.0
33	0x00000000	0.0
34	0x00000000	0.0
35	0x00000000	0.0
36	0x00000000	0.0
37	0x00000000	0.0
38	0x00000000	0.0
39	0x00000000	0.0
40	0x00000000	0.0
41	0x00000000	0.0
42	0x00000000	0.0
43	0x00000000	0.0
44	0x00000000	0.0
45	0x00000000	0.0
46	0x00000000	0.0
47	0x00000000	0.0
48	0x00000000	0.0
49	0x00000000	0.0
50	0x00000000	0.0
51	0x00000000	0.0
52	0x00000000	0.0
53	0x00000000	0.0
54	0x00000000	0.0
55	0x00000000	0.0
56	0x00000000	0.0
57	0x00000000	0.0
58	0x00000000	0.0
59	0x00000000	0.0
60	0x00000000	0.0
61	0x00000000	0.0
62	0x00000000	0.0
63	0x00000000	0.0

base.mlp.fc2.0.0.weight f4 [64, 64]
0	0x3c7a3ed6	0.01527377
1	0x3bc40bb9	0.0059828428
2	0x3d167158	0.036729187
3	0x3ee65ff2	0.44995075
4	0x3dcd9720	0.100385904
5	0xbee32271	-0.44362214
6	0x3da23e32	0.07922019
7	0x3d24bb86	0.0402179
8	0x3d0cf738	0.034415454
9	0x3d8ab1a9	0.06772167
10	0x3e28861b	0.16457407
11	0xbe708291	-0.23487307
12	0x3dd6eb70	0.10494125
13	0x3e8ae20c	0.27125585
14	0x3e8704e3	0.26370916
15	0xbead23cf	-0.33816382
16	0xbe8d1ebf	-0.2756252
17	0x3c86f716	0.016475242
18	0xbdced75c	-0.1009967
19	0x3dbd6eb5	0.09249631
20	0xbd44c3c7	-0.04803827
21	0x3e676ebd	0.22600837
22	0xbdc786b4	-0.097424895
23	0xbef06116	-0.4694907
24	0x3e908b1c	0.28231132
25	0xbeac05e8	-0.33598256
26	0x3e0630ca	0.13104549
27	0xbe4984eb	-0.1967961
28	0x3edbeb33	0.4295288
29	0xba726119	-0.0009246036
30	0xbe4c10b9	-0.19928254
31	0xbd570e15	-0.052503664
32	0xbdb5eb02	-0.08882715
33	0xbdb2e26a	-0.08734591
34	0x3e8daea0	0.2767229
35	0xbdfb4a27	-0.12270003
36	0x3c452788	0.012033351
37	0x3ca42e5b	0.020041635
38	0x3df931d3	0.12167706
39	0xbbb2aed4	-0.00545297
40	0xbdc6ab27	-0.097006135
41	0xbd7691f1	-0.060197774
42	0x3ce2e293	0.02769593
43	0xbd249686	-0.040182613
44	0xbe09df81	-0.13464166
45	0x3e2b29e6	0.16715202
46	0x3d34ea97	0.044169035
47	0x3dc9dad1	0.09856189
48	0xbe33f94c	-0.17575568
49	0xbdb93cb5	-0.09044782
50	0x3be5e634	0.0070159677
51	0xbae3e149	-0.0017385866
52	0x3e4b7404	0.19868475
53	0x3eb039df	0.34419152
54	0x3e94ea74	0.29085124
55	0xbe3f51b2	-0.18683508
56	0xbde71618	-0.11283511
57	0x3d176d5e	0.036969535
58	0xbdb07d99	-0.08617706
59	0xbde53cfd	-0.11193273
60	0xbd31a145	-0.04336669
61	0xbe230de2	-0.15923265
62	0x3ef19a77	0.4718816
63	0xbd585022	-0.052810796
64	0xbe54d4e6	-0.2078434
65	0x3d6f0eed	0.058363844
66	0x3ea3fed1	0.32030347
67	0xbe93a335	-0.28835455
68	0xbd70e2b8	-0.058809966
69	0xbe96dd2c	-0.29465616
70	0xbe96b7ae	-0.2943701
71	0xbe93b421	-0.28848365
72	0x3d1d5aca	0.03841666
73	0x3dee2771	0.116286166
74	0x3eab5534	0.33463442
75	0xbe500cf1	-0.20317437
76	0xbddf8a9f	-0.10915112
77	0xbeb42082	-0.35181051
78	0x3d9dcd26	0.077051446
79	0x3e4f1bdd	0.20225473
80	0x3ddfe428	0.10932189
81	0x3eae9719	0.34099653
82	0x3e5a863b	0.21340267
83	0xbcfdfcbb	-0.0310043
84	0x3ed83d6e	0.42234367
85	0xbc0e188e	-0.0086728465
86	0x3c19caa2	0.00938669
87	0xbdc34340	-0.09534311
88	0xbeb686de	-0.3564977
89	0xbd9b0ac2	-0.07570411
90	0x3c904d14	0.017614879
91	0xbc12d5e9	-0.008962133
92	0x3dbabb68	0.09117776
93	0xbd420f62	-0.04737795
94	0xbe4377be	-0.19088647
95	0xbeabe65a	-0.33574182
96	0x3d5b5108	0.053544074
97	0x3e0e14d5	0.13875134
98	0x3da02d0f	0.07821094
99	0x3e8dada4	0.2767154
100	0xbe4093f5	-0.18806441
101	0xbd6f5313	-0.058428835
102	0xbdfbbda8	-0.122920334
103	0x3e8ef956	0.27924603
104	0xbdcbb255	-0.099461235
105	0xbe975db8	-0.2956369
106	0xbc33456a	-0.010941843
107	0xbd321b69	-0.04348317
108	0xbea555c2	-0.3229199
109	0x3da3b83d	0.07994125
110	0x3dc50b98	0.09621352
111	0x3ebbbfbe	0.36669725
112	0x3e0eec4f	0.13957332
113	0xbe3cbc98	-0.18431318
114	0x3d90f451	0.0707785
115	0xbda10885	-0.07862953
116	0xbd3622a9	-0.04446665
117	0xbdfde162	-0.12396504
118	0x3eb5f278	0.3553655
119	0x3dfe0d82	0.1240492
120	0xbe160878	-0.14651668
121	0x3abc5b3f	0.0014370455
122	0x3d2da43f	0.042392965
123	0xbe40e5e2	-0.18837693
124	0xbeb78ad6	-0.3584811
125	0x3e02deb1	0.12780263
126	0xbe221222	-0.1582723
127	0xbdb20d15	-0.086939014
128	0xbc89f89d	-0.01684218
129	0x3c96d7be	0.01841342
130	0xbd34addb	-0.044111114
131	0x3de4aa49	0.11165292
132	0x3e19c383	0.15015988
133	0xbdad818d	-0.084719755
134	0xbe9fbc3b	-0.31198296
135	0xbe5f60bf	-0.2181425
136	0x3d0b0960	0.033944488
137	0x3f038f2b	0.5139033
138	0xbc0e85f5	-0.00869893
139	0x3d45e29b	0.04831181
140	0xbe23875a	-0.15969601
141	0xbe457671	-0.19283463
142	0xbd95f549	-0.07322175
143	0x3e74e01d	0.23913617
144	0xbd9a8c0e	-0.075462446
145	0x3e4c67de	0.19961497
146	0xbde43ff0	-0.111450076
147	0xbe8ad005	-0.2711183
148	0x3da1671f	0.07880997
149	0x3de66b83	0.11250975
150	0xbe4b2727	-0.19839154
151	0x3e32b9ab	0.17453639
152	0x3e53dcdd	0.20689721
153	0xbd380e64	-0.0449356
154	0x3dbd8fa8	0.09255916
155	0xbe6efb06	-0.23337945
156	0x3e05fb4b	0.13084142
157	0x3e59c983	0.21268277
158	0x3e230dfd	0.15923305
159	0xbe179eba	-0.14806643
160	0xbe1c161d	-0.1524281
161	0xbe78a248	-0.24280655
162	0xbc7ee324	-0.015557084
163	0xbe952956	-0.291331
164	0x3e06c4d4	0.13161021
165	0x3e51174e	0.20419046
166	0xbd5127e6	-0.05106344
167	0xbdb79607	-0.08964162
168	0xbe546110	-0.20740151
169	0x3e3912e8	0.18073618
170	0x3dad064e	0.08448468
171	0x3e1842cf	0.14869235
172	0x3e2e8b48	0.17045319
173	0xbe344812	-0.17605618
174	0x3c6992df	0.014256208
175	0x3a9b7f4a	0.0011863497
176	0xbe66b718	-0.22530782
177	0x3dbbf383	0.091773055
178	0xbe9b5f14	-0.30345976
179	0xbe4785de	-0.1948466
180	0xbe29efc2	-0.16595367
181	0xbe505d2c	-0.20348042
182	0xbde2ce12	-0.11074461
183	0xbe9ad753	-0.30242404
184	0x3c59731c	0.013272073
185	0x3e737f48	0.23779023
186	0x3d27bc31	0.040950958
187	0xbd0b03cc	-0.033939168
188	0xbe8f0710	-0.27935076
189	0xbd84d8d0	-0.06486666
190	0xbd024e3d	-0.031812895
191	0xbd2731bc	-0.040818915
192	0x3d4c4e8b	0.049879592
193	0x3ed2b536	0.41153878
194	0x3c6d343d	0.014477787
195	0x3e89f330	0.2694335
196	0x3c48af53	0.012248832
197	0x3e6409ee	0.22269413
198	0xbeb200a7	-0.34766123
199	0xbe17f232	-0.14838484
200	0x3c3592a9	0.01108233
201	0xbe2d7df8	-0.16942585
202	0x3d545c39	0.051845763
203	0xbea1a11e	-0.31568235
204	0x3d421d66	0.047391318
205	0x3eaebd2e	0.34128708
206	0xbd6083f7	-0.05481335
207	0x3e8475b3	0.25871047
208	0x3e8199df	0.25312707
209	0x3e4e24ee	0.20131275
210	0x3e0292cd	0.12751313
211	0x3e95b4a3	0.29239377
212	0x3e27570d	0.16341801
213	0xbecb02e2	-0.39650637
214	0xbd186e14	-0.037214354
215	0xbe369f3c	-0.1783418
216	0xbda0e4e2	-0.07856156
217	0xbe5749da	-0.21024266
218	0x3cf13380	0.029443502
219	0x3c16f419	0.009213471
220	0xbd9c504a	-0.076325014
221	0xba81b903	-0.0009897057
222	0x3e235cc4	0.15953356
223	0x3e0176e8	0.12643015
224	0xbd336f92	-0.043807574
225	0xbe04a903	-0.12955098
226	0xbd9ccf12	-0.07656683
227	0xbecab460	-0.3959074
228	0xbe0ee277	-0.13953577
229	0x3cba1f8a	0.022720117
230	0xbd9e4771	-0.0772847
231	0xbe305818	-0.17221105
232	0x3cb82894	0.022480287
233	0x3e044cd8	0.12919939
234	0x3dd1ec26	0.1025012
235	0x3ecea01b	0.40356526
236	0x3e23fbdb	0.16014044
237	0x3da771ba	0.081759885
238	0xbdd29592	-0.102824345
239	0xbdfcc623	-0.12342479
240	0xbd127297	-0.035753813
241	0xbe96e6c3	-0.29472932
242	0x3cb34c7b	0.021887055
243	0x3d922765	0.0713642
244	0xbe00b186	-0.1256772
245	0x3e6cd5e9	0.23128475
246	0x3e146fba	0.14495745
247	0x3dcb506a	0.09927447
248	0xbe2bcd91	-0.16777636
249	0xbe2594ff	-0.16170119
250	0x3d708c60	0.058727622
251	0xbe7952b5	-0.24347956
252	0x3c9c45a8	0.019076183
253	0xbaf4056e	-0.0018617341
254	0xbe37dcd0	-0.17955327
255	0x3d85ce70	0.065335155

base.mlp.fc2.0.0.bias f4 [64]
0	0x3cc88649	0.024478095
1	0x3d109f95	0.03530844
2	0xbbcd8652	-0.0062721157
3	0x3bb019f4	0.0053741876
4	0x3da80187	0.08203416
5	0x3bd5a425	0.0065198117
6	0x3c80f8bc	0.015743606
7	0xbc4f5c55	-0.012656291
8	0x3c20c8ad	0.00981347
9	0x3c0739b3	0.008253503
10	0x3ba56ca8	0.005048353
11	0x3d19ab11	0.037516657
12	0x3b52b175	0.003214923
13	0x3daa5ea8	0.083188355
14	0xbc30bb1d	-0.010786799
15	0x3ce740bb	0.028229108
16	0xbae0533a	-0.0017114647
17	0x3bea24a6	0.007145482
18	0x3ca3d666	0.019999694
19	0x3c7d729c	0.01546922
20	0x3b993dcf	0.0046765576
21	0x3d0ea13b	0.03482173
22	0x3cea860c	0.028628372
23	0xbc23fd8f	-0.010009184
24	0x3cb0e3b8	0.02159296
25	0x3b9e0176	0.0048219515
26	0x3c9b1aee	0.01893374
27	0x3d1092ac	0.035296127
28	0x3dabebf1	0.083946116
29	0xbc99f3bf	-0.018792985
30	0xbc904f10	-0.017615825
31	0x3b15cb05	0.0022856605
32	0x3c209ee9	0.009803512
33	0xbbc75962	-0.0060836533
34	0x3d8c507a	0.06851287
35	0x3caf741e	0.021417674
36	0xbc31c170	-0.010849342
37	0x3d8fde34	0.07024804
38	0x3d3928e6	0.04520502
39	0x3cb84279	0.022492634
40	0x3c089284	0.008335713
41	0xbc84889c	-0.016178422
42	0x3ccbf6e1	0.024897994
43	0xbab799f6	-0.0014007676
44	0xbc493bc9	-0.01228232
45	0x3c91c8f6	0.017796021
46	0x3dc653a7	0.09683924
47	0x3a733e2e	0.000927898
48	0x3da8fa52	0.0825087
49	0x3c5244d4	0.012833793
50	0x3cd98b2b	0.026555618
51	0x3dba8ab9	0.091084905
52	0x3c99c118	0.018768832
53	0x3bbb1059	0.005708736
54	0x3d1e8a15	0.038705904
55	0x3c80207b	0.015640488
56	0x3cd74023	0.0262757
57	0xbad29667	-0.0016066552
58	0x3d8bffff	0.06835937
59	0x3da4ba35	0.08043329
60	0xbc96093a	-0.018314946
61	0xbb2d1747	-0.002641158
62	0x3c59f667	0.013303376
63	0x3b0abc62	0.0021169414

base.mlp.fc2.0.2.weight f4 [64]
0	0x3f789fb1	0.9711867
1	0x3f7b79b7	0.982326
2	0x3f72db47	0.9486584
3	0x3f71646f	0.94293875
4	0x3f7d0d9f	0.9884891
5	0x3f6dab6a	0.9283968
6	0x3f6bff45	0.92186385
7	0x3f7140c1	0.9423943
8	0x3f708e1f	0.9396686
9	0x3f6fb196	0.9363035
10	0x3f700580	0.9375839
11	0x3f819006	1.0122077
12	0x3f6bc3e6	0.9209579
13	0x3f80c7d6	1.0060985
14	0x3f70612b	0.93898267
15	0x3f784cf0	0.969924
16	0x3f7896e6	0.9710525
17	0x3f6ca9ca	0.9244658
18	0x3f77f0d8	0.96851873
19	0x3f7950b5	0.97388774
20	0x3f762eb9	0.96165043
21	0x3f79484f	0.9737596
22	0x3f7ef9a3	0.99599665
23	0x3f704f6b	0.9387118
24	0x3f7646e8	0.96201944
25	0x3f734f67	0.95043033
26	0x3f7aa2c3	0.97904605
27	0x3f805559	1.0026046
28	0x3f81204c	1.0087981
29	0x3f73bfd6	0.95214593
30	0x3f6f83b7	0.93560356
31	0x3f6fd184	0.9367907
32	0x3f78dca5	0.97211677
33	0x3f728514	0.9473431
34	0x3f7da5d1	0.9908114
35	0x3f7800c9	0.968762
36	0x3f73779e	0.95104396
37	0x3f7aa92f	0.97914404
38	0x3f7a459d	0.9776247
39	0x3f7697f8	0.96325636
40	0x3f6c2121	0.9223805
41	0x3f713004	0.9421389
42	0x3f790354	0.97270703
43	0x3f76a3b7	0.9634356
44	0x3f73ec28	0.9528222
45	0x3f759447	0.9592938
46	0x3f7bb205	0.9831851
47	0x3f78a07b	0.97119874
48	0x3f7f0eeb	0.9963214
49	0x3f74385a	0.95398486
50	0x3f7c9fed	0.9868153
51	0x3f7e24bb	0.99274796
52	0x3f74fd6b	0.95699185
53	0x3f77a6a8	0.9673867
54	0x3f7a019a	0.97658694
55	0x3f70895c	0.93959594
56	0x3f750404	0.9570925
57	0x3f6ef14e	0.9333695
58	0x3f7e3a3b	0.993076
59	0x3f80d5ed	1.0065285
60	0x3f71442b	0.9424464
61	0x3f6e36e7	0.93052524
62	0x3f773da9	0.9657846
63	0x3f79af54	0.97533154

base.mlp.fc2.0.2.bias f4 [64]
0	0xbc3047f8	-0.010759346
1	0x3c35769b	0.011075641
2	0xbc35f3fd	-0.011105535
3	0xbc338979	-0.010958069
4	0xbc3be80a	-0.011468897
5	0x3c3886ba	0.01126259
6	0x3c370b4c	0.011172127
7	0xbc373b8a	-0.011183629
8	0x3c374256	0.011185249
9	0x3c37f602	0.011228086
10	0x3c3924b0	0.011300251
11	0x3c331b2d	0.010931772
12	0x3c387d5e	0.011260359
13	0xbc5726b8	-0.01313179
14	0xbc373dcf	-0.01118417
15	0x3c3636bf	0.011121451
16	0xbc37aa21	-0.0112099955
17	0x3c384ea3	0.011249217
18	0x3c37ce44	0.011218611
19	0xbc36bb4c	-0.0111530535
20	0xbc360307	-0.01110912
21	0x3c3b3a45	0.011427467
22	0x3c3b6f05	0.011440043
23	0xbc37e7b1	-0.011224673
24	0x3c3973ed	0.011319143
25	0xbc34a112	-0.01102473
26	0xbc37d155	-0.011219342
27	0x3c3b5d68	0.011435844
28	0xbb3ceba9	-0.0028826988
29	0xbc3a0585	-0.011353855
30	0xbc383674	-0.011243451
31	0x3c391586	0.0112966355
32	0xbc377ccc	-0.0111991875
33	0xbc372111	-0.011177317
34	0xbc31dee0	-0.01085636
35	0x3c3797fe	0.011205671
36	0xbc38c6ac	-0.011277836
37	0x3c2719a5	0.010198985
38	0xbc2e35bc	-0.010632928
39	0x3c381c63	0.011237237
40	0x3c38dfc5	0.01128382
41	0xbc37f6fa	-0.011228317
42	0x3c3955fa	0.011312002
43	0xbc37a034	-0.011207629
44	0xbc37513f	-0.011188804
45	0x3c37878b	0.01120175
46	0x3c0f6f1a	0.008754516
47	0xbc3605c0	-0.011109769
48	0xbc35d3c8	-0.011097856
49	0xbc34d88e	-0.011037959
50	0x3c38d8fb	0.011282201
51	0xbc3902cd	-0.011292172
52	0x3c370fed	0.011173231
53	0xbc33abb4	-0.01096623
54	0x3c343140	0.01099807
55	0x3c3657d0	0.011129335
56	0x3c35fe48	0.011107989
57	0xbc34870a	-0.011018524
58	0x3c21d59a	0.009877587
59	0xbc2e62b9	-0.0106436545
60	0xbc39ca2b	-0.0113397045
61	0xbc3590c1	-0.011081875
62	0xbc3318a8	-0.0109311715
63	0xbc393390	-0.011303797

v_out.weight f4 [1, 64]
0	0x3beeba98	0.0072854273
1	0xbcce373b	-0.02517282
2	0x3d31d702	0.043417938
3	0x3c880ff8	0.016609177
4	0x3ae0da75	0.0017154949
5	0xbe278628	-0.1635977
6	0xbdadfa13	-0.084949635
7	0x3d9accd4	0.07558599
8	0xbda1027b	-0.07861801
9	0xbdd71293	-0.105015896
10	0xbe3628bc	-0.17788976
11	0xbd0e5059	-0.034744594
12	0xbe211190	-0.15729356
13	0x3c897834	0.01678095
14	0x3dc8199e	0.09770511
15	0xbcbda5b5	-0.023150304
16	0x3d0bff18	0.034178823
17	0xbe15ee93	-0.1464179
18	0xbd4ff308	-0.050768882
19	0x3cce7b63	0.02520532
20	0x3ce2acff	0.027670382
21	0xbcb9ad75	-0.022665719
22	0xbd42b4a3	-0.04753555
23	0x3dd36400	0.10321808
24	0xbd732e48	-0.05937031
25	0x3cecfea0	0.028930008
26	0x3c71762f	0.01473765
27	0xbd185fcd	-0.037200738
28	0xbc97c9f1	-0.01852891
29	0x3e0158d5	0.12631543
30	0x3de22955	0.1104304
31	0xbe2a02d4	-0.16602641
32	0x3cee6f95	0.02910594
33	0x3d8939cb	0.06700476
34	0x3c16435c	0.009171333
35	0xbd253bc4	-0.0403402
36	0x3dec91e3	0.11551263
37	0xbbbf3a91	-0.005835839
38	0xbb9736d7	-0.0046146917
39	0xbd648d5f	-0.055798884
40	0xbe3eb40b	-0.18623368
41	0x3dd064ff	0.101755135
42	0xbd6c245d	-0.057651866
43	0x3d74a06b	0.0597233
44	0x3d8e8804	0.06959537
45	0xbd827da4	-0.0637162
46	0xbc1460e4	-0.009056304
47	0x3cb88276	0.022523146
48	0x3bbcdd89	0.0057637137
49	0x3cd6a968	0.026203826
50	0xbd835baf	-0.06413972
51	0xba8934b2	-0.0010467975
52	0xbd7724f1	-0.060337964
53	0x3cc2761b	0.023737958
54	0xbcb2d13a	-0.021828283
55	0xbd578fab	-0.052627247
56	0xbcdc943a	-0.026926149
57	0x3d1c4c56	0.038158737
58	0x3c29c8f7	0.010362855
59	0x3bf509df	0.0074779834
60	0x3e662252	0.2247403
61	0x3d57d0f2	0.0526895
62	0x3c7bf9d0	0.015379384
63	0x3d807f52	0.062742844
