results/MyEnv/MyEnv/mappo/check/run13/models/actor.pt (torch, 40501 bytes, 13 tensors)

base.mlp.fc1.0.weight f4 [64, 1]
000000 f5 73 e9 3d 22 8c 91 be 1d ef 67 3d ef 90 44 3e
       0.1139907 -0.28427225 0.05662452 0.19195913
000010 16 98 46 bd 8a 58 90 be 73 0c d0 3d f5 cc 03 be
       -0.048484884 -0.2819255 0.101586245 -0.12871154
000020 28 ff 83 be dc 56 99 be 23 fa b1 3d cd 83 d8 3d
       -0.25780606 -0.2994908 0.08690288 0.10572014
000030 58 0b bc 3e 67 2d dd 3d e3 5e 8c 3e c1 00 93 be
       0.36727405 0.107996754 0.27416143 -0.28711513
000040 d4 61 5f be bb 1b 21 be 0e a2 77 3e e9 59 d2 3d
       -0.21814662 -0.15733235 0.24182913 0.10271055
000050 6c ff 9a 3d ad 74 8c bd 64 b1 b4 3d 8a 8c 7d be
       0.07568249 -0.06858192 0.08822897 -0.24760643
000060 26 cb a9 3d 3e a7 8b 3c 0c 78 30 3d e0 12 59 3e
       0.082907006 0.01704752 0.043083236 0.21198606
000070 ae 0c 8f 3e c7 f9 97 3e 04 7d e7 bd da 7f d1 3e
       0.2793936 0.29682752 -0.11303142 0.40917856
000080 25 d5 88 3d 29 6c 0b bd 3f a2 09 be 81 a5 89 bd
       0.06681279 -0.034038696 -0.13440798 -0.067210205
000090 b0 81 cc bd 41 23 20 be 94 59 0f 3e 1c c6 21 3e
       -0.099856734 -0.15638448 0.13999015 0.15798229
0000a0 fa e7 4a 3d 55 2d 79 3e b4 7c 45 3e de bf 94 be
       0.049537636 0.24333699 0.19285852 -0.29052633
0000b0 82 38 84 bd dd 29 1d be 69 73 5a ba f2 c1 4e bc
       -0.064560905 -0.15348001 -0.00083332375 -0.012619482
0000c0 4b 3d 0a 3e 66 02 3f 3e 1c af ac 3d ea a9 84 3e
       0.13499944 0.18653259 0.08431837 0.25910884
0000d0 84 f4 1d be 8d 83 b9 3c 83 89 d6 bc 5a ca 6a bd
       -0.15425307 0.022645736 -0.026188618 -0.057321884
0000e0 c4 1a 8d 3e 1b f9 46 bd d3 90 1c 3d a9 39 5c 3e
       0.27559483 -0.04857741 0.038224053 0.2150637
0000f0 95 50 87 3c 3f 4d 34 3e b3 f2 5f bd 9e 3a 1b 3e
       0.016517917 0.17607592 -0.054674815 0.1515908

base.mlp.fc1.0.bias f4 [64]
000000 00 00 00 00 00 00 00 00 00 00 00 00 00 00 00 00
       0.0 0.0 0.0 0.0
000010 00 00 00 00 00 00 00 00 00 00 00 00 00 00 00 00
       0.0 0.0 0.0 0.0
000020 00 00 00 00 00 00 00 00 00 00 00 00 00 00 00 00
       0.0 0.0 0.0 0.0
000030 00 00 00 00 00 00 00 00 00 00 00 00 00 00 00 00
       0.0 0.0 0.0 0.0
000040 00 00 00 00 00 00 00 00 00 00 00 00 00 00 00 00
       0.0 0.0 0.0 0.0
000050 00 00 00 00 00 00 00 00 00 00 00 00 00 00 00 00
       0.0 0.0 0.0 0.0
000060 00 00 00 00 00 00 00 00 00 00 00 00 00 00 00 00
       0.0 0.0 0.0 0.0
000070 00 00 00 00 00 00 00 00 00 00 00 00 00 00 00 00
       0.0 0.0 0.0 0.0
000080 00 00 00 00 00 00 00 00 00 00 00 00 00 00 00 00
       0.0 0.0 0.0 0.0
000090 00 00 00 00 00 00 00 00 00 00 00 00 00 00 00 00
       0.0 0.0 0.0 0.0
0000a0 00 00 00 00 00 00 00 00 00 00 00 00 00 00 00 00
       0.0 0.0 0.0 0.0
0000b0 00 00 00 00 00 00 00 00 00 00 00 00 00 00 00 00
       0.0 0.0 0.0 0.0
0000c0 00 00 00 00 00 00 00 00 00 00 00 00 00 00 00 00
       0.0 0.0 0.0 0.0
0000d0 00 00 00 00 00 00 00 00 00 00 00 00 00 00 00 00
       0.0 0.0 0.0 0.0
0000e0 00 00 00 00 00 00 00 00 00 00 00 00 00 00 00 00
       0.0 0.0 0.0 0.0
0000f0 00 00 00 00 00 00 00 00 00 00 00 00 00 00 00 00
       0.0 0.0 0.0 0.0

base.mlp.fc1.2.weight f4 [64]
000000 00 00 80 3f 00 00 80 3f 00 00 80 3f 00 00 80 3f
       1.0 1.0 1.0 1.0
000010 00 00 80 3f 00 00 80 3f 00 00 80 3f 00 00 80 3f
       1.0 1.0 1.0 1.0
000020 00 00 80 3f 00 00 80 3f 00 00 80 3f 00 00 80 3f
       1.0 1.0 1.0 1.0
000030 00 00 80 3f 00 00 80 3f 00 00 80 3f 00 00 80 3f
       1.0 1.0 1.0 1.0
000040 00 00 80 3f 00 00 80 3f 00 00 80 3f 00 00 80 3f
       1.0 1.0 1.0 1.0
000050 00 00 80 3f 00 00 80 3f 00 00 80 3f 00 00 80 3f
       1.0 1.0 1.0 1.0
000060 00 00 80 3f 00 00 80 3f 00 00 80 3f 00 00 80 3f
       1.0 1.0 1.0 1.0
000070 00 00 80 3f 00 00 80 3f 00 00 80 3f 00 00 80 3f
       1.0 1.0 1.0 1.0
000080 00 00 80 3f 00 00 80 3f 00 00 80 3f 00 00 80 3f
       1.0 1.0 1.0 1.0
000090 00 00 80 3f 00 00 80 3f 00 00 80 3f 00 00 80 3f
       1.0 1.0 1.0 1.0
0000a0 00 00 80 3f 00 00 80 3f 00 00 80 3f 00 00 80 3f
       1.0 1.0 1.0 1.0
0000b0 00 00 80 3f 00 00 80 3f 00 00 80 3f 00 00 80 3f
       1.0 1.0 1.0 1.0
0000c0 00 00 80 3f 00 00 80 3f 00 00 80 3f 00 00 80 3f
       1.0 1.0 1.0 1.0
0000d0 00 00 80 3f 00 00 80 3f 00 00 80 3f 00 00 80 3f
       1.0 1.0 1.0 1.0
0000e0 00 00 80 3f 00 00 80 3f 00 00 80 3f 00 00 80 3f
       1.0 1.0 1.0 1.0
0000f0 00 00 80 3f 00 00 80 3f 00 00 80 3f 00 00 80 3f
       1.0 1.0 1.0 1.0

base.mlp.fc1.2.bias f4 [64]
000000 00 00 00 00 00 00 00 00 00 00 00 00 00 00 00 00
       0.0 0.0 0.0 0.0
000010 00 00 00 00 00 00 00 00 00 00 00 00 00 00 00 00
       0.0 0.0 0.0 0.0
000020 00 00 00 00 00 00 00 00 00 00 00 00 00 00 00 00
       0.0 0.0 0.0 0.0
000030 00 00 00 00 00 00 00 00 00 00 00 00 00 00 00 00
       0.0 0.0 0.0 0.0
000040 00 00 00 00 00 00 00 00 00 00 00 00 00 00 00 00
       0.0 0.0 0.0 0.0
000050 00 00 00 00 00 00 00 00 00 00 00 00 00 00 00 00
       0.0 0.0 0.0 0.0
000060 00 00 00 00 00 00 00 00 00 00 00 00 00 00 00 00
       0.0 0.0 0.0 0.0
000070 00 00 00 00 00 00 00 00 00 00 00 00 00 00 00 00
       0.0 0.0 0.0 0.0
000080 00 00 00 00 00 00 00 00 00 00 00 00 00 00 00 00
       0.0 0.0 0.0 0.0
000090 00 00 00 00 00 00 00 00 00 00 00 00 00 00 00 00
       0.0 0.0 0.0 0.0
0000a0 00 00 00 00 00 00 00 00 00 00 00 00 00 00 00 00
       0.0 0.0 0.0 0.0
0000b0 00 00 00 00 00 00 00 00 00 00 00 00 00 00 00 00
       0.0 0.0 0.0 0.0
0000c0 00 00 00 00 00 00 00 00 00 00 00 00 00 00 00 00
       0.0 0.0 0.0 0.0
0000d0 00 00 00 00 00 00 00 00 00 00 00 00 00 00 00 00
       0.0 0.0 0.0 0.0
0000e0 00 00 00 00 00 00 00 00 00 00 00 00 00 00 00 00
       0.0 0.0 0.0 0.0
0000f0 00 00 00 00 00 00 00 00 00 00 00 00 00 00 00 00
       0.0 0.0 0.0 0.0

base.mlp.fc_h.0.weight f4 [64, 64]
000000 2f 38 43 be 8e e1 c9 bd 45 e8 63 be e6 c5 8e 3d
       -0.19064401 -0.09857474 -0.22256573 0.0697134
000010 00 ec 81 bd 66 d0 29 be b0 fd cd bd 57 86 00 3e
       -0.063438416 -0.16583404 -0.10058153 0.12551247
000020 1e 2b 32 3e b8 8b 20 3e ad 69 2b 3e 4f 31 ae 3e
       0.1739926 0.15678298 0.16739531 0.34021994
000030 29 6f 03 bd b2 98 07 be 68 ed 2c 3e 65 a9 40 3e
       -0.032088432 -0.13241842 0.16887438 0.18814619
000040 93 fd f4 3d 77 30 5c 3e 48 9b 2e 3e e2 e2 9d 3c
       0.11962428 0.21502863 0.17051423 0.019273225
000050 2c ec 89 be cb 15 f3 bd a0 bb 2b 3d 87 ad a3 3d
       -0.26937997 -0.11869391 0.04192698 0.07992082
000060 3c b3 b3 be 68 2f 01 be 5b 1e 77 3e 4b 38 c0 3d
       -0.35097682 -0.1261574 0.24132673 0.09385737
000070 03 02 2e 3d 7d df c2 3e cf 64 b9 bd af 38 f1 3d
       0.042482387 0.38061133 -0.09052431 0.1177839
000080 3a 05 8e be 49 b0 b8 bc ac 3e f4 3d 80 5c 0b 3e
       -0.27738363 -0.022544997 0.11926016 0.13609505
000090 93 54 00 3d 18 74 49 be 34 86 93 3d 40 6a 52 be
       0.031330656 -0.19673193 0.072033316 -0.20548344
0000a0 a9 48 ba 3d aa 46 be bd 19 dd 37 be bf 65 81 3e
       0.0909589 -0.09290822 -0.17955436 0.2527294
0000b0 bf 09 be 3b 72 2b 41 bd be 26 d2 be b0 9f 31 3e
       0.0057995017 -0.047160573 -0.41045183 0.17346072
0000c0 ad 64 37 3c 06 28 0a be 5a 39 36 3e 65 35 d6 3d
       0.011193437 -0.1349183 0.17795315 0.10459403
0000d0 c5 a6 1f 3d 45 69 9a 3d e9 f7 c7 bd 68 d4 03 3e
       0.038977403 0.0753961 -0.09764082 0.12873995
0000e0 aa 91 9c be 95 6b 14 3d a2 06 b6 bd 26 36 e3 3e
       -0.30579883 0.03623541 -0.08887984 0.4437725
0000f0 85 71 3f be bb 4f 89 3d 1b fc 6d 3e e4 57 5b 3d
       -0.18695648 0.067046605 0.23240702 0.053550616
000100 9f 61 3a 3b a7 47 d9 bd 55 2e 16 3e 76 3b ed bd
       0.0028439534 -0.1060937 0.14666112 -0.11583607
000110 5c 2c 1b be ec 52 3d 3e f3 f8 55 3e c6 57 7f bd
       -0.1515364 0.18488663 0.20895748 -0.062339567
000120 48 4c 57 be 3d c7 14 bd c2 a2 89 3d f6 d0 5a 3e
       -0.21025193 -0.03632282 0.06720497 0.21368775
000130 10 d3 f6 3a aa 1c e8 3b 0f 79 f7 bc 40 ac 2d bd
       0.0018831212 0.007083495 -0.030209092 -0.0424006
000140 e2 2d 0b bd 6d c2 b0 be 74 93 46 be 5f 41 50 3d
       -0.033979304 -0.34523335 -0.19392186 0.050843593
000150 d2 bc 3c be bd b6 2d 3e a5 95 80 be 20 f2 80 be
       -0.18431404 0.1696424 -0.2511417 -0.25184727
000160 35 87 96 bd bc e0 4c bd e8 5a 71 3e eb 04 a5 bd
       -0.073500074 -0.05001901 0.23569834 -0.08057579
000170 6a cc 2b 3c ae c8 c5 bd 84 4e 3a be e9 3e 7a bd
       0.010485748 -0.09657417 -0.18194014 -0.061095152
000180 fd f7 4b bd 14 40 91 3e cc fb 3c bd 02 21 9f bd
       -0.049797047 0.283692 -0.04613857 -0.077699676
000190 ee 96 33 3d 97 98 99 be 0f b8 b6 3e 92 39 a3 3d
       0.04384511 -0.2999923 0.356873 0.07969965
0001a0 b3 f1 98 3b 4e 42 89 bd 83 07 5e 3e af a7 8b 3e
       0.0046674847 -0.067021 0.21682553 0.2727637
0001b0 d0 ca 64 be 72 79 81 3c df 2f 32 3c 9c 7d 95 3e
       -0.22342992 0.01580498 0.010875671 0.29197395
0001c0 de 19 2f 3e 63 8b 83 bd 1b 5c 5b 3e 08 d6 24 be
       0.17099711 -0.0642307 0.21421854 -0.16097271
0001d0 8f a2 9a bd 76 eb e6 3e 29 fd 00 3e 6a 5e 25 3d
       -0.07550537 0.45101517 0.12596573 0.040373243
0001e0 b8 96 9e 3d 8d a4 8d be e3 98 08 be ff 5d 27 3c
       0.07743591 -0.27664605 -0.13339572 0.0102152815
0001f0 c7 02 c1 3e 9b ae 93 3e 13 cb fd bd c9 8e 3b 3e
       0.3769743 0.2884415 -0.12392249 0.18316187
000200 70 e4 97 bd 96 62 9d bd b0 42 b7 3b 73 2d 31 be
       -0.07416618 -0.076848194 0.0055926666 -0.17302494
000210 e5 c1 44 bd 6f 75 8e 3e 10 a4 c2 bc 93 fd 6a be
       -0.048036475 0.2782397 -0.023759872 -0.22948293
000220 53 2a ac bd 29 1f fa bd 3b 4e 0c be 21 98 11 3e
       -0.0840651 -0.122129746 -0.13701718 0.14218189
000230 7d 0d 9c bd d6 63 86 3e d3 63 50 3e e6 b4 5e bd
       -0.0761976 0.26248044 0.2035058 -0.054371737
000240 18 3b 50 bd 51 55 13 bd 13 e5 ba 3e 94 fa 28 3d
       -0.050837606 -0.035970036 0.36502895 0.041254595
000250 2b 03 28 3e 8a cc 47 3e 93 f5 4a 3d f3 af 52 3d
       0.16407458 0.19511619 0.049550604 0.05143733
000260 fa c0 31 be 46 be e5 bd e7 f3 91 be 27 e7 82 bd
       -0.17358771 -0.112179324 -0.28506395 -0.06391745
000270 c2 5a 5b be 2f 5a e6 3d 3f ba 8e 3d c3 19 ba be
       -0.2142134 0.1124767 0.069691174 -0.3634778
000280 cc 77 d5 bc 90 4f 8c 3e 78 e8 b8 3d 34 07 eb bd
       -0.0260581 0.2740445 0.09028715 -0.11475983
000290 6e c1 3d 3e 9c e5 1f be e3 8b 02 3d 0b 24 d3 bd
       0.18530819 -0.15614933 0.031871688 -0.10309609
0002a0 70 36 83 3e 90 ea 0d 3e 52 5d af bc ec f9 60 bd
       0.2562747 0.1385901 -0.021406803 -0.054925844
0002b0 1c 49 8e 3e 8c 18 19 be cb 1c a7 3d 19 f3 3d 3e
       0.27790153 -0.1495077 0.08159789 0.18549766
0002c0 6e d2 37 3c ed 19 50 3e 13 b7 79 be 2b 95 0e 3d
       0.011219604 0.2032239 -0.24386244 0.034810226
0002d0 87 a2 bc 3d 8a a2 6f bd 94 13 d0 3d d2 68 45 3e
       0.09210687 -0.05850462 0.10159984 0.19278267
0002e0 a9 cb 93 3c 6f 85 d2 be a9 2b b9 3d 66 c0 8f 3b
       0.018041449 -0.41117427 0.09041531 0.0043869494
0002f0 d4 da a0 be d1 62 8b 3e d5 16 8a 3e f5 07 ba be
       -0.31416953 0.27223828 0.26970544 -0.36334196
000300 f9 9d 52 3d 06 1c 56 3e 02 08 6e 3d b6 82 95 be
       0.051420186 0.20909128 0.058113106 -0.29201287
000310 50 1f 6a 3e 35 f2 a5 3c 6a 12 86 be 1c 6b 05 bd
       0.22863507 0.020257095 -0.26185924 -0.03257285
000320 c8 95 c4 ba 94 f8 db bd 23 9a f1 3b b7 9c 66 be
       -0.0014998252 -0.10740772 0.007373111 -0.2252072
000330 55 8a 1a bf f4 e3 db 3c 04 63 35 be b1 24 13 bd
       -0.6036733 0.026842095 -0.17713553 -0.035923664
000340 3e e1 1a 3e 06 8a ab 3d d0 0c 53 be 85 3e eb 3d
       0.15124986 0.08375935 -0.20610356 0.11486534
000350 39 0b c4 3d 93 69 28 be 38 64 4f bd 76 b6 96 bd
       0.09572453 -0.16446523 -0.050632685 -0.073590204
000360 2c 3b fb bd 8f 07 52 3e 1b c9 87 3e 80 4a 89 3e
       -0.122671455 0.20510696 0.2652062 0.2681465
000370 54 a1 b0 bd 78 f8 80 3e 9b 1e cd bd 1d 37 82 3e
       -0.08624521 0.25189567 -0.10015603 0.25432673
000380 72 21 23 bd 88 66 31 3d 83 7f 8d 3d e9 27 ed bd
       -0.039826818 0.043310672 0.069090866 -0.11579878
000390 8a 2f 07 3e 0c d4 bc 3d 45 20 89 3d e3 7b 9f 3c
       0.13201728 0.09220132 0.06695608 0.019468253
0003a0 d3 ed c2 3e aa aa 86 bd d5 21 42 3e ab d7 2c 3e
       0.3807207 -0.0657552 0.18958218 0.16879146
0003b0 65 10 c8 be fd ef 6f bd 5b 4f 21 bd 73 1d 0f bd
       -0.39075008 -0.05857848 -0.03938232 -0.034940194
0003c0 5a ed 53 be 56 76 cc 3d ab d0 f8 bd 6a c2 05 be
       -0.20696011 0.09983508 -0.12149175 -0.13062444
0003d0 cb c8 03 3e 38 74 b5 3d d3 ff 35 3e 3a 53 08 3b
       0.12869565 0.088600576 0.1777337 0.002080156
0003e0 b8 66 7a be 57 8b df bb a9 f8 55 3d 18 9e 97 be
       -0.24453247 -0.0068220305 0.052239094 -0.29612803
0003f0 95 a2 53 be 36 66 88 3d 46 fd 9b bd a3 22 4a be
       -0.20667489 0.0666012 -0.076166674 -0.19739775

base.mlp.fc_h.0.bias f4 [64]
000000 00 00 00 00 00 00 00 00 00 00 00 00 00 00 00 00
       0.0 0.0 0.0 0.0
000010 00 00 00 00 00 00 00 00 00 00 00 00 00 00 00 00
       0.0 0.0 0.0 0.0
000020 00 00 00 00 00 00 00 00 00 00 00 00 00 00 00 00
       0.0 0.0 0.0 0.0
000030 00 00 00 00 00 00 00 00 00 00 00 00 00 00 00 00
       0.0 0.0 0.0 0.0
000040 00 00 00 00 00 00 00 00 00 00 00 00 00 00 00 00
       0.0 0.0 0.0 0.0
000050 00 00 00 00 00 00 00 00 00 00 00 00 00 00 00 00
       0.0 0.0 0.0 0.0
000060 00 00 00 00 00 00 00 00 00 00 00 00 00 00 00 00
       0.0 0.0 0.0 0.0
000070 00 00 00 00 00 00 00 00 00 00 00 00 00 00 00 00
       0.0 0.0 0.0 0.0
000080 00 00 00 00 00 00 00 00 00 00 00 00 00 00 00 00
       0.0 0.0 0.0 0.0
000090 00 00 00 00 00 00 00 00 00 00 00 00 00 00 00 00
       0.0 0.0 0.0 0.0
0000a0 00 00 00 00 00 00 00 00 00 00 00 00 00 00 00 00
       0.0 0.0 0.0 0.0
0000b0 00 00 00 00 00 00 00 00 00 00 00 00 00 00 00 00
       0.0 0.0 0.0 0.0
0000c0 00 00 00 00 00 00 00 00 00 00 00 00 00 00 00 00
       0.0 0.0 0.0 0.0
0000d0 00 00 00 00 00 00 00 00 00 00 00 00 00 00 00 00
       0.0 0.0 0.0 0.0
0000e0 00 00 00 00 00 00 00 00 00 00 00 00 00 00 00 00
       0.0 0.0 0.0 0.0
0000f0 00 00 00 00 00 00 00 00 00 00 00 00 00 00 00 00
       0.0 0.0 0.0 0.0

base.mlp.fc_h.2.weight f4 [64]
000000 00 00 80 3f 00 00 80 3f 00 00 80 3f 00 00 80 3f
       1.0 1.0 1.0 1.0
000010 00 00 80 3f 00 00 80 3f 00 00 80 3f 00 00 80 3f
       1.0 1.0 1.0 1.0
000020 00 00 80 3f 00 00 80 3f 00 00 80 3f 00 00 80 3f
       1.0 1.0 1.0 1.0
000030 00 00 80 3f 00 00 80 3f 00 00 80 3f 00 00 80 3f
       1.0 1.0 1.0 1.0
000040 00 00 80 3f 00 00 80 3f 00 00 80 3f 00 00 80 3f
       1.0 1.0 1.0 1.0
000050 00 00 80 3f 00 00 80 3f 00 00 80 3f 00 00 80 3f
       1.0 1.0 1.0 1.0
000060 00 00 80 3f 00 00 80 3f 00 00 80 3f 00 00 80 3f
       1.0 1.0 1.0 1.0
000070 00 00 80 3f 00 00 80 3f 00 00 80 3f 00 00 80 3f
       1.0 1.0 1.0 1.0
000080 00 00 80 3f 00 00 80 3f 00 00 80 3f 00 00 80 3f
       1.0 1.0 1.0 1.0
000090 00 00 80 3f 00 00 80 3f 00 00 80 3f 00 00 80 3f
       1.0 1.0 1.0 1.0
0000a0 00 00 80 3f 00 00 80 3f 00 00 80 3f 00 00 80 3f
       1.0 1.0 1.0 1.0
0000b0 00 00 80 3f 00 00 80 3f 00 00 80 3f 00 00 80 3f
       1.0 1.0 1.0 1.0
0000c0 00 00 80 3f 00 00 80 3f 00 00 80 3f 00 00 80 3f
       1.0 1.0 1.0 1.0
0000d0 00 00 80 3f 00 00 80 3f 00 00 80 3f 00 00 80 3f
       1.0 1.0 1.0 1.0
0000e0 00 00 80 3f 00 00 80 3f 00 00 80 3f 00 00 80 3f
       1.0 1.0 1.0 1.0
0000f0 00 00 80 3f 00 00 80 3f 00 00 80 3f 00 00 80 3f
       1.0 1.0 1.0 1.0

base.mlp.fc_h.2.bias f4 [64]
000000 00 00 00 00 00 00 00 00 00 00 00 00 00 00 00 00
       0.0 0.0 0.0 0.0
000010 00 00 00 00 00 00 00 00 00 00 00 00 00 00 00 00
       0.0 0.0 0.0 0.0
000020 00 00 00 00 00 00 00 00 00 00 00 00 00 00 00 00
       0.0 0.0 0.0 0.0
000030 00 00 00 00 00 00 00 00 00 00 00 00 00 00 00 00
       0.0 0.0 0.0 0.0
000040 00 00 00 00 00 00 00 00 00 00 00 00 00 00 00 00
       0.0 0.0 0.0 0.0
000050 00 00 00 00 00 00 00 00 00 00 00 00 00 00 00 00
       0.0 0.0 0.0 0.0
000060 00 00 00 00 00 00 00 00 00 00 00 00 00 00 00 00
       0.0 0.0 0.0 0.0
000070 00 00 00 00 00 00 00 00 00 00 00 00 00 00 00 00
       0.0 0.0 0.0 0.0
000080 00 00 00 00 00 00 00 00 00 00 00 00 00 00 00 00
       0.0 0.0 0.0 0.0
000090 00 00 00 00 00 00 00 00 00 00 00 00 00 00 00 00
       0.0 0.0 0.0 0.0
0000a0 00 00 00 00 00 00 00 00 00 00 00 00 00 00 00 00
       0.0 0.0 0.0 0.0
0000b0 00 00 00 00 00 00 00 00 00 00 00 00 00 00 00 00
       0.0 0.0 0.0 0.0
0000c0 00 00 00 00 00 00 00 00 00 00 00 00 00 00 00 00
       0.0 0.0 0.0 0.0
0000d0 00 00 00 00 00 00 00 00 00 00 00 00 00 00 00 00
       0.0 0.0 0.0 0.0
0000e0 00 00 00 00 00 00 00 00 00 00 00 00 00 00 00 00
       0.0 0.0 0.0 0.0
0000f0 00 00 00 00 00 00 00 00 00 00 00 00 00 00 00 00
       0.0 0.0 0.0 0.0

base.mlp.fc2.0.0.weight f4 [64, 64]
000000 2f 38 43 be 8e e1 c9 bd 45 e8 63 be e6 c5 8e 3d
       -0.19064401 -0.09857474 -0.22256573 0.0697134
000010 00 ec 81 bd 66 d0 29 be b0 fd cd bd 57 86 00 3e
       -0.063438416 -0.16583404 -0.10058153 0.12551247
000020 1e 2b 32 3e b8 8b 20 3e ad 69 2b 3e 4f 31 ae 3e
       0.1739926 0.15678298 0.16739531 0.34021994
000030 29 6f 03 bd b2 98 07 be 68 ed 2c 3e 65 a9 40 3e
       -0.032088432 -0.13241842 0.16887438 0.18814619
000040 93 fd f4 3d 77 30 5c 3e 48 9b 2e 3e e2 e2 9d 3c
       0.11962428 0.21502863 0.17051423 0.019273225
000050 2c ec 89 be cb 15 f3 bd a0 bb 2b 3d 87 ad a3 3d
       -0.26937997 -0.11869391 0.04192698 0.07992082
000060 3c b3 b3 be 68 2f 01 be 5b 1e 77 3e 4b 38 c0 3d
       -0.35097682 -0.1261574 0.24132673 0.09385737
000070 03 02 2e 3d 7d df c2 3e cf 64 b9 bd af 38 f1 3d
       0.042482387 0.38061133 -0.09052431 0.1177839
000080 3a 05 8e be 49 b0 b8 bc ac 3e f4 3d 80 5c 0b 3e
       -0.27738363 -0.022544997 0.11926016 0.13609505
000090 93 54 00 3d 18 74 49 be 34 86 93 3d 40 6a 52 be
       0.031330656 -0.19673193 0.072033316 -0.20548344
0000a0 a9 48 ba 3d aa 46 be bd 19 dd 37 be bf 65 81 3e
       0.0909589 -0.09290822 -0.17955436 0.2527294
0000b0 bf 09 be 3b 72 2b 41 bd be 26 d2 be b0 9f 31 3e
       0.0057995017 -0.047160573 -0.41045183 0.17346072
0000c0 ad 64 37 3c 06 28 0a be 5a 39 36 3e 65 35 d6 3d
       0.011193437 -0.1349183 0.17795315 0.10459403
0000d0 c5 a6 1f 3d 45 69 9a 3d e9 f7 c7 bd 68 d4 03 3e
       0.038977403 0.0753961 -0.09764082 0.12873995
0000e0 aa 91 9c be 95 6b 14 3d a2 06 b6 bd 26 36 e3 3e
       -0.30579883 0.03623541 -0.08887984 0.4437725
0000f0 85 71 3f be bb 4f 89 3d 1b fc 6d 3e e4 57 5b 3d
       -0.18695648 0.067046605 0.23240702 0.053550616
000100 9f 61 3a 3b a7 47 d9 bd 55 2e 16 3e 76 3b ed bd
       0.0028439534 -0.1060937 0.14666112 -0.11583607
000110 5c 2c 1b be ec 52 3d 3e f3 f8 55 3e c6 57 7f bd
       -0.1515364 0.18488663 0.20895748 -0.062339567
000120 48 4c 57 be 3d c7 14 bd c2 a2 89 3d f6 d0 5a 3e
       -0.21025193 -0.03632282 0.06720497 0.21368775
000130 10 d3 f6 3a aa 1c e8 3b 0f 79 f7 bc 40 ac 2d bd
       0.0018831212 0.007083495 -0.030209092 -0.0424006
000140 e2 2d 0b bd 6d c2 b0 be 74 93 46 be 5f 41 50 3d
       -0.033979304 -0.34523335 -0.19392186 0.050843593
000150 d2 bc 3c be bd b6 2d 3e a5 95 80 be 20 f2 80 be
       -0.18431404 0.1696424 -0.2511417 -0.25184727
000160 35 87 96 bd bc e0 4c bd e8 5a 71 3e eb 04 a5 bd
       -0.073500074 -0.05001901 0.23569834 -0.08057579
000170 6a cc 2b 3c ae c8 c5 bd 84 4e 3a be e9 3e 7a bd
       0.010485748 -0.09657417 -0.18194014 -0.061095152
000180 fd f7 4b bd 14 40 91 3e cc fb 3c bd 02 21 9f bd
       -0.049797047 0.283692 -0.04613857 -0.077699676
000190 ee 96 33 3d 97 98 99 be 0f b8 b6 3e 92 39 a3 3d
       0.04384511 -0.2999923 0.356873 0.07969965
0001a0 b3 f1 98 3b 4e 42 89 bd 83 07 5e 3e af a7 8b 3e
       0.0046674847 -0.067021 0.21682553 0.2727637
0001b0 d0 ca 64 be 72 79 81 3c df 2f 32 3c 9c 7d 95 3e
       -0.22342992 0.01580498 0.010875671 0.29197395
0001c0 de 19 2f 3e 63 8b 83 bd 1b 5c 5b 3e 08 d6 24 be
       0.17099711 -0.0642307 0.21421854 -0.16097271
0001d0 8f a2 9a bd 76 eb e6 3e 29 fd 00 3e 6a 5e 25 3d
       -0.07550537 0.45101517 0.12596573 0.040373243
0001e0 b8 96 9e 3d 8d a4 8d be e3 98 08 be ff 5d 27 3c
       0.07743591 -0.27664605 -0.13339572 0.0102152815
0001f0 c7 02 c1 3e 9b ae 93 3e 13 cb fd bd c9 8e 3b 3e
       0.3769743 0.2884415 -0.12392249 0.18316187
000200 70 e4 97 bd 96 62 9d bd b0 42 b7 3b 73 2d 31 be
       -0.07416618 -0.076848194 0.0055926666 -0.17302494
000210 e5 c1 44 bd 6f 75 8e 3e 10 a4 c2 bc 93 fd 6a be
       -0.048036475 0.2782397 -0.023759872 -0.22948293
000220 53 2a ac bd 29 1f fa bd 3b 4e 0c be 21 98 11 3e
       -0.0840651 -0.122129746 -0.13701718 0.14218189
000230 7d 0d 9c bd d6 63 86 3e d3 63 50 3e e6 b4 5e bd
       -0.0761976 0.26248044 0.2035058 -0.054371737
000240 18 3b 50 bd 51 55 13 bd 13 e5 ba 3e 94 fa 28 3d
       -0.050837606 -0.035970036 0.36502895 0.041254595
000250 2b 03 28 3e 8a cc 47 3e 93 f5 4a 3d f3 af 52 3d
       0.16407458 0.19511619 0.049550604 0.05143733
000260 fa c0 31 be 46 be e5 bd e7 f3 91 be 27 e7 82 bd
       -0.17358771 -0.112179324 -0.28506395 -0.06391745
000270 c2 5a 5b be 2f 5a e6 3d 3f ba 8e 3d c3 19 ba be
       -0.2142134 0.1124767 0.069691174 -0.3634778
000280 cc 77 d5 bc 90 4f 8c 3e 78 e8 b8 3d 34 07 eb bd
       -0.0260581 0.2740445 0.09028715 -0.11475983
000290 6e c1 3d 3e 9c e5 1f be e3 8b 02 3d 0b 24 d3 bd
       0.18530819 -0.15614933 0.031871688 -0.10309609
0002a0 70 36 83 3e 90 ea 0d 3e 52 5d af bc ec f9 60 bd
       0.2562747 0.1385901 -0.021406803 -0.054925844
0002b0 1c 49 8e 3e 8c 18 19 be cb 1c a7 3d 19 f3 3d 3e
       0.27790153 -0.1495077 0.08159789 0.18549766
0002c0 6e d2 37 3c ed 19 50 3e 13 b7 79 be 2b 95 0e 3d
       0.011219604 0.2032239 -0.24386244 0.034810226
0002d0 87 a2 bc 3d 8a a2 6f bd 94 13 d0 3d d2 68 45 3e
       0.09210687 -0.05850462 0.10159984 0.19278267
0002e0 a9 cb 93 3c 6f 85 d2 be a9 2b b9 3d 66 c0 8f 3b
       0.018041449 -0.41117427 0.09041531 0.0043869494
0002f0 d4 da a0 be d1 62 8b 3e d5 16 8a 3e f5 07 ba be
       -0.31416953 0.27223828 0.26970544 -0.36334196
000300 f9 9d 52 3d 06 1c 56 3e 02 08 6e 3d b6 82 95 be
       0.051420186 0.20909128 0.058113106 -0.29201287
000310 50 1f 6a 3e 35 f2 a5 3c 6a 12 86 be 1c 6b 05 bd
       0.22863507 0.020257095 -0.26185924 -0.03257285
000320 c8 95 c4 ba 94 f8 db bd 23 9a f1 3b b7 9c 66 be
       -0.0014998252 -0.10740772 0.007373111 -0.2252072
000330 55 8a 1a bf f4 e3 db 3c 04 63 35 be b1 24 13 bd
       -0.6036733 0.026842095 -0.17713553 -0.035923664
000340 3e e1 1a 3e 06 8a ab 3d d0 0c 53 be 85 3e eb 3d
       0.15124986 0.08375935 -0.20610356 0.11486534
000350 39 0b c4 3d 93 69 28 be 38 64 4f bd 76 b6 96 bd
       0.09572453 -0.16446523 -0.050632685 -0.073590204
000360 2c 3b fb bd 8f 07 52 3e 1b c9 87 3e 80 4a 89 3e
       -0.122671455 0.20510696 0.2652062 0.2681465
000370 54 a1 b0 bd 78 f8 80 3e 9b 1e cd bd 1d 37 82 3e
       -0.08624521 0.25189567 -0.10015603 0.25432673
000380 72 21 23 bd 88 66 31 3d 83 7f 8d 3d e9 27 ed bd
       -0.039826818 0.043310672 0.069090866 -0.11579878
000390 8a 2f 07 3e 0c d4 bc 3d 45 20 89 3d e3 7b 9f 3c
       0.13201728 0.09220132 0.06695608 0.019468253
0003a0 d3 ed c2 3e aa aa 86 bd d5 21 42 3e ab d7 2c 3e
       0.3807207 -0.0657552 0.18958218 0.16879146
0003b0 65 10 c8 be fd ef 6f bd 5b 4f 21 bd 73 1d 0f bd
       -0.39075008 -0.05857848 -0.03938232 -0.034940194
0003c0 5a ed 53 be 56 76 cc 3d ab d0 f8 bd 6a c2 05 be
       -0.20696011 0.09983508 -0.12149175 -0.13062444
0003d0 cb c8 03 3e 38 74 b5 3d d3 ff 35 3e 3a 53 08 3b
       0.12869565 0.088600576 0.1777337 0.002080156
0003e0 b8 66 7a be 57 8b df bb a9 f8 55 3d 18 9e 97 be
       -0.24453247 -0.0068220305 0.052239094 -0.29612803
0003f0 95 a2 53 be 36 66 88 3d 46 fd 9b bd a3 22 4a be
       -0.20667489 0.0666012 -0.076166674 -0.19739775

base.mlp.fc2.0.0.bias f4 [64]
000000 00 00 00 00 00 00 00 00 00 00 00 00 00 00 00 00
       0.0 0.0 0.0 0.0
000010 00 00 00 00 00 00 00 00 00 00 00 00 00 00 00 00
       0.0 0.0 0.0 0.0
000020 00 00 00 00 00 00 00 00 00 00 00 00 00 00 00 00
       0.0 0.0 0.0 0.0
000030 00 00 00 00 00 00 00 00 00 00 00 00 00 00 00 00
       0.0 0.0 0.0 0.0
000040 00 00 00 00 00 00 00 00 00 00 00 00 00 00 00 00
       0.0 0.0 0.0 0.0
000050 00 00 00 00 00 00 00 00 00 00 00 00 00 00 00 00
       0.0 0.0 0.0 0.0
000060 00 00 00 00 00 00 00 00 00 00 00 00 00 00 00 00
       0.0 0.0 0.0 0.0
000070 00 00 00 00 00 00 00 00 00 00 00 00 00 00 00 00
       0.0 0.0 0.0 0.0
000080 00 00 00 00 00 00 00 00 00 00 00 00 00 00 00 00
       0.0 0.0 0.0 0.0
000090 00 00 00 00 00 00 00 00 00 00 00 00 00 00 00 00
       0.0 0.0 0.0 0.0
0000a0 00 00 00 00 00 00 00 00 00 00 00 00 00 00 00 00
       0.0 0.0 0.0 0.0
0000b0 00 00 00 00 00 00 00 00 00 00 00 00 00 00 00 00
       0.0 0.0 0.0 0.0
0000c0 00 00 00 00 00 00 00 00 00 00 00 00 00 00 00 00
       0.0 0.0 0.0 0.0
0000d0 00 00 00 00 00 00 00 00 00 00 00 00 00 00 00 00
       0.0 0.0 0.0 0.0
0000e0 00 00 00 00 00 00 00 00 00 00 00 00 00 00 00 00
       0.0 0.0 0.0 0.0
0000f0 00 00 00 00 00 00 00 00 00 00 00 00 00 00 00 00
       0.0 0.0 0.0 0.0

base.mlp.fc2.0.2.weight f4 [64]
000000 00 00 80 3f 00 00 80 3f 00 00 80 3f 00 00 80 3f
       1.0 1.0 1.0 1.0
000010 00 00 80 3f 00 00 80 3f 00 00 80 3f 00 00 80 3f
       1.0 1.0 1.0 1.0
000020 00 00 80 3f 00 00 80 3f 00 00 80 3f 00 00 80 3f
       1.0 1.0 1.0 1.0
000030 00 00 80 3f 00 00 80 3f 00 00 80 3f 00 00 80 3f
       1.0 1.0 1.0 1.0
000040 00 00 80 3f 00 00 80 3f 00 00 80 3f 00 00 80 3f
       1.0 1.0 1.0 1.0
000050 00 00 80 3f 00 00 80 3f 00 00 80 3f 00 00 80 3f
       1.0 1.0 1.0 1.0
000060 00 00 80 3f 00 00 80 3f 00 00 80 3f 00 00 80 3f
       1.0 1.0 1.0 1.0
000070 00 00 80 3f 00 00 80 3f 00 00 80 3f 00 00 80 3f
       1.0 1.0 1.0 1.0
000080 00 00 80 3f 00 00 80 3f 00 00 80 3f 00 00 80 3f
       1.0 1.0 1.0 1.0
000090 00 00 80 3f 00 00 80 3f 00 00 80 3f 00 00 80 3f
       1.0 1.0 1.0 1.0
0000a0 00 00 80 3f 00 00 80 3f 00 00 80 3f 00 00 80 3f
       1.0 1.0 1.0 1.0
0000b0 00 00 80 3f 00 00 80 3f 00 00 80 3f 00 00 80 3f
       1.0 1.0 1.0 1.0
0000c0 00 00 80 3f 00 00 80 3f 00 00 80 3f 00 00 80 3f
       1.0 1.0 1.0 1.0
0000d0 00 00 80 3f 00 00 80 3f 00 00 80 3f 00 00 80 3f
       1.0 1.0 1.0 1.0
0000e0 00 00 80 3f 00 00 80 3f 00 00 80 3f 00 00 80 3f
       1.0 1.0 1.0 1.0
0000f0 00 00 80 3f 00 00 80 3f 00 00 80 3f 00 00 80 3f
       1.0 1.0 1.0 1.0

base.mlp.fc2.0.2.bias f4 [64]
000000 00 00 00 00 00 00 00 00 00 00 00 00 00 00 00 00
       0.0 0.0 0.0 0.0
000010 00 00 00 00 00 00 00 00 00 00 00 00 00 00 00 00
       0.0 0.0 0.0 0.0
000020 00 00 00 00 00 00 00 00 00 00 00 00 00 00 00 00
       0.0 0.0 0.0 0.0
000030 00 00 00 00 00 00 00 00 00 00 00 00 00 00 00 00
       0.0 0.0 0.0 0.0
000040 00 00 00 00 00 00 00 00 00 00 00 00 00 00 00 00
       0.0 0.0 0.0 0.0
000050 00 00 00 00 00 00 00 00 00 00 00 00 00 00 00 00
       0.0 0.0 0.0 0.0
000060 00 00 00 00 00 00 00 00 00 00 00 00 00 00 00 00
       0.0 0.0 0.0 0.0
000070 00 00 00 00 00 00 00 00 00 00 00 00 00 00 00 00
       0.0 0.0 0.0 0.0
000080 00 00 00 00 00 00 00 00 00 00 00 00 00 00 00 00
       0.0 0.0 0.0 0.0
000090 00 00 00 00 00 00 00 00 00 00 00 00 00 00 00 00
       0.0 0.0 0.0 0.0
0000a0 00 00 00 00 00 00 00 00 00 00 00 00 00 00 00 00
       0.0 0.0 0.0 0.0
0000b0 00 00 00 00 00 00 00 00 00 00 00 00 00 00 00 00
       0.0 0.0 0.0 0.0
0000c0 00 00 00 00 00 00 00 00 00 00 00 00 00 00 00 00
       0.0 0.0 0.0 0.0
0000d0 00 00 00 00 00 00 00 00 00 00 00 00 00 00 00 00
       0.0 0.0 0.0 0.0
0000e0 00 00 00 00 00 00 00 00 00 00 00 00 00 00 00 00
       0.0 0.0 0.0 0.0
0000f0 00 00 00 00 00 00 00 00 00 00 00 00 00 00 00 00
       0.0 0.0 0.0 0.0

act.action_out.linear.weight f4 [1, 64]
000000 ae a9 46 3a ed d7 2c b8 ae 8d 38 ba 14 7a 0f 3a
       0.0007578385 -4.1209092e-05 -0.0007040155 0.0005473208
000010 47 29 c8 ba b8 58 d9 ba 3d c2 ab 3a b7 51 d4 39
       -0.0015271091 -0.0016582226 0.0013104152 0.00040496673
000020 c9 ad c5 37 78 e0 3a b9 64 ac 14 3b 05 fe bf 3a
       2.3565155e-05 -0.00017821963 0.002268576 0.0014647847
000030 64 47 e5 ba 06 8c 35 b9 ed 2a 29 ba 9c 7e ea 3a
       -0.001749259 -0.00017313668 -0.0006453235 0.0017890516
000040 70 75 b2 b9 ae da 73 ba 49 4e 00 ba db 3b 66 ba
       -0.00034038303 -0.00093023 -0.0004894478 -0.0008782723
000050 87 95 27 ba 9e 9e f1 39 74 eb 13 bb 93 19 70 3a
       -0.0006392826 0.0004608528 -0.002257076 0.00091590843
000060 82 18 c3 39 2c d2 a2 3a ee 55 be 3a f7 19 36 39
       0.00037211558 0.0012422255 0.0014521459 0.00017366545
000070 6c 50 61 ba 4d 1b 29 3b 8d 09 bc 3a 0a 7a 87 39
       -0.00085950526 0.0025803626 0.0014346108 0.00025840133
000080 fe 58 79 39 f6 c6 95 3a 4d 8f 89 b9 47 5d 08 bb
       0.00023779643 0.0011427093 -0.00026237444 -0.002080755
000090 fd 35 c1 ba 18 05 d2 39 b9 e1 16 3b fc de 6b 38
       -0.0014740821 0.00040058116 0.0023022725 5.6236036e-05
0000a0 c7 e5 11 3b 6b 2b 8a 39 47 ba 3a 3a c1 1d 29 3b
       0.0022262202 0.0002635376 0.00071230944 0.0025805088
0000b0 ab bc 8b 3a 38 7e 07 bb ab 84 ce 39 d3 95 ec ba
       0.0010661086 -0.0020674597 0.00039390227 -0.0018050022
0000c0 90 c9 08 bb da d8 90 ba e3 77 84 3a 89 29 08 3a
       -0.0020872094 -0.0011050955 0.001010653 0.00051941775
0000d0 2d 24 16 3a d1 76 01 ba 1d 38 d6 ba f8 2d 7d b9
       0.00057274365 -0.00049386645 -0.0016343627 -0.00024145085
0000e0 eb bc 9b b9 b6 d2 8b ba ad bd 39 3a d0 2b 07 bb
       -0.0002970466 -0.0010667655 0.0007085454 -0.002062548
0000f0 b3 8d fd 39 ae 7b a6 ba 17 ed 3e 3a 49 62 db 3a
       0.00048361495 -0.0012701654 0.0007283254 0.0016737665
