results/MyEnv/MyEnv/mappo/check/run13/models/critic.pt (torch, 40693 bytes, 15 tensors)

base.feature_norm.weight f4 [2]
000000 09 5e 80 3f e9 43 7f 3f
       1.0028697 0.99713

base.feature_norm.bias f4 [2]
000000 77 d7 ca 39 47 1b 58 bb
       0.00038688976 -0.0032975243

base.mlp.fc1.0.weight f4 [64, 2]
000000 4f 87 98 be e4 5b 81 3e 1f 09 76 be f6 9a 30 3d
       -0.29790732 0.2526542 -0.24026917 0.043116532
000010 ce 14 a1 3c 73 07 a6 3d d7 26 ba be c4 dc 45 3c
       0.01966324 0.081068896 -0.36357757 0.01207656
000020 66 01 72 bd 1c 9b 1f be 8f a0 b4 3d f6 3e 78 3c
       -0.059083365 -0.15586513 0.088196866 0.01515173
000030 51 3a d5 3e f7 eb 03 bd 50 27 d3 3d 64 63 4a bd
       0.41646054 -0.032207455 0.10310233 -0.049411193
000040 2e 47 75 3e 63 90 c3 3e 3a b2 64 bd 87 d6 88 be
       0.23952934 0.38196096 -0.055834033 -0.2672617
000050 b1 1d 55 be ab ce 03 be 30 f2 33 3e c9 32 21 be
       -0.20812108 -0.12871806 0.17572856 -0.15742029
000060 25 c2 07 bd 3f 93 a7 3d d3 25 2c be 5f f8 85 be
       -0.033144135 0.08182382 -0.16811304 -0.26166055
000070 3b 6c 85 3d 77 9e 9e be b1 43 18 be aa 17 c1 3e
       0.06514784 -0.30980274 -0.14869572 0.37713367
000080 3c 64 da be 55 dd 18 3e ba cf 31 3e 30 25 77 bd
       -0.42654598 0.14928181 0.17364398 -0.0603382
000090 67 cd 6f 3e 8d 09 8d be f7 89 c2 bd 84 fe 2c bb
       0.23418199 -0.2754635 -0.09498971 -0.002639682
0000a0 da 3d af 3e 6b be 8a be 9b 06 79 3e 81 68 a2 bd
       0.34226876 -0.27098402 0.24318926 -0.07930089
0000b0 b7 6a e4 3e e3 ed 80 3e ae 90 47 be fc 73 bc bd
       0.44612667 0.25181493 -0.19488785 -0.0920181
0000c0 d4 3b 23 3d 2e 34 90 bd d7 bd 64 be 00 88 12 be
       0.03985198 -0.070412025 -0.22338043 -0.14309692
0000d0 ca 9c 7e bc a2 0d 0b 3e 08 26 51 bd 6f 95 43 3d
       -0.015540311 0.1357942 -0.05106166 0.047749933
0000e0 94 68 02 be b6 ac 96 3d 2d 2e a7 bd 56 c0 1d be
       -0.12735206 0.07357161 -0.08163104 -0.15405402
0000f0 e5 e6 bb 3d 61 17 ce bd c6 a7 0b bc b5 75 62 be
       0.09174899 -0.10063053 -0.008523887 -0.22115214
000100 e1 e0 ad bc a4 00 be 3d 78 f5 28 bd e7 24 13 3c
       -0.021225395 0.09277466 -0.041249722 0.008980966
000110 d3 7a 70 be 43 ab 86 3d 4b 44 78 3d a5 4b 93 bd
       -0.23484354 0.06575634 0.060612004 -0.071921624
000120 8c d7 e0 3d 1e f3 62 be 2f 4c 3f bd 11 45 43 3e
       0.10978612 -0.22163054 -0.046703514 0.19069315
000130 24 ff e8 bd 52 d2 92 3d 55 d3 9a 3d 27 6a 99 3d
       -0.11376789 0.07169022 0.0755984 0.0749095
000140 93 f9 22 be ea 82 53 be d9 95 a7 bd 0f 9e 8f 3d
       -0.15915518 -0.20655409 -0.08182878 0.07012569
000150 f3 83 02 3e 21 49 ea 3c 57 fc bb 3d 9a 39 f8 bd
       0.12745647 0.028599324 0.091789894 -0.121203616
000160 15 20 da bc f5 9d da 3d 85 2c 7e 3e f5 d7 61 3c
       -0.026626626 0.10674659 0.2482167 0.013784398
000170 1c 39 7c 3d d9 ef 1c 3e b4 a7 d4 3c 43 f5 7e be
       0.0615779 0.1532587 0.025958873 -0.24898247
000180 c2 77 d6 bd d9 e8 7d be d0 5b e3 bd 23 c0 15 3b
       -0.10472061 -0.24795856 -0.11101496 0.0022850118
000190 da 9f 1b 3d ee 55 02 bd 9f f8 5b be f0 a1 ff bd
       0.037994243 -0.03182023 -0.2148156 -0.12482059
0001a0 a8 23 9f 3c 04 4a 08 bd fa f1 be bd a6 5e 8d 3d
       0.019426182 -0.03327371 -0.09323497 0.069028184
0001b0 78 51 27 3d a7 98 17 be d6 c0 2b be d4 8b c7 bb
       0.04084918 -0.14804326 -0.1677278 -0.006089667
0001c0 d1 e3 32 bd 81 bb 9e 3e 5b de 37 3e 7e 2a 84 be
       -0.043674294 0.3100243 0.17955916 -0.2581367
0001d0 ff 57 0f be 4a 4d c9 be 99 31 44 3e e9 98 c3 3e
       -0.13998412 -0.3931678 0.19159545 0.382026
0001e0 82 dc 9d 3e ab b5 4f 3e b9 1c 5d 3e 81 8a 17 3c
       0.30832297 0.20284145 0.21592988 0.0092493305
0001f0 90 de 50 bc ab c6 8b bd 62 da e2 bc e0 42 32 3e
       -0.012748376 -0.06825002 -0.027692024 0.17408323

base.mlp.fc1.0.bias f4 [64]
000000 52 8e 05 bb 98 6f c3 39 ca d5 3b bb 5d 10 4b bb
       -0.002037902 0.00037276442 -0.0028661364 -0.0030985095
000010 82 71 4b bb b8 fa 6f 3b 93 e5 0c bb fa 94 94 bb
       -0.0031042998 0.0036617946 -0.0021499142 -0.004534361
000020 18 db 3b bb 3d f7 0a bb 3a d4 3b bb 91 a2 99 bb
       -0.0028664526 -0.0021204494 -0.0028660432 -0.004688569
000030 79 99 24 bb 1d 16 30 bb 40 ab 3f bb b6 dd 3b bb
       -0.002511589 -0.002686865 -0.002924636 -0.0028666086
000040 47 e7 3b bb 2d 5f 69 3b 5f 99 43 bb 1e e7 3b bb
       -0.0028671788 0.0035609708 -0.0029846055 -0.0028671692
000050 52 c3 ba 3a 34 09 63 3b 98 98 a1 39 0b 43 e6 3a
       0.0014248884 0.0034642937 0.00030822004 0.0017567588
000060 ef a6 be ba 80 d0 90 3b 9e 83 f5 3a 0d a9 39 bb
       -0.00145456 0.0044193864 0.0018731242 -0.0028329522
000070 bb d6 f0 ba 18 c4 8b bb ce 06 60 3b 70 4f 26 bb
       -0.0018374542 -0.0042653196 0.0034183743 -0.0025376938
000080 30 b0 33 bb 16 94 6f 3b 50 e9 3b bb 8b 7f 95 bb
       -0.0027418248 0.0036556772 -0.0028673 -0.0045623234
000090 12 71 78 bb 43 0e 3e bb be 63 96 ba f5 a1 91 bb
       -0.0037909192 -0.00290002 -0.0011473817 -0.0044443556
0000a0 15 78 92 bb b2 5b f7 3a 28 e9 94 bb 26 f5 82 bb
       -0.0044698813 0.0018871932 -0.004544396 -0.003996509
0000b0 31 d7 2c 3b df c7 55 bb 6b c6 3b bb 16 65 72 bb
       0.0026373381 -0.0032620353 -0.0028652202 -0.0036986521
0000c0 db 09 ac 3b 05 e5 3e bb 38 26 af ba 04 e1 3b bb
       0.0052501983 -0.0029128205 -0.001336283 -0.0028668055
0000d0 cf 93 8d bb 63 97 c7 39 e5 e1 86 bb 60 e7 3b bb
       -0.0043205987 0.0003806903 -0.004116284 -0.0028671846
0000e0 7a 5a 06 bb 47 ed 90 bb 4d 6f 88 bb 6b d2 3b bb
       -0.0020500706 -0.004422817 -0.0041636587 -0.0028659354
0000f0 d4 05 87 bb e1 30 6e bb 1b dd 5b 3b 51 da 3b bb
       -0.004120568 -0.0036345052 0.0033548537 -0.0028664062

base.mlp.fc1.2.weight f4 [64]
000000 0e 68 80 3f 99 34 80 3f d3 56 80 3f 9b 55 80 3f
       1.0031755 1.0016052 1.0026497 1.0026125
000010 22 75 7f 3f a4 6f 80 3f 4f 49 7f 3f 9d 32 7f 3f
       0.99788105 1.003407 0.99721235 0.99686605
000020 45 48 7f 3f c9 1d 80 3f 9c d5 7f 3f e2 9f 7f 3f
       0.9971965 1.000909 0.9993532 0.99853337
000030 de 48 80 3f 55 8d 7f 3f c0 5f 7f 3f e2 44 7f 3f
       1.0022237 0.9982503 0.9975548 0.9971448
000040 5e 4d 7f 3f 76 cb 7f 3f bc 5a 7f 3f 54 40 80 3f
       0.9972743 0.9991983 0.99747825 1.0019631
000050 5e 31 80 3f e2 77 80 3f ed 77 7f 3f e9 e0 7f 3f
       1.0015066 1.0036585 0.9979237 0.9995256
000060 25 75 80 3f d0 17 80 3f 99 14 80 3f 15 bc 80 3f
       1.003575 1.0007267 1.0006286 1.0057398
000070 d3 6c 80 3f 28 2d 80 3f 73 86 80 3f 4b 77 7f 3f
       1.003321 1.001378 1.0041031 0.997914
000080 60 4c 7f 3f 6d 04 80 3f 77 63 7f 3f 0c 32 80 3f
       0.99725914 1.0001351 0.99761146 1.0015273
000090 10 43 7f 3f 2c 6f 80 3f 19 5b 80 3f 73 41 80 3f
       0.99711704 1.0033927 1.0027801 1.0019974
0000a0 db 35 80 3f 42 1c 80 3f 29 34 7f 3f 59 4d 80 3f
       1.0016435 1.0008624 0.99688965 1.0023605
0000b0 5a 4d 80 3f d0 75 7f 3f 8a 63 7f 3f 81 55 80 3f
       1.0023606 0.9978914 0.9976126 1.0026094
0000c0 76 ae 80 3f 83 4a 80 3f e1 7a 7f 3f 54 22 80 3f
       1.0053241 1.0022739 0.99796873 1.0010476
0000d0 2d 27 80 3f c1 07 80 3f 52 37 80 3f 99 d5 7f 3f
       1.0011955 1.0002366 1.0016882 0.999353
0000e0 1e 83 80 3f 57 c4 7f 3f e1 3b 80 3f e4 cb 7f 3f
       1.0040014 0.99908966 1.0018274 0.9992049
0000f0 f1 34 7f 3f f3 39 80 3f 66 74 80 3f e5 46 7f 3f
       0.9969016 1.0017685 1.0035522 0.9971755

base.mlp.fc1.2.bias f4 [64]
000000 cb 32 a6 ba fe d0 b7 3a cb 9f 07 bb 0d a4 61 3a
       -0.0012679932 0.0014024077 -0.002069461 0.00086075143
000010 fb 74 57 3a 2c 6b a3 ba 32 5a 40 3a a5 7f 30 3b
       0.00082190306 -0.0012467853 0.0007337659 0.002693155
000020 ca 42 20 bb 81 b1 ef 39 0d 8f 8b 39 66 dd 69 3a
       -0.0024453872 0.00045717883 0.00026618727 0.00089212356
000030 ae 42 a7 3a 86 58 be ba f8 18 42 ba 6f d1 12 bb
       0.0012760961 -0.0014522232 -0.00074042333 -0.0022402664
000040 da 66 02 bb 05 5c 8f 3b cd d3 2a 3a 0b 55 a1 bb
       -0.001989773 0.0043749833 0.0006516546 -0.004923468
000050 2d b1 ca ba 80 cb ed 3a 69 62 68 ba b1 b7 2e 3b
       -0.001546418 0.0018142313 -0.0008864762 0.0026659782
000060 63 0f 4b bb 39 db 8c 3b 1c 37 16 3b 3c 8e e9 bb
       -0.0030984513 0.0042985943 0.0022921031 -0.0071275514
000070 f1 7d d4 39 ed 98 6e ba 5a 3b cb 3a 3f 2e 7b 3a
       0.00040529625 -0.0009101767 0.0015505359 0.00095817813
000080 96 b0 cf 3a 82 3f 91 3b 0a f3 5c bb ba ff be b9
       0.0015845473 0.0044326195 -0.0033714199 -0.00036430155
000090 82 40 1f 3b 7c 34 df 39 b3 00 ae b9 8a c9 1c b9
       0.0024299924 0.00042572978 -0.00033188387 -0.00014952398
0000a0 1b fc 92 b9 5c f0 fb 3a fb 74 03 3b c9 07 45 ba
       -0.00028035123 0.0019221413 0.002005874 -0.00075161137
0000b0 d3 6b 67 3b 14 39 cd b8 74 2d 04 ba e4 3b 20 bb
       0.003531207 -9.7857934e-05 -0.00050421734 -0.002444976
0000c0 dc c1 7c 3b ea f4 0e 3a df 39 c0 3a 89 b0 48 bb
       0.0038567698 0.0005453365 0.0014665684 -0.0030622801
0000d0 e5 ca de 39 b6 75 a3 3a 1d 0f ad 3a 89 be 0c bb
       0.00042494308 0.0012470994 0.0013203357 -0.0021475872
0000e0 94 d1 80 ba 99 02 3a ba 35 7a d3 ba a8 21 2e bb
       -0.0009828084 -0.0007095724 -0.0016134443 -0.0026570354
0000f0 48 e5 34 3b e8 a8 21 39 18 63 81 b8 31 97 2e bb
       0.0027602483 0.00015417079 -6.169657e-05 -0.002664041

base.mlp.fc_h.0.weight f4 [64, 64]
000000 a0 a4 86 bd 8a b9 f6 3d 29 98 61 3d ff 1b 35 be
       -0.065743685 0.120471075 0.05507675 -0.17686461
000010 4b 49 42 3c 12 0c a4 bd f8 7b 82 bd f4 2b e7 3d
       0.011858295 -0.08010115 -0.063713014 0.1128768
000020 8e eb 28 be fb 9e ac bd 23 f7 bc bd 7b 63 e3 bc
       -0.16496107 -0.084287606 -0.09226825 -0.027757397
000030 0d cf 8a bd 82 7a 91 bd 6a b1 93 be c2 27 4c 3e
       -0.06777773 -0.07103445 -0.28846294 0.19937041
000040 98 d6 99 be 09 01 91 be 2e 3a 6a 3e 18 0f 14 3e
       -0.30046535 -0.28321102 0.22873756 0.14458883
000050 c2 05 cc 3d c4 ff 6b 3e ab 00 87 bd 95 d8 57 be
       0.09962036 0.23046786 -0.06591924 -0.21078713
000060 d4 0e 0d 3d 31 87 f7 3c 38 46 9d 3b 7b d4 a4 3e
       0.03443797 0.030215831 0.0047996305 0.3219336
000070 c8 dd 99 bc 7b 7e 01 3e c1 3d 9e 3e 11 12 b9 3e
       -0.018782511 0.12645905 0.3090649 0.36146596
000080 d8 85 e1 bd 7e a0 61 3e 31 07 37 be f4 c9 20 3e
       -0.11011857 0.22033879 -0.17873837 0.15702039
000090 04 b7 0b 3e 3f 1b 3c be 0a a0 f8 bd 66 2e cd 3d
       0.13644034 -0.18369769 -0.121399 0.100186154
0000a0 6d de 01 bd cd 07 f7 3d ce ce 82 bc 71 04 a9 bd
       -0.031706262 0.12062035 -0.015967753 -0.082528
0000b0 04 92 ee bc 5f 44 d8 3d a8 32 58 3e 5f 48 30 bd
       -0.02912236 0.10559916 0.21113074 -0.04303777
0000c0 b1 ce f7 3c 9c 34 14 bc 0b 13 e0 be 84 5c 4b 3b
       0.030249925 -0.009045746 -0.4376453 0.0031030485
0000d0 60 b6 53 3e b2 6e 91 be b1 89 ed bd ef 6c b1 bd
       0.2067504 -0.28404766 -0.11598528 -0.086633556
0000e0 9c ce 0a 3e d6 e8 87 3e 9b b2 f3 3d 55 dc 3a 3e
       0.13555378 0.26544827 0.11899301 0.18248112
0000f0 21 16 dc 3e 85 ff 9c be 11 3b bf bd f8 99 ae bd
       0.42985633 -0.30663696 -0.09337438 -0.08525461
000100 e0 23 cc bd 11 c6 b2 bc da 0f 06 be e8 86 bd 3c
       -0.0996778 -0.021822961 -0.13091984 0.023135617
000110 bb a8 e9 3d 01 9d a3 3d 53 15 4c be e3 43 43 bd
       0.11409136 0.079889305 -0.1993001 -0.047672164
000120 07 65 9a bc d3 d3 a1 3d 98 66 9c be c0 e1 82 bd
       -0.018847002 0.079017304 -0.30547023 -0.06390715
000130 ff 58 9a 3e 87 a3 81 be 43 d3 08 be d2 ab 2d 3e
       0.30146024 -0.25320074 -0.1336184 0.16960075
000140 38 7c 76 bd 2b 8b 98 bd 64 9b 2c 3e f5 8f a5 be
       -0.060177058 -0.07448419 0.16856152 -0.32336393
000150 48 99 a3 bd 75 e8 03 be 30 7d 80 3e 33 0d 98 bb
       -0.079882205 -0.12881644 0.2509551 -0.0046402453
000160 09 ec 27 be 5b 81 2b 3e aa b0 14 be 15 0b e0 bd
       -0.16398634 0.16748564 -0.14520517 -0.10939614
000170 82 e4 31 bd de ce e5 be 53 c2 78 3e 2b 2d 89 3e
       -0.043430813 -0.4488439 0.24292879 0.26792273
000180 85 54 69 3d 2d 61 e9 3d 69 c5 76 bc 73 1d c9 bc
       0.05696537 0.11395488 -0.015061715 -0.024550175
000190 b5 44 bd 3c 79 17 21 3d 8f 78 58 3d 1d fb e8 bc
       0.023104051 0.039329026 0.05284935 -0.028440053
0001a0 a4 44 27 be 92 0c 92 bd 9b ce a7 be c6 b7 57 be
       -0.16334778 -0.07131304 -0.32774815 -0.21066198
0001b0 08 61 7e be 86 81 ba 3e a9 53 17 be 55 e5 ee bd
       -0.24841702 0.36426944 -0.14778008 -0.11664835
0001c0 29 27 90 bd 0d d9 27 3e 77 3a 96 3e 54 52 8f bd
       -0.07038719 0.16391392 0.2934148 -0.06998125
0001d0 53 af a0 be 8b 96 80 3d 41 85 07 be 88 a4 53 3e
       -0.31383762 0.06278714 -0.13234426 0.20668232
0001e0 c6 4a a6 bd 76 42 16 be 43 7b f5 3d b5 d4 48 be
       -0.08119731 -0.1467379 0.11986401 -0.19612391
0001f0 d5 ad 30 3e b6 4a 9e bd b4 b7 6d 3e fe d9 7f be
       0.17253812 -0.07729094 0.23214608 -0.24985501
000200 a8 cf 55 3e 59 0a 03 3e 71 54 59 3e d9 cc cf bc
       0.20879996 0.12796916 0.21223618 -0.025366234
000210 bb c6 02 3e c4 82 29 3e 71 5b 7b 3d 77 c1 b8 bd
       0.12771122 0.1655379 0.061366502 -0.090212755
000220 cc 87 9a bd 6c 85 99 bd 44 81 96 be f2 81 67 be
       -0.075454324 -0.07496151 -0.29395497 -0.22608164
000230 51 01 23 3e df c6 d7 3e 9c e8 5e 3e bc 28 2d bd
       0.15918471 0.42143914 0.21768421 -0.042275175
000240 3b 8d 57 3c d7 a4 04 3e 09 02 96 be 73 e1 b5 3d
       0.013156231 0.12953506 -0.29298428 0.08880892
000250 6e 84 9b 3e 43 aa 54 3e d7 0a 4d be cb db 61 3d
       0.30374473 0.20768075 -0.20023666 0.05514125
000260 e7 b3 9b 3e a0 6b b6 bd 04 02 62 3e e0 77 7f 3e
       0.30410692 -0.089072466 0.22071081 0.24948072
000270 44 d0 37 bc d5 97 88 3d 4c b8 44 be 47 93 c8 3d
       -0.011219088 0.06669585 -0.19210929 0.09793716
000280 26 95 1d ba bc 70 64 ba 94 04 1f 3e 4f 2e ab 3e
       -0.00060112996 -0.00087143085 0.1552909 0.33433768
000290 ee 5c ae 3d eb 72 0d be bb 3a 3f be 20 5a 0f 3e
       0.08513819 -0.13813369 -0.18674748 0.13999224
0002a0 44 4c 49 bd 9c e0 03 3e 71 4f ae be fd 2a 42 3d
       -0.049145 0.1287865 -0.34044984 0.047404278
0002b0 08 05 44 be c1 a8 f3 3d 47 41 89 be 4e c1 97 bc
       -0.19142544 0.11897422 -0.26807615 -0.018524792
0002c0 e3 15 b1 3b 41 e4 01 be 0f 80 3a 3e 14 bd 96 3d
       0.0054042204 -0.12684728 0.18212913 0.073602825
0002d0 53 08 92 be ff e2 05 be aa 0c 8d 3d b2 10 53 3e
       -0.28521976 -0.13074873 0.06887181 0.20611838
0002e0 d6 e1 1a be fc 7e 03 bd 54 26 cc 3c 18 56 82 be
       -0.15125212 -0.032103524 0.02492062 -0.2545631
0002f0 ea a2 07 3e 33 53 0b be 33 11 93 be 7c 0c 00 bd
       0.1324574 -0.13605957 -0.2872406 -0.031261906
000300 c7 a6 e5 3d 70 a3 bb be 7d 62 f6 3d 0f 5b 90 bc
       0.11213451 -0.3664813 0.12030504 -0.017621545
000310 da 06 78 bd 69 6c 8f be c7 98 8f 3e d3 d8 51 3e
       -0.06055341 -0.28012398 0.28046247 0.20492868
000320 26 29 06 be 13 ad 58 be 54 93 fd bd 6e 2b 06 3f
       -0.13101634 -0.21159773 -0.12381616 0.5241002
000330 e6 26 58 3c 61 9d c7 3d 66 3e 9f bd 79 c7 07 bd
       0.013192868 0.097468145 -0.077755734 -0.033149216
000340 96 af 45 3e 14 c2 8c 3d da d7 90 bc af fe 5a 3e
       0.19305262 0.06872955 -0.017681051 0.21386217
000350 04 1a 51 3d 30 ab 00 3e 00 44 4c bc 2c 90 b8 bd
       0.0510502 0.12565303 -0.012467384 -0.090118736
000360 4a 7a 53 be e1 bf 5c bc 8c fa 10 be 8f 26 f4 bd
       -0.20652118 -0.013473482 -0.14158076 -0.11921417
000370 6f d0 87 3c 30 6e b7 be d4 b7 07 3e 29 ec 5b 3e
       0.016578881 -0.35826254 0.13253719 0.21476807
000380 c6 9e 12 bd 04 81 8f be 2b 7c 5e 3e df 81 34 3d
       -0.03579595 -0.2802812 0.21727054 0.044069167
000390 71 2c b8 3d 64 b3 e7 bd df 3b 8c 3d d9 d5 c3 bb
       0.089928515 -0.11313513 0.06847357 -0.0059764204
0003a0 f5 df 10 bd 12 f0 4d bc ac b1 53 3e 72 e0 72 3e
       -0.035369832 -0.012569444 0.20673245 0.23718432
0003b0 88 06 3c be 57 27 af 3c 26 b0 89 3e 16 d1 b2 be
       -0.18361866 0.021381063 0.26892203 -0.34925145
0003c0 f8 44 8e be ac 29 45 be 0b c7 07 3d ea b7 65 bd
       -0.27786994 -0.19254178 0.033148807 -0.056083597
0003d0 f5 83 d6 3d 64 81 71 be 13 12 7d 3e 3e 44 b1 3d
       0.104743876 -0.23584515 0.24713926 0.08655594
0003e0 e9 9e 4a be bf c6 38 be 03 d9 d7 3d 6f 5b 72 be
       -0.19787182 -0.18044566 0.105394386 -0.23667692
0003f0 0d 6b 4a 3c 8f 24 26 bd 52 8d 8e bd eb db 2f bb
       0.012354624 -0.04056221 -0.069605485 -0.0026833962

base.mlp.fc_h.0.bias f4 [64]
000000 00 00 00 00 00 00 00 00 00 00 00 00 00 00 00 00
       0.0 0.0 0.0 0.0
000010 00 00 00 00 00 00 00 00 00 00 00 00 00 00 00 00
       0.0 0.0 0.0 0.0
000020 00 00 00 00 00 00 00 00 00 00 00 00 00 00 00 00
       0.0 0.0 0.0 0.0
000030 00 00 00 00 00 00 00 00 00 00 00 00 00 00 00 00
       0.0 0.0 0.0 0.0
000040 00 00 00 00 00 00 00 00 00 00 00 00 00 00 00 00
       0.0 0.0 0.0 0.0
000050 00 00 00 00 00 00 00 00 00 00 00 00 00 00 00 00
       0.0 0.0 0.0 0.0
000060 00 00 00 00 00 00 00 00 00 00 00 00 00 00 00 00
       0.0 0.0 0.0 0.0
000070 00 00 00 00 00 00 00 00 00 00 00 00 00 00 00 00
       0.0 0.0 0.0 0.0
000080 00 00 00 00 00 00 00 00 00 00 00 00 00 00 00 00
       0.0 0.0 0.0 0.0
000090 00 00 00 00 00 00 00 00 00 00 00 00 00 00 00 00
       0.0 0.0 0.0 0.0
0000a0 00 00 00 00 00 00 00 00 00 00 00 00 00 00 00 00
       0.0 0.0 0.0 0.0
0000b0 00 00 00 00 00 00 00 00 00 00 00 00 00 00 00 00
       0.0 0.0 0.0 0.0
0000c0 00 00 00 00 00 00 00 00 00 00 00 00 00 00 00 00
       0.0 0.0 0.0 0.0
0000d0 00 00 00 00 00 00 00 00 00 00 00 00 00 00 00 00
       0.0 0.0 0.0 0.0
0000e0 00 00 00 00 00 00 00 00 00 00 00 00 00 00 00 00
       0.0 0.0 0.0 0.0
0000f0 00 00 00 00 00 00 00 00 00 00 00 00 00 00 00 00
       0.0 0.0 0.0 0.0

base.mlp.fc_h.2.weight f4 [64]
000000 00 00 80 3f 00 00 80 3f 00 00 80 3f 00 00 80 3f
       1.0 1.0 1.0 1.0
000010 00 00 80 3f 00 00 80 3f 00 00 80 3f 00 00 80 3f
       1.0 1.0 1.0 1.0
000020 00 00 80 3f 00 00 80 3f 00 00 80 3f 00 00 80 3f
       1.0 1.0 1.0 1.0
000030 00 00 80 3f 00 00 80 3f 00 00 80 3f 00 00 80 3f
       1.0 1.0 1.0 1.0
000040 00 00 80 3f 00 00 80 3f 00 00 80 3f 00 00 80 3f
       1.0 1.0 1.0 1.0
000050 00 00 80 3f 00 00 80 3f 00 00 80 3f 00 00 80 3f
       1.0 1.0 1.0 1.0
000060 00 00 80 3f 00 00 80 3f 00 00 80 3f 00 00 80 3f
       1.0 1.0 1.0 1.0
000070 00 00 80 3f 00 00 80 3f 00 00 80 3f 00 00 80 3f
       1.0 1.0 1.0 1.0
000080 00 00 80 3f 00 00 80 3f 00 00 80 3f 00 00 80 3f
       1.0 1.0 1.0 1.0
000090 00 00 80 3f 00 00 80 3f 00 00 80 3f 00 00 80 3f
       1.0 1.0 1.0 1.0
0000a0 00 00 80 3f 00 00 80 3f 00 00 80 3f 00 00 80 3f
       1.0 1.0 1.0 1.0
0000b0 00 00 80 3f 00 00 80 3f 00 00 80 3f 00 00 80 3f
       1.0 1.0 1.0 1.0
0000c0 00 00 80 3f 00 00 80 3f 00 00 80 3f 00 00 80 3f
       1.0 1.0 1.0 1.0
0000d0 00 00 80 3f 00 00 80 3f 00 00 80 3f 00 00 80 3f
       1.0 1.0 1.0 1.0
0000e0 00 00 80 3f 00 00 80 3f 00 00 80 3f 00 00 80 3f
       1.0 1.0 1.0 1.0
0000f0 00 00 80 3f 00 00 80 3f 00 00 80 3f 00 00 80 3f
       1.0 1.0 1.0 1.0

base.mlp.fc_h.2.bias f4 [64]
000000 00 00 00 00 00 00 00 00 00 00 00 00 00 00 00 00
       0.0 0.0 0.0 0.0
000010 00 00 00 00 00 00 00 00 00 00 00 00 00 00 00 00
       0.0 0.0 0.0 0.0
000020 00 00 00 00 00 00 00 00 00 00 00 00 00 00 00 00
       0.0 0.0 0.0 0.0
000030 00 00 00 00 00 00 00 00 00 00 00 00 00 00 00 00
       0.0 0.0 0.0 0.0
000040 00 00 00 00 00 00 00 00 00 00 00 00 00 00 00 00
       0.0 0.0 0.0 0.0
000050 00 00 00 00 00 00 00 00 00 00 00 00 00 00 00 00
       0.0 0.0 0.0 0.0
000060 00 00 00 00 00 00 00 00 00 00 00 00 00 00 00 00
       0.0 0.0 0.0 0.0
000070 00 00 00 00 00 00 00 00 00 00 00 00 00 00 00 00
       0.0 0.0 0.0 0.0
000080 00 00 00 00 00 00 00 00 00 00 00 00 00 00 00 00
       0.0 0.0 0.0 0.0
000090 00 00 00 00 00 00 00 00 00 00 00 00 00 00 00 00
       0.0 0.0 0.0 0.0
0000a0 00 00 00 00 00 00 00 00 00 00 00 00 00 00 00 00
       0.0 0.0 0.0 0.0
0000b0 00 00 00 00 00 00 00 00 00 00 00 00 00 00 00 00
       0.0 0.0 0.0 0.0
0000c0 00 00 00 00 00 00 00 00 00 00 00 00 00 00 00 00
       0.0 0.0 0.0 0.0
0000d0 00 00 00 00 00 00 00 00 00 00 00 00 00 00 00 00
       0.0 0.0 0.0 0.0
0000e0 00 00 00 00 00 00 00 00 00 00 00 00 00 00 00 00
       0.0 0.0 0.0 0.0
0000f0 00 00 00 00 00 00 00 00 00 00 00 00 00 00 00 00
       0.0 0.0 0.0 0.0

base.mlp.fc2.0.0.weight f4 [64, 64]
000000 f0 3f 86 bd 8d e5 fa 3d 42 56 62 3d 43 e8 34 be
       -0.06555164 0.122508146 0.055258043 -0.17666726
000010 82 93 3b 3c aa 5c a1 bd c3 7d 86 bd 7c f9 e4 3d
       0.011448743 -0.078790024 -0.06566956 0.11180398
000020 b0 bb 28 be f9 6e af bd aa 97 bc bd 7f c5 f1 bc
       -0.16477847 -0.08566088 -0.09208615 -0.029513119
000030 f2 6a 8a bd 22 4e 92 bd 2f a1 94 be 45 59 4c 3e
       -0.067586794 -0.07143809 -0.29029223 0.19955929
000040 1c bd 99 be c6 6a 91 be 9a 26 68 3e 9b 40 14 3e
       -0.30027092 -0.28401774 0.22670975 0.1447777
000050 84 18 ca 3d d3 51 6b 3e 25 aa 89 bd 6e cb 58 be
       0.09867957 0.22980432 -0.067219056 -0.21171352
000060 32 8c 0a 3d 24 2c 03 3d 41 78 a8 3b 9e ec a4 3e
       0.033825107 0.032024518 0.0051412885 0.32211775
000070 c4 48 98 bc ca 31 01 3e e9 e4 9d 3e 90 62 b8 3e
       -0.018589385 0.1261665 0.30838707 0.36012697
000080 d3 25 e1 bd ac 83 62 3e d0 d3 36 be 14 da 1f 3e
       -0.109935425 0.22120541 -0.17854238 0.15610534
000090 37 eb 09 3e 76 e8 3b be 04 4c f8 bd b6 78 cd 3d
       0.13468634 -0.18350396 -0.12123874 0.100327894
0000a0 c1 52 02 bd 8a de fa 3d c8 61 87 bc 2f df ab bd
       -0.0318172 0.12249477 -0.016526118 -0.08392178
0000b0 f7 88 e5 bc c6 52 d5 3d 7b 61 58 3e be ea 36 bd
       -0.028019411 0.104161784 0.21130936 -0.04465746
0000c0 f0 13 fa 3c 2c 05 11 bc 1e 27 e0 be e0 10 58 3b
       0.030527085 -0.008851331 -0.43779844 0.0032969043
0000d0 39 90 53 3e aa 5a 90 be 90 23 f0 bd ca 08 b1 bd
       0.20660485 -0.2819417 -0.11725533 -0.086442545
0000e0 d1 00 0b 3e 31 ea 86 3e 69 85 f0 3d 08 0f 3b 3e
       0.1357453 0.2635055 0.11744196 0.18267453
0000f0 80 c4 db 3e 6a b2 9d be 8e a2 bd bd 43 3a ae bd
       0.42923355 -0.30800182 -0.092595205 -0.08507206
000100 d2 d9 c5 bd eb 02 aa bc 80 22 07 be 75 19 d7 3c
       -0.096606866 -0.020753345 -0.13196754 0.026257256
000110 af 7c e5 3d e7 c7 9c 3d e9 f9 4d be de ff 4a bd
       0.11205422 0.07655316 -0.20114864 -0.04956042
000120 ba 85 7d bc cc fc 9d 3d c5 9f 9c be df c4 86 bd
       -0.015473777 0.07714233 -0.30590644 -0.06580519
000130 ca b9 9b 3e 90 9a 82 be 5d f5 0a be fa d0 30 3e
       0.30415183 -0.25508547 -0.13570161 0.17267218
000140 80 fd 69 bd 6e 96 9d bd 49 8c 2a 3e 65 6f a4 be
       -0.057126522 -0.07694708 0.16655077 -0.32116237
000150 04 4c aa bd 45 d6 07 be 87 9d 7e 3e 25 30 3c bb
       -0.0831528 -0.13265331 0.2486478 -0.002871522
000160 25 da 29 be 81 b8 28 3e df 0e 12 be 37 d6 da bd
       -0.16587122 0.16476633 -0.14263485 -0.106853895
000170 89 eb 23 bd c1 c4 e6 be 04 b1 75 3e a8 1d 88 3e
       -0.040019546 -0.45071986 0.23993307 0.26585126
000180 bb c6 75 3d 11 6a e5 3d 09 be 41 bc 1d 7b d8 bc
       0.060003977 0.11201871 -0.011825093 -0.026425892
000190 67 c9 ad 3c 9a d4 2e 3d 4f 2d 67 3d 0e 6b f8 bc
       0.0212142 0.04268322 0.056439694 -0.030324485
0001a0 67 31 29 be 93 aa 91 bd 7b c6 a8 be 18 a3 59 be
       -0.16522752 -0.071126126 -0.3296393 -0.21253622
0001b0 b7 5d 7c be ba 8a b9 3e b7 1b 15 be ee b4 f2 bd
       -0.24645124 0.36238652 -0.14561354 -0.11850916
0001c0 9c 2a 96 bd a2 4b 2a 3e ff 38 95 3e 5c 40 8b bd
       -0.07332346 0.16630414 0.29145047 -0.06799385
0001d0 0d a6 a1 be f3 bc 80 3d 56 75 09 be fe 24 57 3e
       -0.31572 0.06286039 -0.13423666 0.21010205
0001e0 2d bf 9f bd 70 30 18 be 1e aa f1 3d 4b 58 45 be
       -0.07800136 -0.14862227 0.118000254 -0.19271962
0001f0 04 bb 2e 3e fb 22 a2 bd 3e 1d 6b 3e 6e 5f 7c be
       0.17063528 -0.07916828 0.22960374 -0.24645779
000200 e5 fe 55 3e 2b 64 ff 3d cb c1 5b 3e 6c 4b cf bc
       0.20898016 0.124702774 0.21460645 -0.025304519
000210 28 2c 03 3e 2d 6f 26 3e 9b 3d 81 3d c8 9b b2 bd
       0.12809813 0.16253348 0.063105784 -0.08721119
000220 aa ae 95 bd 67 27 93 bd 5a 4a 95 be ad 32 64 be
       -0.07308705 -0.0718525 -0.29158288 -0.22284956
000230 e6 39 23 3e 90 01 d9 3e 55 ed 5f 3e ba 78 23 bd
       0.15940055 0.42384005 0.21867879 -0.039910056
000240 b3 3b 7e 3c 05 00 03 3e e2 5e 95 be 82 b9 ba 3d
       0.015517163 0.12792976 -0.29173952 0.09117414
000250 61 83 9a 3e 2e 03 51 3e 02 c7 4a be 82 e2 5b 3d
       0.3017836 0.20411369 -0.19802478 0.05368281
000260 a0 1b 9d 3e cf 41 bd bd ef 2c 60 3e a9 f2 80 3e
       0.3068514 -0.092410676 0.21892141 0.25185135
000270 0a d9 3a bc 7e d4 8d 3d 72 b1 46 be 07 48 ca 3d
       -0.011404285 0.06925295 -0.19403628 0.098770194
000280 0b 52 e8 3a 37 01 58 bb 59 6f 21 3e e4 ad ac 3e
       0.0017724646 -0.0032959708 0.15765132 0.33726418
000290 b2 fb b4 3d 5c 30 0d be d9 e5 3e be 55 cb 11 3e
       0.088370696 -0.13787979 -0.18642367 0.14237721
0002a0 83 25 3f bd 2a 8c 00 3e fe eb ac be 61 ec 4e 3d
       -0.046666633 0.12553468 -0.33773798 0.050518397
0002b0 40 53 46 be 5e 00 f6 3d 3d 0a 88 be a6 42 7b bc
       -0.19367695 0.12011789 -0.2657031 -0.015335714
0002c0 d9 d6 3f 3b e2 bc 01 be 86 d8 3a 3e 66 92 9b 3d
       0.0029272346 -0.1266971 0.1824666 0.07596283
0002d0 64 c1 90 be 70 6b 09 be ab 55 93 3d 8d 7c 55 3e
       -0.28272545 -0.1341989 0.07194074 0.20848294
0002e0 2f 91 1a be 42 f9 eb bc 5c 11 e6 3c 97 20 81 be
       -0.15094446 -0.028805379 0.02808445 -0.25220177
0002f0 11 75 0a 3e ec 25 08 be 0e 5d 94 be ab b2 ec bc
       0.1352122 -0.13295716 -0.28977245 -0.02889379
000300 b8 86 e6 3d 80 6b bb be 98 42 f7 3d 7e db 8c bc
       0.11256164 -0.36605453 0.120732486 -0.017194506
000310 8e ba 77 bd 94 56 8f be 76 0b 8f 3e ec a6 51 3e
       -0.060480647 -0.2799574 0.27938432 0.20473832
000320 31 b9 05 be c2 13 59 be 51 b3 fc bd 8a f7 05 3f
       -0.13058926 -0.21198943 -0.123388894 0.5233084
000330 34 25 5f 3c 38 c7 c7 3d 09 0f a1 bd d8 07 06 bd
       0.01361971 0.09754795 -0.07864196 -0.032722324
000340 76 1f 46 3e 14 d0 8b 3d 38 e5 9a bc bf 6e 5b 3e
       0.19347939 0.06826797 -0.018908128 0.21428965
000350 40 1e 4b 3d 1e d3 ff 3d e1 93 51 bc 75 b0 b7 bd
       0.049589396 0.12491439 -0.012791605 -0.089692034
000360 89 7a 53 be b6 c3 55 bc ae 8a 10 be 46 46 f3 bd
       -0.20652212 -0.013047149 -0.14115402 -0.11878638
000370 9f 4f 8b 3c 44 5c b7 be e3 65 07 3e 03 89 5b 3e
       0.01700574 -0.3581258 0.1322246 0.21438985
000380 55 df 10 bd 24 49 8f be 18 ec 5e 3e db 0c 34 3d
       -0.035369236 -0.2798549 0.2176975 0.043957572
000390 4c 92 b6 3d 93 d3 e6 bd b4 1b 8d 3d a9 a6 b6 bb
       0.08914623 -0.11270823 0.068900496 -0.0055740667
0003a0 e8 eb 0f bd 33 f2 46 bc 97 b8 53 3e 9d 75 72 3e
       -0.035137087 -0.012142706 0.20675884 0.23677678
0003b0 aa 96 3b be 6d 6b ab 3c 22 e8 89 3e 39 21 b3 be
       -0.18319193 0.020925248 0.26934916 -0.34986284
0003c0 de 55 8e be ce b9 44 be 06 8f 08 3d 0c f8 63 bd
       -0.27799886 -0.19211504 0.033339523 -0.055656478
0003d0 a1 f3 d6 3d 86 11 71 be 5c bd 7c 3e f8 23 b2 3d
       0.10495687 -0.23541841 0.2468161 0.08698267
0003e0 fa 2e 4a be ae df 39 be 3b bc d6 3d 83 eb 71 be
       -0.19744483 -0.18151733 0.10485121 -0.23624997
0003f0 c7 6e 4a 3c eb b6 27 bd d2 16 8e bd ec de 13 bb
       0.012355513 -0.04094593 -0.069379464 -0.0022563292

base.mlp.fc2.0.0.bias f4 [64]
000000 83 17 db b9 a9 ca 80 3a d8 4f 12 bb a5 10 0f ba
       -0.00041788453 0.0009826022 -0.0022325423 -0.00054574973
000010 04 8b 42 3a 0c 57 ad bb 17 49 3b bb 25 aa a9 ba
       0.00074212276 -0.005289918 -0.00285775 -0.0012944384
000020 0f b2 89 3a ae cb 29 3a 5b 70 8f 39 50 ec 14 bb
       0.0010505336 0.0006477189 0.00027358797 -0.002272386
000030 c2 1e bd ba f3 c8 51 bb c7 a5 20 bb b3 f2 83 ba
       -0.0014428722 -0.0032010644 -0.0024512873 -0.0010066837
000040 57 98 8e ba 37 5d 7a ba d0 cf a5 3a 9d 97 3b bb
       -0.0010879141 -0.0009550633 0.0012650434 -0.0028624304
000050 c0 b1 86 3b 5e 33 11 3b 20 fe a1 bb 61 21 39 bb
       0.004110545 0.0022155861 -0.004943624 -0.0028248655
000060 22 d0 83 3a 22 d7 1f b7 c3 ee 33 3b b9 b3 3b bb
       0.0010056535 -9.527228e-06 0.0027455545 -0.0028641059
000070 9c a4 07 ba 97 be 3b bb 94 2a 66 ba 4e bb 8a b9
       -0.000517437 -0.0028647536 -0.00087801483 -0.00026460964
000080 9c 8d 3b bb eb 57 36 37 25 e1 3b bb 6a 9d 1c 3b
       -0.0028618341 1.0868515e-05 -0.0028668132 0.0023897537
000090 b9 53 ac 3a ec 90 0e ba 3f ab c8 b9 e2 33 bb b8
       0.001314751 -0.0005438465 -0.0003827456 -8.926519e-05
0000a0 65 9c 9a ba c5 8a 6b 3a 00 00 00 00 53 bb ff b9
       -0.0011795877 0.0008985217 0.0 -0.00048776958
0000b0 88 e0 63 ba 9b f3 38 ba a5 e6 e3 3a 30 29 07 3b
       -0.00086928206 -0.0007055343 0.0017387463 0.0020623915
0000c0 e6 91 13 3b eb d0 60 bb 57 e4 f0 3a 4e 3d 3b 3b
       0.0022517382 -0.0034304212 0.0018378597 0.0028570476
0000d0 2b c1 3b bb 7d 8e c5 b9 5e f8 2d 3b d0 6c e0 3a
       -0.0028649073 -0.0003768093 0.0026545743 0.0017122272
0000e0 a3 7b 98 39 2f 2f 37 3b 00 00 00 00 c3 9c 06 ba
       0.00029083816 0.0027951708 0.0 -0.00051350537
0000f0 26 1f 85 3a f1 b5 45 3a ff 10 cd 3a 85 65 ee 39
       0.0010156378 0.0007542065 0.0015645324 0.00045470535

base.mlp.fc2.0.2.weight f4 [64]
000000 7a 4b 80 3f 12 e6 7e 3f 18 1f 7f 3f b2 97 7f 3f
       1.0023034 0.9956981 0.9965682 0.99840844
000010 c3 94 7f 3f fd 83 7f 3f 15 14 7f 3f f6 36 7f 3f
       0.9983637 0.99810773 0.9964002 0.9969324
000020 a4 b0 7f 3f 77 12 7f 3f cf 4f 80 3f 62 32 80 3f
       0.9987891 0.9963755 1.0024356 1.0015376
000030 fc a4 7f 3f ff 32 80 3f 31 99 7f 3f 1f f2 7e 3f
       0.9986112 1.0015563 0.99843127 0.995882
000040 d1 32 80 3f a8 2d 80 3f 12 6d 80 3f 51 21 7f 3f
       1.0015508 1.0013933 1.0033286 0.9966021
000050 2f 29 80 3f 29 9d 7f 3f 1d 94 7f 3f 1a 72 80 3f
       1.0012568 0.9984918 0.9983538 1.0034821
000060 0e 71 7f 3f af 72 80 3f 4f 1c 80 3f fe 1d 7f 3f
       0.9978188 1.0034999 1.0008639 0.9965514
000070 8c 9a 7f 3f e9 13 7f 3f 93 8a 7f 3f 36 88 7f 3f
       0.99845195 0.99639755 0.9982082 0.99817216
000080 d0 1d 7f 3f 08 31 80 3f 23 19 80 3f 03 4c 80 3f
       0.99654865 1.0014963 1.0007671 1.0023197
000090 6c 38 80 3f 68 33 80 3f 50 57 80 3f 62 89 7f 3f
       1.0017219 1.0015688 1.0026646 0.99819005
0000a0 6c a2 7f 3f f0 6f 80 3f de 95 7f 3f fa 7a 80 3f
       0.9985721 1.0034161 0.99838054 1.003753
0000b0 fe 11 7f 3f 23 47 80 3f 24 8e 7f 3f 9a e6 7f 3f
       0.9963683 1.0021709 0.99826264 0.99961245
0000c0 e5 60 80 3f ea 8c 7f 3f a0 aa 7f 3f 2e 72 80 3f
       1.002957 0.9982439 0.9986973 1.0034845
0000d0 b6 31 7f 3f 4c 2f 7f 3f 63 5f 80 3f 7e 9b 7f 3f
       0.9968523 0.99681544 1.002911 0.9984664
0000e0 54 59 80 3f 80 9e 7f 3f 3d 97 7f 3f 1f 7a 7f 3f
       1.0027261 0.99851227 0.99840146 0.99795717
0000f0 e3 6f 80 3f 5b ff 7f 3f 62 3f 80 3f 3c 5b 80 3f
       1.0034145 0.99999017 1.0019343 1.0027843

base.mlp.fc2.0.2.bias f4 [64]
000000 cd 2f 68 3b cb 16 68 bb e2 90 67 bb b9 b9 65 bb
       0.0035428882 -0.0035413976 -0.003533416 -0.0035053326
000010 f6 c7 65 bb a5 50 65 bb f2 be 66 3b 01 c5 66 bb
       -0.0035061813 -0.0034990695 0.0035209027 -0.0035212638
000020 e9 37 5d bb c2 45 67 bb f7 4d 68 bb de 93 68 3b
       -0.003375525 -0.0035289382 -0.0035446861 0.0035488526
000030 30 e2 66 bb 3e 6d 68 3b 76 6b 67 bb 05 c8 67 bb
       -0.0035230033 0.0035465504 -0.0035311854 -0.0035367024
000040 36 97 68 3b 49 8b 68 3b fb 6d 68 3b f9 7d 67 3b
       0.003549052 0.003548341 0.0035465944 0.0035322888
000050 ee ae 62 3b b0 63 67 bb 91 95 b2 3a 5c 3b 64 bb
       0.003458913 -0.003530722 0.0013624897 -0.003482542
000060 4b 74 67 bb 37 17 68 bb bc ba 63 bb 8d d8 67 3b
       -0.0035317119 -0.0035414228 -0.0034748754 0.0035376877
000070 39 98 67 3b 82 de 67 3b 6a 7d 65 bb 94 52 66 bb
       0.0035338535 0.0035380428 -0.003501738 -0.0035144435
000080 da 67 67 3b 0f 6f 68 bb f0 91 68 3b 56 de 67 3b
       0.0035309703 -0.0035466587 0.0035487376 0.0035380325
000090 2b 21 6a 3b 77 72 68 3b 4b 49 68 bb 1d 0b 67 bb
       0.0035725336 0.0035468617 -0.0035444077 -0.0035254427
0000a0 1f e6 67 bb 64 17 68 bb 9e 95 65 bb d0 29 68 3b
       -0.0035384966 -0.0035414333 -0.0035031806 0.0035425313
0000b0 91 a1 66 bb f0 4d 68 3b ef 5f 65 bb ea 70 68 bb
       -0.0035191516 0.0035446845 -0.0034999808 -0.0035467693
0000c0 31 d4 67 3b af c5 67 bb b0 9f 67 bb 31 03 68 bb
       0.0035374279 -0.0035365631 -0.0035342984 -0.0035402293
0000d0 b5 e3 67 3b 8e e4 67 bb d2 5e 67 3b b8 61 67 bb
       0.0035383527 -0.0035384032 0.003530432 -0.0035306048
0000e0 3e 46 68 bb f1 3f 67 bb f4 ea 66 bb e1 01 49 bb
       -0.0035442258 -0.0035285915 -0.0035235258 -0.0030671286
0000f0 40 21 68 bb 38 d0 67 3b 6c 2f 68 3b 22 7d 67 3b
       -0.003542021 0.003537191 0.0035428656 0.0035322388

v_out.weight f4 [1, 64]
000000 eb 48 f8 bc 4f bc 7c 3e 55 79 1d 3e 07 99 43 3d
       -0.030308207 0.24681209 0.15378316 0.04775336
000010 ec eb 59 3d 1e ad 30 3d b3 5d 21 bd a2 8c 88 3d
       0.05320351 0.043133847 -0.039396 0.066674486
000020 e2 13 52 3c 91 32 3f 3d 32 0c 81 3e cf 6c b2 bd
       0.012822123 0.046679083 0.25204617 -0.0871216
000030 a1 96 b4 3d 54 d0 5c be 11 fb 0d 3e 81 69 d0 3d
       0.08817793 -0.21563846 0.13865305 0.10176373
000040 af 91 ab bd 33 2d cf bd 33 43 90 bc 88 87 c6 bd
       -0.08377396 -0.10116043 -0.017610168 -0.09693819
000050 99 63 6a bc ac 79 15 3e 11 6f a3 ba 0f 4c 61 3c
       -0.0143059725 0.14597195 -0.0012469013 0.013751044
000060 a8 70 59 3d d0 16 59 3e 5f 4f d4 3c e6 b5 2a be
       0.053085953 0.21200109 0.025916753 -0.16670951
000070 b9 9c 37 be 8e c2 e8 bd 4b 29 38 3d 47 63 84 3d
       -0.17930879 -0.11365233 0.044961255 0.06464248
000080 82 79 ad bd e7 da d4 3d 44 aa e2 bd ea f0 37 be
       -0.084704414 0.10393315 -0.11067632 -0.17962995
000090 93 87 08 bc 50 60 38 be 4d f3 c8 3d 52 4e 96 3d
       -0.008333105 -0.1800549 0.09812031 0.07339157
0000a0 c0 f2 9f 3e 38 f8 c6 3d d0 b6 39 3d 1e d7 0b be
       0.3123989 0.09715313 0.04534036 -0.1365628
0000b0 fc 63 81 3d 1d 1c b1 bd 7c af 35 3d 5d 13 01 3e
       0.06317899 -0.0864794 0.044356808 0.12605043
0000c0 7f 5c 17 be 8e a7 70 3e 41 47 46 3e 84 e3 a5 3d
       -0.14781378 0.23501417 0.19363119 0.08100036
0000d0 b6 cf 57 be e7 15 79 3d 6b cb b4 bd 41 0b 0d 3e
       -0.21075329 0.060811903 -0.088278614 0.13773824
0000e0 78 e1 0d 3e 26 09 ef 3d 72 21 b6 3d c9 22 5b 3b
       0.13855541 0.11671667 0.08893098 0.0033437482
0000f0 b7 03 ea 3d dd ee 3e bd 25 f9 41 be a3 72 c8 bd
       0.1142649 -0.046614517 -0.18942697 -0.0978749
